homework-week-12/gan_mnist_dr0.5_adamTrue_lrg0.0004_lrd0.0004.pt (torch, 863251 bytes, 7 tensors)

generator.0.weight f4 [128, 100]
0.04554582 0.19040099 0.11530893 0.24308845 -0.0897341 0.3080391 -0.1771926 0.37373728
0.15974486 -0.04069774 0.36490422 -0.07266418 0.16566655 0.01870671 0.054203436 0.029084086
0.15326017 0.20484012 -0.12435309 0.049629223 0.008583185 -0.20488611 0.1012415 -0.053202678
-0.06403409 0.025139976 -0.27533585 -0.39878604 0.05529585 -0.014309173 0.18416935 -0.22291324
-0.0010974931 -0.04925559 0.045345377 0.23405421 0.17990665 0.04088746 0.0070623783 -0.09136123
0.1774969 -0.08763765 -0.14809887 0.09035079 0.094857395 -0.17047538 -0.03049193 -0.0022488907
0.4461882 -0.038807675 -0.27972806 0.033981524 0.02227837 0.09252635 0.07489011 0.08127004
0.10670826 -0.062313896 0.116245754 -0.35459244 0.109153315 -0.34085387 0.23263212 -0.20783247
0.067476116 -0.0002774577 0.20467108 -0.16538435 -0.1383324 -0.11792687 0.06072484 -0.016783718
0.0149788745 -0.023696695 -0.13091107 -0.11945416 -0.15057181 0.030408353 0.13133296 0.34725177
-0.26991677 0.037395798 0.12674627 0.19210605 0.21633758 0.20041892 0.08064144 0.014655395
-0.010065123 0.3358057 -0.0614404 -0.0126915155 0.19438756 -0.03108021 -0.12734702 0.0022759284
0.041795306 -0.06685775 -0.11989824 -0.16909648 -0.19299245 0.112273544 -0.178923 -0.004042265
0.003952077 -0.061529137 -0.14700052 -0.13631459 -0.025771867 -0.030045124 0.35495353 0.12100387
0.047249466 -0.24370426 -0.20423783 -0.22902988 -0.04286927 -0.21040857 0.11293337 -0.117722005
0.024778368 -0.23507269 -0.053539746 -0.0065254257 -0.14351389 -0.18626343 0.037841685 -0.012036644
0.2374189 0.06162166 0.0656085 0.17699887 -0.15471761 0.10110857 0.06598009 -0.23078151
-0.19798893 -0.31671515 -0.043930218 -0.16734953 0.13629743 0.013900055 -0.072078764 0.08504996
0.0067675784 -0.33413547 0.012175885 -0.13393931 0.11819723 -0.2016538 -0.14663535 0.020822236
-0.013942766 -0.0759016 -0.12676086 -0.13589197 0.09591644 0.09373166 0.25079834 -0.16075553
0.22252305 0.20622857 0.028136704 -0.030848596 0.19588095 -0.13429102 -0.16174789 0.21899284
-0.032219924 -0.12604737 0.28197056 0.1620823 -0.030181807 -0.032289892 -0.11099062 0.031311713
-0.24531765 -0.040323902 0.22200984 -0.2727098 -0.028992677 0.019316627 0.020244054 -0.116951615
0.068442956 0.30024266 -0.112878546 -0.27787817 0.13730408 0.34050637 -0.135558 0.061323334
0.17246422 0.082265295 -0.06171498 0.03710291 -0.03351536 -0.1393978 -0.022046912 -0.035589654
-0.18528858 0.16143274 0.071219206 0.10696164 0.15427773 0.016229507 -0.024988664 -0.19130298
-0.09210201 0.1623074 -0.23608279 0.081981465 -0.04525241 -0.09255565 -0.15194736 -0.0634327
-0.026158893 -0.082173064 0.21689299 -0.12842356 -0.07331824 0.35606873 -0.31611043 -0.16424802
0.046617597 -0.39248168 0.08469923 0.3015361 0.032391485 -0.0612967 -0.15773498 0.120645255
0.37555596 0.18857881 0.17272867 -0.23844312 -0.26030818 -0.08106451 -0.1836007 -0.02338408
-0.11110288 -0.13639127 -0.17457716 0.15175049 0.08279007 0.18667598 -0.13894975 0.008545206
-0.30133605 -0.06124401 0.41305518 -0.10468291 0.043244217 -0.11544668 -0.11343389 -0.27818614
00000000: 418e 3a3d 7af8 423e 1727 ec3d 2eec 783e
00000010: 83c6 b7bd 4db7 9d3e fa71 35be 7e5a bf3e
00000020: 2894 233e acb2 26bd bad4 ba3e f5d0 94bd
00000030: 7ea4 293e d03e 993c 6c04 5e3d c041 ee3c
00000040: 3cf0 1c3e 9cc1 513e d5ac febd 0348 4b3d
00000050: 7da0 0c3c aacd 51be b457 cf3d 0deb 59bd
00000060: 4e24 83bd 5af2 cd3c d2f8 8cbe af2d ccbe
00000070: e77d 623d 0671 6abc e496 3c3e 5e43 64be
00000080: c2d9 8fba 3bc0 49bd 13bc 393d e8ab 6f3e
00000090: 7339 383e 9c79 273d 866b e73b 991b bbbd
000000a0: bfc1 353e 5e7b b3bd 3ba7 17be d609 b93d
000000b0: 9844 c23d 1991 2ebe 36ca f9bc 2062 13bb
000000c0: c872 e43e ccf4 1ebd 8438 8fbe 3630 0b3d
000000d0: 2181 b63c 747e bd3d fc5f 993d e870 a63d
000000e0: dc89 da3d db3c 7fbd 4112 ee3d 248d b5be
000000f0: c68b df3d 6684 aebe 1d37 6e3e 09d2 54be
00000100: eb30 8a3d be77 91b9 4c95 513e 845a 29be
00000110: 02a7 0dbe a583 f1bd 9cba 783d 027e 89bc
00000120: f469 753c 921f c2bc 8d0d 06be 62a4 f4bd
00000130: 7f2f 1abe f01a f93c 267c 063e fcca b13e
00000140: 8832 8abe 562c 193d c6c9 013e 73b7 443e
00000150: 9987 5d3e 9e3a 4d3e 5727 a53d 2f1d 703c
00000160: 30e8 24bc baee ab3e eea8 7bbd 13f0 4fbc
00000170: 880d 473e ed9b febc 4267 02be be27 153b
00000180: 8e31 2b3d b7ec 88bd 358d f5bd a127 2dbe
00000190: d09f 45be acef e53d 9737 37be fa74 84bb
000001a0: 6d80 813b fa05 7cbd 4e87 16be 0d96 0bbe
000001b0: 861f d3bc 3121 f6bc 78bc b53e e1d0 f73d
000001c0: a888 413d 9c8d 79be b923 51be cf86 6abe
000001d0: b097 2fbd 5875 57be 9c49 e73d 3c18 f1bd
000001e0: 01fc ca3c e5b6 70be 7e4c 5bbd 3dd3 d5bb
000001f0: 4ef5 12be d7bb 3ebe e2ff 1a3d 5835 45bc
00000200: f11d 733e fe66 7c3d c05d 863d 313f 353e
00000210: 4b6e 1ebe 0312 cf3d 9220 873d fd51 6cbe
00000220: 9cbd 4abe 7d28 a2be 2cf0 33bd ad5d 2bbe
00000230: 8e91 0b3e 0ebd 633c 089e 93bd ac2e ae3d
00000240: 90c2 dd3b ce13 abbe 5d7d 473c 6327 09be
00000250: 6411 f23d 557e 4ebe 9427 16be 6593 aa3c
00000260: 3370 64bc 4c72 9bbd 99cd 01be 4427 0bbe
00000270: d76f c43d 62f6 bf3d a468 803e 199d 24be
00000280: 15dd 633e 952d 533e f27e e63c 32b6 fcbc
00000290: 0495 483e 9683 09be 3da1 25be a93f 603e
000002a0: 0af9 03bd 9012 01be 725e 903e e7f8 253e
000002b0: d63f f7bc 6842 04bd 0d4f e3bd b640 003d
000002c0: 8d34 7bbe ad2a 25bd 8c56 633e 9ea0 8bbe
000002d0: 0d82 edbc e73d 9e3c dcd6 a53c 5484 efbd
000002e0: d22b 8c3d 68b9 993e de2c e7bd 0c46 8ebe
000002f0: 7199 0c3e da56 ae3e b7cf 0abe 2d2e 7b3d
00000300: 769a 303e b57a a83d d9c8 7cbd 39f9 173d
00000310: 6747 09bd 4cbe 0ebe ba9b b4bc 75c6 11bd
00000320: 4abc 3dbe a04e 253e 60db 913d b40e db3d
00000330: fbfa 1d3e bef3 843c 07b5 ccbc eee4 43be
00000340: fb9f bcbd e933 263e b0bf 71be e6e5 a73d
00000350: 975a 39bd d18d bdbd 1798 1bbe 01e9 81bd
00000360: 2d4b d6bc 5a4a a8bd 3219 5e3e 7781 03be
00000370: e027 96bd a44e b63e 3ad9 a1be a230 28be
00000380: 18f2 3e3d 5cf3 c8be ca76 ad3d f162 9a3e
00000390: efac 043d 4012 7bbd 4785 21be dc14 f73d
000003a0: df48 c03e ce1a 413e c9df 303e 6f2a 74be
000003b0: 1d47 85be 2605 a6bd d201 3cbe f88f bfbc
000003c0: e889 e3bd 27aa 0bbe 5bc4 32be 7b64 1b3e
000003d0: d78d a93d fd27 3f3e d848 0ebe 3101 0c3c
000003e0: b848 9abe 00db 7abd f87b d33e fe63 d6bd
000003f0: d920 313d 4f6f ecbd 0750 e8bd 6a6e 8ebe

generator.0.bias f4 [128]
0.01458668 0.20876798 -0.37416753 -1.1180534 0.06493062 -0.6303814 -0.31739622 -0.43271363
0.13727139 -0.18062986 -0.658388 -0.6400706 0.024350882 -0.6908081 0.10279275 0.042828046
-0.8492103 -0.5255668 -0.54492027 -0.79156667 -0.55082554 -0.9165969 -0.36315116 -0.63869697
-0.4925194 0.4566482 -0.23011687 0.21626553 -0.90531355 -0.65056086 0.001802631 -0.065591946
-0.73429596 -0.028566487 -0.823472 -0.39956614 -1.1734416 -0.5937011 -0.48626655 -0.7072222
-0.30145618 -0.29046828 -0.32986578 -0.6373095 -0.1433599 -0.1541755 -0.4205012 -1.0598923
-0.71527827 -1.673036 -0.115035 -0.95048696 -0.90495545 -0.32481277 0.024951423 -0.14973067
-0.036382254 -0.42921737 -0.5550995 -1.1054436 -0.43534225 -0.7308249 -0.2760046 0.18244627
-0.6676059 -0.22604518 0.52517235 -0.086909965 -0.52089626 -0.54497856 -0.36611772 -1.2772001
-0.5195326 -0.44258344 -0.3417049 0.24341187 -1.073959 0.28295487 -1.0008769 -0.71336585
-0.34270516 -1.07973 -0.31243715 -0.74455446 -0.5831529 -0.76573557 -0.77355814 -0.29172903
-0.59399027 -0.7162699 -0.52510166 0.031225227 -0.14690834 -0.8772164 -0.2694194 -0.30130574
-0.7013692 -0.31060636 -0.3261992 -0.5818424 0.012759614 -0.706962 -0.3730851 -1.0591253
-0.36002275 -0.051304787 -0.69339156 -0.14946547 -0.7298068 0.33342388 0.44149834 -0.50685906
-1.4924535 -0.7100567 -0.5163418 -0.8496507 -0.610112 -0.2416088 -0.39740312 0.34667668
-0.52158207 -0.23757243 -0.4993516 -0.40962544 -1.477106 0.29900092 -0.5893831 -0.07310291
00000000: f8fc 6e3c 46c7 553e e392 bfbe 601c 8fbf
00000010: 58fa 843d ad60 21bf c281 a2be a48c ddbe
00000020: df90 0c3e 09f7 38be 1e8c 28bf abdb 23bf
00000030: 807b c73c cdd8 30bf 0185 d23d 766c 2f3d
00000040: d965 59bf 8c8b 06bf e57f 0bbf 1da4 4abf
00000050: e702 0dbf 18a6 6abf f3ee b9be a581 23bf
00000060: 812b fcbe cbcd e93e c2a3 6bbe b674 5d3e
00000070: a1c2 67bf 288b 26bf 4246 ec3a 1255 86bd
00000080: d2fa 3bbf 4404 eabc 10cf 52bf ef93 ccbe
00000090: 5633 96bf ccfc 17bf eef7 f8be 840c 35bf
000000a0: 7758 9abe 42b8 94be 2be4 a8be b726 23bf
000000b0: f0cc 12be 2fe0 1dbe ef4b d7be 8daa 87bf
000000c0: 7a1c 37bf 0b26 d6bf 7897 ebbd 1d53 73bf
000000d0: 29ab 67bf dc4d a6be ed66 cc3c ff52 19be
000000e0: 8f05 15bd 61c2 dbbe 001b 0ebf 2d7f 8dbf
000000f0: 2ee5 debe 5717 3bbf 7a50 8dbe 32d3 3a3e
00000100: 38e8 2abf 6378 67be b271 063f dafd b1bd
00000110: 7559 05bf b783 0bbf c873 bbbe 4b7b a3bf
00000120: 1700 05bf 4c9a e2be f2f3 aebe f640 793e
00000130: 7d77 89bf 76df 903e bc1c 80bf 259f 36bf
00000140: 0d77 afbe 9834 8abf c3f7 9fbe 1f9b 3ebf
00000150: 8249 15bf 3f07 44bf e807 46bf 825d 95be
00000160: bf0f 18bf 775d 37bf 106d 06bf 0ccc ff3c
00000170: 246f 16be 4191 60bf 57f1 89be bf44 9abe
00000180: ef8c 33bf cc07 9fbe 9503 a7be a0f3 14bf
00000190: b30d 513c 76fb 34bf 0305 bfbe 6b91 87bf
000001a0: e754 b8be f824 52bd 1c82 31bf 7a0d 19be
000001b0: 9ed4 3abf 89b6 aa3e 120c e23e 84c1 01bf
000001c0: b708 bfbf 47c6 35bf fa2e 04bf b582 59bf
000001d0: 4d30 1cbf 4c68 77be 6c78 cbbe 9b7f b13e
000001e0: 6786 05bf 3046 73be 03ab ffbe 6dba d1be
000001f0: cf11 bdbf a616 993e d0e1 16bf fab6 95bd

generator.3.weight f4 [784, 128]
-0.060393795 -0.021882134 0.0057671145 0.03844984 -0.07510861 -0.1540572 -0.1265695 0.05493646
-0.05901418 -0.027930683 -0.08672215 -0.123338416 0.016323635 -0.14139922 -0.05685732 0.0678131
-0.07131975 -0.20118222 -0.01618676 -0.009566137 0.0029323525 -0.013670512 -0.10368075 -0.07699224
-0.08383058 -0.05974332 -0.0072632185 0.09092053 0.042151935 -0.1187547 -0.06102231 -0.07074359
-0.01649901 -0.05037351 -0.0052880086 0.058681298 0.02305638 -0.05793637 0.017679345 0.00958583
0.07236477 0.002867164 -0.11493255 -0.03883112 -0.16811162 -0.09068311 -0.14047466 -0.05676193
0.022737691 -0.10628258 -0.00042753862 -0.066704236 -0.12011391 -0.0716022 -0.042970665 -0.028364591
-0.084399395 -0.105916895 0.015331283 -0.090163454 -0.13953766 -0.10172306 0.041476082 -0.03259979
-0.11405767 -0.1149228 -0.031284146 -0.02426323 -0.13449681 -0.09946343 -0.0888039 -0.32900226
-0.07672293 0.049574483 -0.0017186019 -0.012437064 -0.05261725 -0.02435963 0.0061409655 -0.18477768
-0.10872432 -0.19377734 -0.10675078 -0.10258897 -0.05615999 -0.08710005 -0.18893668 0.046558823
-0.1398536 -0.2119875 -0.08620477 -0.015545993 0.028307816 0.037920933 -0.026014864 -0.0041937963
-0.10775042 -0.09261519 -0.104603566 -0.17173366 -0.065501645 0.06768778 0.046047486 -0.028303051
-0.05391215 -0.027960695 -0.29170954 -0.057971854 -0.053878475 -0.020300254 -0.107827194 -0.08331798
-0.21167639 -0.09835887 0.004559965 0.08962417 -0.11073449 -0.09211775 0.06456333 -0.023439538
-0.20928337 -0.02358015 -0.19969387 -0.20532677 -0.14201987 0.016162496 -0.09240439 -0.07285936
-0.15344507 -0.121354304 -0.14121522 -0.043271452 0.12524214 -0.09929328 0.12114607 -0.017605692
0.028440377 -0.085730754 -0.1086562 0.0639172 -0.1963114 -0.057022054 0.008167133 0.04344372
0.022121187 -0.09868672 -0.050624635 -0.02061228 -0.06733138 0.04620628 -0.12890549 -0.05886663
0.1708639 0.03531899 -0.0866434 -0.24083188 -0.014930412 -0.054065473 0.0339207 -0.03884654
-0.024090169 0.016594067 -0.1257966 0.032452933 -0.06539208 -0.06288864 -0.042877708 0.01790764
0.015619189 0.10796784 0.012065317 -0.0030919109 -0.22283994 -0.06125696 -0.24877894 -0.06764855
-0.025148008 -0.18147603 -0.18576148 0.0064089354 -0.049487203 -0.006754818 0.049740404 0.016782098
-0.034888275 -0.24516813 0.04054586 -0.14114228 0.0074188495 -0.090968214 -0.15108493 -0.0063573704
-0.06452256 -0.109320074 -0.01461612 -0.039942455 -0.070310034 -0.093224466 0.03487128 0.030073345
0.00770676 -0.07058368 -0.13147089 -0.1017051 -0.1690037 -0.006947658 -0.071070164 -0.012851338
-0.1403759 -0.08633355 -0.026916226 -0.1806489 0.04933732 -0.04584874 -0.07236004 0.049600553
0.071861684 -0.16681619 -0.017734518 -0.05773298 -0.09024309 -0.13652478 -0.1079674 -0.04964733
0.058137994 -0.08358669 -0.03799953 -0.035564236 -0.045109153 -0.073856525 -0.06338102 -0.005986661
0.035930544 -0.10916632 -0.08443829 -0.022012286 0.007794584 -0.13497958 -0.054057013 0.056560744
-0.020203186 -0.17154099 -0.05101069 -0.078109674 -0.09334035 -0.05553817 0.15829743 -0.09774451
0.008171979 -0.14499007 -0.17616343 -0.04080818 -0.15175489 -0.0794916 0.02719581 -0.022018604
00000000: 7c5f 77bd 2942 b3bc 10fa bc3b 947d 1d3d
00000010: 8bd2 99bd 2cc1 1dbe 6f9b 01be 0e05 613d
00000020: dab8 71bd e3ce e4bc 629b b1bd da98 fcbd
00000030: 25b9 853c f5ca 10be 39e3 68bd 98e1 8a3d
00000040: 1710 92bd b602 4ebe 199a 84bc 49bb 1cbc
00000050: b62c 403b 48fa 5fbc 9356 d4bd 1cae 9dbd
00000060: 5eaf abbd 69b5 74bd 4b00 eebb 8b34 ba3d
00000070: 82a7 2c3d aa35 f3bd 88f2 79bd 04e2 90bd
00000080: ef28 87bc 7454 4ebd 0847 adbb cd5b 703d
00000090: bce0 bc3c b04e 6dbd 46d4 903c e30d 1d3c
000000a0: fb33 943d 08e7 3b3b c261 ebbd 610d 1fbd
000000b0: 7425 2cbe 11b8 b9bd 97d8 0fbe 337f 68bd
000000c0: 6544 ba3c aeaa d9bd 4327 e0b9 3b9c 88bd
000000d0: 48fe f5bd 2da4 92bd 0202 30bd dc5c e8bc
000000e0: 97d9 acbd f5ea d8bd 1030 7b3c 9ea7 b8bd
000000f0: f6e2 0ebe 2e54 d0bd d3e2 293d 5b87 05bd
00000100: 1197 e9bd a55c ebbd ce23 00bd aec3 c6bc
00000110: 88b9 09be 7cb3 cbbd d2de b5bd fc72 a8be
00000120: e920 9dbd 9d0e 4b3d b642 e1ba d4c4 4bbc
00000130: 2f85 57bd d98d c7bc 273a c93b 5c36 3dbe
00000140: dbaa debd 916d 46be 27a0 dabd 2a1a d2bd
00000150: 0508 66bd 8361 b2bd 9e78 41be 77b4 3e3d
00000160: c835 0fbe 4013 59be 208c b0bd 9fb4 7ebc
00000170: cbe5 e73c fb52 1b3d 201d d5bc 1d6c 89bb
00000180: 41ac dcbd 08ad bdbd 653a d6bd f3da 2fbe
00000190: ba25 86bd e49f 8a3d 4a9c 3c3d cddb e7bc
000001a0: fdd2 5cbd d40d e5bc f45a 95be e573 6dbd
000001b0: adaf 5cbd b84c a6bc 81d4 dcbd 9ea2 aabd
000001c0: b2c1 58be 6070 c9bd c26b 953b e08c b73d
000001d0: c4c8 e2bd 3ba8 bcbd c739 843d 4604 c0bc
000001e0: 614e 56be 292b c1bc 8d7c 4cbe 2e41 52be
000001f0: a86d 11be 3667 843c 833e bdbd 4a37 95bd
00000200: b420 1dbe 9b88 f8bd b99a 10be 683d 31bd
00000210: 7a3f 003e 465a cbbd 6e1b f83d d039 90bc
00000220: cbfb e83c 9b93 afbd 2487 debd 05e7 823d
00000230: db05 49be f58f 69bd 70cf 053c 0bf2 313d
00000240: 7e37 b53c 431c cabd c75b 4fbd 16db a8bc
00000250: 09e5 89bd cc42 3d3d cdff 03be 231e 71bd
00000260: f2f6 2e3e a5aa 103d 1872 b1bd a29c 76be
00000270: b09e 74bc c273 5dbd 6ff0 0a3d 8d1d 1fbd
00000280: bf58 c5bc 48f0 873c d3d0 00be 5eed 043d
00000290: 48ec 85bd c2cb 80bd 89a0 2fbd 0bb3 923c
000002a0: a0e7 7f3c 3e1e dd3d 9bad 453c a8a1 4abb
000002b0: 2730 64be 94e8 7abd e8bf 7ebe 538b 8abd
000002c0: 3203 cebc dad4 39be 4238 3ebe 0c02 d23b
000002d0: 18b3 4abd 8557 ddbb 98bc 4b3d 9c7a 893c
000002e0: 02e7 0ebd 5b0d 7bbe 6a13 263d 9a87 10be
000002f0: d219 f33b 8b4d babd 02b6 1abe 7d51 d0bb
00000300: 6724 84bd 34e3 dfbd 7378 6fbc b39a 23bd
00000310: b5fe 8fbd 78ec bebd 30d5 0e3d 605c f63c
00000320: fd88 fc3b 2d8e 90bd 4ea0 06be c34a d0bd
00000330: 4e0f 2dbe 2ea9 e3bb 3c8d 91bd 6b8e 52bc
00000340: b3be 0fbe a5cf b0bd 6b7f dcbc 06fc 38be
00000350: ee15 4a3d e3cb 3bbd 8031 94bd f329 4b3d
00000360: 382c 933d ddd1 2abe fb47 91bc 6b79 6cbd
00000370: 5fd1 b8bd 27cd 0bbe 031e ddbd 005b 4bbd
00000380: 1b22 6e3d 802f abbd 65a5 1bbd ceab 11bd
00000390: 60c4 38bd 1742 97bd e9cd 81bd c12b c4bb
000003a0: e82b 133d 9792 dfbd fbed acbd 1c53 b4bc
000003b0: b669 ff3b 1638 0abe e36a 5dbd 3dac 673d
000003c0: 2781 a5bc 71a8 2fbe 96f0 50bd f7f7 9fbd
000003d0: 3a29 bfbd fe7b 63bd b918 223e 462e c8bd
000003e0: c4e3 053c 4778 14be 3064 34be 7a26 27bd
000003f0: a265 1bbe 7ecc a2bd bfc9 de3c 5c60 b4bc

generator.3.bias f4 [784]
-0.22171092 -0.26039734 -0.2253738 -0.26767755 -0.2636707 -0.19652116 -0.14513907 -0.19452733
-0.39105764 -0.41116303 -0.315137 -0.33360872 -0.40381038 -0.32702103 -0.20855756 -0.35450503
-0.20902325 -0.12370536 -0.32443145 -0.2623954 -0.29476085 -0.25723377 -0.16032875 -0.34447253
-0.28349242 -0.31686598 -0.21875222 -0.12634547 -0.2683819 -0.21248679 -0.19259821 -0.3019348
-0.41386896 -0.35291186 -0.30358607 -0.31351608 -0.26491806 -0.30433366 -0.29622766 -0.17449501
-0.3049283 -0.32351774 -0.21659134 -0.26236013 -0.2970092 -0.24422728 -0.2611158 -0.22329767
-0.23866095 -0.31739601 -0.24053337 -0.3738725 -0.3725465 -0.3578753 -0.35829538 -0.21219379
-0.30796877 -0.37763727 -0.302704 -0.26262975 -0.29699588 -0.27486697 -0.3146202 -0.30622485
-0.23380369 -0.27020663 -0.23492563 -0.4332452 -0.33498323 -0.3919774 -0.31698766 -0.34697983
-0.31220806 -0.25489992 -0.32003716 -0.34354314 -0.2782705 -0.33021003 -0.2750849 -0.36866418
-0.18086287 -0.3175109 -0.384546 -0.17660944 -0.24303445 -0.29344466 -0.37873134 -0.24650119
-0.20610636 -0.2730584 -0.31250045 -0.28045923 -0.2598844 -0.38357434 -0.21115363 -0.45398334
-0.34351578 -0.3693986 -0.4371403 -0.37267005 -0.41285482 -0.35322663 -0.3647149 -0.32590732
-0.30274788 -0.36682364 -0.35884762 -0.22526662 -0.3279547 -0.3013804 -0.31226295 -0.2939078
-0.23819615 -0.31354365 -0.28845814 -0.25263286 -0.31739736 -0.24230577 -0.18018411 -0.43780217
-0.29601315 -0.36379957 -0.3515811 -0.35901198 -0.27660316 -0.3440961 -0.34438735 -0.32129633
-0.12104428 -0.20740749 -0.33223847 -0.31979707 -0.35901505 -0.26429558 -0.28186566 -0.2820706
-0.31634444 -0.15258808 -0.28435874 -0.27642703 -0.23358501 -0.27636638 -0.27189294 -0.37696704
-0.23305662 -0.18927772 -0.3282075 -0.23682384 -0.285122 -0.25758615 -0.2957784 -0.24238148
-0.16618213 -0.1906278 -0.2519396 -0.1449083 -0.11745439 -0.09171176 -0.16122587 -0.12387397
-0.21807015 -0.21554081 -0.3768853 -0.2084663 -0.34161592 -0.25127983 -0.38476005 -0.24186516
-0.3598829 -0.37115717 -0.2909054 -0.28432006 -0.20272721 -0.1950704 -0.34549412 -0.38672835
-0.18172798 -0.19095877 -0.1981607 -0.16793919 -0.13552432 -0.08096543 -0.0039976514 0.054671913
0.027586954 0.02884899 -0.1315211 -0.069739595 -0.1631951 -0.16383383 -0.29942533 -0.4202262
-0.23823877 -0.3901183 -0.26933908 -0.33907965 -0.31865862 -0.13948162 -0.24996988 -0.2614314
-0.24516515 -0.278053 -0.2374237 -0.19265944 -0.1567367 -0.20522049 -0.1319128 -0.028274186
-0.022183707 -0.058449104 -0.0147222625 -0.09712822 -0.07901336 -0.0805526 -0.12674768 -0.12670873
-0.03669236 -0.20018958 -0.42150876 -0.32034385 -0.4879771 -0.3447598 -0.2920544 -0.38134834
-0.3728012 -0.10329569 -0.21400489 -0.29842332 -0.30448762 -0.15332185 -0.1227453 -0.26838535
-0.20544292 -0.061187387 -0.038038008 -0.054010686 -0.055318836 -0.06205049 -0.10316619 -0.09996264
-0.13903038 -0.032336537 -0.01875515 -0.20915265 -0.12977481 -0.21475837 -0.2890255 -0.3550434
-0.29600903 -0.45612168 -0.34150517 -0.30395985 -0.18993536 -0.2979123 -0.25311628 -0.22499666
00000000: 3008 63be cd52 85be 64c8 66be 080d 89be
00000010: d9ff 86be d83c 49be 569f 14be 2c32 47be
00000020: b538 c8be f683 d2be a359 a1be c3ce aabe
00000030: 3cc0 cebe 4d6f a7be 1d90 55be af81 b5be
00000040: 310a 56be 3c59 fdbd e11b a6be b158 86be
00000050: e5ea 96be 25b4 83be 382d 24be b45e b0be
00000060: eb25 91be 423c a2be 9500 60be b560 01be
00000070: 5a69 89be 2396 59be 7738 45be 3397 9abe
00000080: a2e6 d3be ddb0 b4be a26f 9bbe 2e85 a0be
00000090: 57a3 87be 9fd1 9bbe 27ab 97be d2ae 32be
000000a0: 901f 9cbe 1ea4 a5be 1fca 5dbe 1154 86be
000000b0: 9711 98be b716 7abe f8b0 85be 25a8 64be
000000c0: 8963 74be bb81 a2be 614e 76be 376c bfbe
000000d0: 6abe bebe 6e3b b7be 7e72 b7be 5449 59be
000000e0: 15ae 9dbe ac59 c1be 05fc 9abe 6877 86be
000000f0: d80f 98be 5dbb 8cbe e615 a1be 81c9 9cbe
00000100: 3c6a 6fbe 8658 8abe 5890 70be 51d2 ddbe
00000110: ec82 abbe 43b1 c8be 354c a2be 57a7 b1be
00000120: bcd9 9fbe 3e82 82be e9db a3be e3e4 afbe
00000130: 7979 8ebe 4a11 a9be eed7 8cbe 8dc1 bcbe
00000140: 1e34 39be ca90 a2be 37e3 c4be 1bd9 34be
00000150: 06de 78be 613e 96be 13e9 c1be cf6a 7cbe
00000160: 8c0d 53be 50ce 8bbe 0f00 a0be 5a98 8fbe
00000170: 910f 85be db63 c4be a838 58be 8170 e8be
00000180: 4de1 afbe d021 bdbe dad0 dfbe 9cce bebe
00000190: b561 d3be 1fda b4be e9bb babe 53dd a6be
000001a0: c501 9bbe 4fd0 bbbe e0ba b7be 4bac 66be
000001b0: aee9 a7be 884e 9abe eee0 9fbe 157b 96be
000001c0: b1e9 73be cb88 a0be c9b0 93be 1859 81be
000001d0: e881 a2be 011f 78be 2f82 38be 9b27 e0be
000001e0: 098f 97be f043 babe 7002 b4be 6bd0 b7be
000001f0: ee9e 8dbe 5d2d b0be 8a53 b0be f480 a4be
00000200: 10e6 f7bd a162 54be 291b aabe 71bc a3be
00000210: d2d0 b7be c051 87be b250 90be 8f6b 90be
00000220: e6f7 a1be 0d40 1cbe 7897 91be d887 8dbe
00000230: e930 6fbe e57f 8dbe 8d35 8bbe d301 c1be
00000240: 65a6 6ebe 05d2 41be d00a a8be f381 72be
00000250: 83fb 91be 55e2 83be 4470 97be da32 78be
00000260: a62b 2abe ef33 43be 3afe 80be d762 14be
00000270: ed8b f0bd 60d3 bbbd 6518 25be a3b1 fdbd
00000280: c84d 5fbe bbb6 5cbe 1cf7 c0be 3178 55be
00000290: 48e8 aebe c0a7 80be 45ff c4be 80ab 77be
000002a0: 9242 b8be 5008 bebe 8df1 94be 6692 91be
000002b0: b997 4fbe 89c0 47be 9be4 b0be 4201 c6be
000002c0: e616 3abe b28a 43be a3ea 4abe 40f8 2bbe
000002d0: e3c6 0abe 34d1 a5bd bbfe 82bb a8ef 5f3d
000002e0: 09fe e13c b854 ec3c 78ad 06be a2d3 8ebd
000002f0: 9e1c 27be 0ec4 27be 474e 99be e327 d7be
00000300: ddf4 73be 96bd c7be d0e6 89be d99b adbe
00000310: 3927 a3be 45d4 0ebe 1bf8 7fbe 56da 85be
00000320: 930c 7bbe f65c 8ebe 331f 73be 8448 45be
00000330: 967f 20be 5225 52be 2614 07be 449f e7bc
00000340: 9bba b5bc 5468 6fbd a535 71bc 29eb c6bd
00000350: c2d1 a1bd c3f8 a4bd 25ca 01be efbf 01be
00000360: ba4a 16bd 7ffe 4cbe ffcf d7be 1c04 a4be
00000370: 22d8 f9be 5b84 b0be 2888 95be 1740 c3be
00000380: cddf bebe b18c d3bd 1924 5bbe f1ca 98be
00000390: cde5 9bbe 6700 1dbe e361 fbbd ce69 89be
000003a0: a15f 52be a09f 7abd becd 1bbd 4f3a 5dbd
000003b0: 0196 62bd a828 7ebd cc48 d3bd 36b9 ccbd
000003c0: fb5d 0ebe 5173 04bd 66a4 99bc 1d2c 56be
000003d0: b0e3 04be 9ee9 5bbe 26fb 93be 40c8 b5be
000003e0: 7f8e 97be c888 e9be c4d9 aebe a0a0 9bbe
000003f0: 6a7e 42be f687 98be 7598 81be 8665 66be

discriminator.1.weight f4 [128, 784]
0.0049973233 -0.03394203 0.0045565693 0.03743271 -0.0096914945 0.0015749782 0.031302467 0.011446112
0.0024095313 0.015157104 0.015410705 0.0022493761 0.031849734 0.0018334829 -0.019651385 0.005707341
0.041400775 0.04341463 0.036075316 -0.0039994274 0.008622128 0.06736177 0.0020221039 0.0037585266
0.01807065 -0.029130345 -0.018136878 0.010426282 0.031707253 0.029232569 -0.01360834 0.03073228
0.0672208 0.022755776 0.054147597 0.042727444 0.031067653 -0.019645669 0.020509295 -0.0110278865
0.032918926 0.008513764 0.02397876 0.024556026 0.017267236 -0.051055897 0.00075724244 0.003130501
0.020416103 0.013792749 0.016129034 0.036848173 0.000776282 0.035684265 0.027474264 -0.02238389
-0.010810295 0.0035113152 0.030699665 -0.022018766 0.000607955 0.024916863 -0.0109322155 0.025383135
0.009688587 0.04671572 -0.025344474 -0.0100768795 0.018830206 -0.0031582145 -0.029476924 -0.01596015
0.0116614895 -0.029180778 -0.0052491995 -0.038905315 0.00049200904 0.013127306 0.0011591301 0.0048773354
0.056046754 -0.026080826 0.03615001 -0.00347225 -0.028735112 -0.011419146 0.010623742 0.005943693
0.02358535 -0.008057688 -0.003347679 0.023969257 0.049215835 0.004447357 -0.029563406 -0.010426515
-0.008945298 0.012449079 0.0056299176 -0.03865628 -0.01991814 -0.089073665 -0.09680549 -0.046167377
-0.056042437 0.010452585 0.026398467 0.00045637685 0.012086103 -0.007896598 0.01293439 0.03637129
0.010014367 0.0048370822 -0.013670729 -0.0025622083 0.029333357 -0.0026408136 -0.009614421 -0.023979394
0.060981933 0.06518716 0.013198507 0.031841658 0.044420574 0.09206328 -0.0027095233 -0.048714966
-0.09969476 -0.08021608 -0.10771201 -0.09458882 -0.08157652 0.014287292 -0.057708837 -0.021692863
-0.018639224 0.015622112 0.025258437 0.02010867 0.005622358 -0.018558575 -0.004340032 0.0051864446
0.0343467 0.0033155354 -0.010386812 0.010395275 0.041689966 -0.02660942 -0.02612639 0.036524024
0.0010947505 0.046012685 0.04720234 0.033896208 -0.07863101 -0.12958385 -0.07089411 -0.059603244
0.023754327 0.037900835 -0.024819933 0.021645956 0.006534041 0.031370066 0.0053449287 -0.012703606
0.024775552 0.0238534 0.049857274 -0.0006320238 0.017422996 0.003441254 -0.04268726 0.013498323
0.0029128643 -0.053861402 0.001788717 -0.008153521 -0.037286807 0.0589594 0.045835495 0.037885416
-0.019559214 -0.10025716 -0.054884765 0.031395476 0.008180887 -0.01599382 -0.021820154 -0.0054983883
0.0027139967 0.0076256967 0.036268625 0.015650343 0.025729612 0.0053267255 -0.012010189 0.015310384
0.027635498 -0.027567454 0.0016173597 0.054373298 -0.029747453 0.011329997 -0.0007196547 0.028236
0.05209354 0.018458283 -0.0036419146 0.027607212 0.034468144 -0.055886015 -0.036662377 0.010762416
0.036995146 -0.007911229 -0.058935728 -0.010341142 0.0047179325 0.047168303 0.034973465 0.006683578
0.013137382 0.013025193 -0.031313356 0.0014390374 0.0076085567 -0.02578235 0.011522714 0.005322212
-0.022168724 -0.02630007 0.0016898054 0.004806709 -0.025230996 0.021805804 -0.054334458 0.06361033
0.04192395 -0.042504422 0.014424831 0.050946496 0.017423768 -0.0058118138 -0.09578673 0.014680745
-0.021571456 0.05606712 -0.021104978 0.0077081705 -0.019468457 0.027232083 0.038002484 -0.018384926
00000000: 96c0 a33b cc06 0bbd 464f 953b 0b53 193d
00000010: 13c9 1ebc 806f ce3a 0437 003d 7988 3b3c
00000020: 3ae9 1d3b 8055 783c 2e7d 7c3c 456a 133b
00000030: de74 023d 7a51 f03a f1fb a0bc a504 bb3b
00000040: dc93 293d 8ad3 313d b6c3 133d a10d 83bb
00000050: d343 0d3c f8f4 893d 4685 043b 9d51 763b
00000060: e608 943c c3a2 eebc ca93 94bc ffd2 2a3c
00000070: 77df 013d 2479 ef3c 84f5 5ebc 43c2 fb3c
00000080: 0fab 893d 526a ba3c dfc9 5d3d f902 2f3d
00000090: 9781 fe3c f4ef a0bc 1c03 a83c 4fae 34bc
000000a0: ffd5 063d 507d 0b3c 1b6f c43c b829 c93c
000000b0: 0574 8d3c fd1f 51bd ae81 463a 1729 4d3b
000000c0: ac3f a73c fbfa 613c 0921 843c 1cee 163d
000000d0: 677f 4b3a aa29 123d b511 e13c 6b5e b7bc
000000e0: aa1d 31bc 181e 663b dd7d fb3c b360 b4bc
000000f0: 2b5f 1f3a 731e cc3c 091d 33bc 4bf0 cf3c
00000100: e1bc 1e3c fc58 3f3d 379f cfbc 7f19 25bc
00000110: ce41 9a3c 0cfa 4ebb 9779 f1bc dcbe 82bc
00000120: d50f 3f3c 870c efbc 7a01 acbb 2e5b 1fbd
00000130: 2bfa 003a e913 573c f4ed 973a 0ed2 9f3b
00000140: 4891 653d 75a7 d5bc 0812 143d b08e 63bb
00000150: e665 ebbc 5f17 3bbc 340f 2e3c 50c3 c23b
00000160: 1036 c13c 6504 04bc bc64 5bbb 2d5b c43c
00000170: 8b96 493d 22bb 913b f52e f2bc f9d3 2abc
00000180: 4d8f 12bc 39f7 4b3c 2c7b b83b 0c56 1ebd
00000190: 5e2b a3bc 416c b6bd f541 c6bd 011a 3dbd
000001a0: c18c 65bd 5241 2b3c 9941 d83c dd45 ef39
000001b0: ca04 463c bc60 01bc c4ea 533c 10fa 143d
000001c0: 4d13 243c 6380 9e3b 31fb 5fbc b9ea 27bb
000001d0: 824c f03c 8011 2dbb ce85 1dbc 6f70 c4bc
000001e0: 31c8 793d d980 853d 8d3e 583c 666c 023d
000001f0: 59f2 353d ac8b bc3d 4292 31bb 5889 47bd
00000200: c42c ccbd 5448 a4bd 1d98 dcbd c9b7 c1bd
00000210: 9711 a7bd 3f15 6a3c 1a60 6cbd 3bb5 b1bc
00000220: 49b1 98bc e3f3 7f3c c8ea ce3c f0ba a43c
00000230: c23b b83b 2708 98bc d436 8ebb 0df3 a93b
00000240: 20af 0c3d 7449 593b 722d 2abc f250 2a3c
00000250: 19c3 2a3d 00fc d9bc 0307 d6bc 379a 153d
00000260: bb7d 8f3a cc77 3c3d 3e57 413d c0d6 0a3d
00000270: 4c09 a1bd a1b1 04be ee30 91bd 8822 74bd
00000280: 6f98 c23c e83d 1b3d 2c53 cbbc dc52 b13c
00000290: 821b d63b e67d 003d 8324 af3b c922 50bc
000002a0: 19f6 ca3c 3568 c33c 2437 4c3d 66ae 25ba
000002b0: acba 8e3c a986 613b d6d8 2ebd 1228 5d3c
000002c0: c1e5 3e3b c69d 5cbd 6273 ea3a 5996 05bc
000002d0: 0dba 18bd 697f 713d 00be 3b3d bd2d 1b3d
000002e0: a53a a0bc a053 cdbd d9ce 60bd 8b98 003d
000002f0: 2109 063c 7905 83bc 2ec0 b2bc d32b b4bb
00000300: 4fdd 313b fbe0 f93b 698e 143d 2635 803c
00000310: e8c6 d23c d08b ae3b 62c6 44bc 68d8 7a3c
00000320: d763 e23c 24d5 e1bc 96fd d33a 89b6 5e3d
00000330: eeb0 f3bc 74a1 393c 36a7 3cba 2f4f e73c
00000340: 0960 553d d335 973c 30ad 6ebb 8528 e23c
00000350: 782e 0d3d bce8 64bd 4a2b 16bd d854 303c
00000360: 3988 173d 199e 01bc 9766 71bd e56d 29bc
00000370: e398 9a3b 8d33 413d 5640 0f3d ea01 db3b
00000380: 2d3e 573c 9e67 553c 6f42 00bd 159e bc3a
00000390: 3351 f93b 8235 d3bc c4c9 3c3c f365 ae3b
000003a0: 2f9b b5bc 3f73 d7bc 767c dd3a 9981 9d3b
000003b0: 3cb1 cebc 16a2 b23c cf8d 5ebd 2246 823d
000003c0: 73b8 2b3d 1e19 2ebd 2056 6c3c 46ad 503d
000003d0: 4abc 8e3c 0771 bebb d52b c4bd 8287 703c
000003e0: 9fb6 b0bc a3a6 653d 59e4 acbc d294 fc3b
000003f0: 507c 9fbc d115 df3c 7ea8 1b3d fc9b 96bc

discriminator.1.bias f4 [128]
-0.9886182 1.8534224 -1.1986259 0.73099214 1.5073066 -1.3208084 0.89746195 -0.9023201
-1.008429 -0.93201613 -0.8149622 0.7768306 0.772828 0.94148463 -1.097484 0.65038615
-0.98973554 -0.8914373 0.92005444 0.7024014 -1.2297938 0.8375849 0.93066084 0.8494938
-1.118357 1.2074044 0.9314297 0.79105735 0.8204808 -1.0778532 -0.7823455 -0.9902995
-0.96473604 -0.9392486 0.71451676 -0.9626285 -1.0577171 -1.0964475 -1.2324897 -0.97405225
-1.0508476 -1.0624028 0.9339722 -0.82561177 -0.98231405 0.81596833 -1.0281483 -0.72545785
0.74227005 0.8478811 0.73502845 0.8231513 -1.2223952 0.8632709 0.89199495 0.69638604
-1.0589702 0.91061926 2.3721073 0.79234993 -0.9732431 0.89918864 1.7924494 -0.8681566
0.87302566 -1.0444206 1.6809027 0.8075777 0.84867907 -0.91439533 1.360909 0.78001153
-1.0111926 1.598452 1.3407992 1.7122192 -0.96621984 0.81343865 0.9657121 -0.70396036
1.2313231 0.90082335 -1.0574778 0.70701724 -0.8705808 0.8820146 -1.0544382 0.9310485
-0.89705646 1.5106461 -0.8742828 0.8216192 -0.77604204 -0.9625456 0.797941 -1.1698712
0.8688876 0.9672077 -1.1310933 0.8890869 0.817119 -0.7877484 0.78164244 -0.93426025
1.1325825 1.5834197 0.88842195 0.81858677 -1.1374034 -0.8633294 0.9632279 0.7118859
0.8387559 0.7974902 -0.99297595 -0.798753 -1.1842594 1.5852653 0.8897405 1.6895038
-0.98543036 1.9331467 -1.008497 -0.8774223 -0.8522317 0.8757161 -0.93948543 0.81779724
00000000: 1516 7dbf f23c ed3f 936c 99bf 4d22 3b3f
00000010: 6cef c03f 4010 a9bf 11c0 653f 73fe 66bf
00000020: 3414 81bf 9c98 6ebf 5da1 50bf 5fde 463f
00000030: 0ed8 453f 2305 713f 5b7a 8cbf b57f 263f
00000040: 4f5f 7dbf 3c35 64bf b088 6b3f 94d0 333f
00000050: e269 9dbf f76b 563f ca3f 6e3f 6d78 593f
00000060: 5226 8fbf 3a8c 9a3f 2d72 6e3f bc82 4a3f
00000070: 080b 523f 18f7 89bf cb47 48bf 4584 7dbf
00000080: f1f8 76bf 9972 70bf 92ea 363f d26e 76bf
00000090: 4663 87bf 6458 8cbf 39c2 9dbf 7d5b 79bf
000000a0: 2d82 86bf d1fc 87bf cd18 6f3f 4b5b 53bf
000000b0: ef78 7bbf 4de3 503f 5d9a 83bf 9bb7 39bf
000000c0: 6905 3e3f bc0e 593f d32a 3c3f 0bba 523f
000000d0: 7277 9cbf 52ff 5c3f c859 643f 5b46 323f
000000e0: 568c 87bf 581e 693f 9bd0 1740 72d7 4a3f
000000f0: 7626 79bf 3a31 663f fb6e e53f 833f 5ebf
00000100: 9c7e 5f3f 93af 85bf d227 d73f 6abd 4e3f
00000110: 0843 593f d015 6abf 4432 ae3f d6ae 473f
00000120: c26e 81bf 139a cc3f 4f9f ab3f 002a db3f
00000130: 2f5a 77bf 843d 503f e838 773f bf36 34bf
00000140: ff9b 9d3f 5c9c 663f 6f5b 87bf 15ff 343f
00000150: 62de 5ebf b5cb 613f d5f7 86bf 3259 6e3f
00000160: 7ea5 65bf da5c c13f ffd0 5fbf a355 523f
00000170: b1aa 46bf 6369 76bf dd45 4c3f 57be 95bf
00000180: 6b6f 5e3f ec9a 773f aac7 90bf 339b 633f
00000190: b62e 513f e1a9 49bf b819 483f ae2b 6fbf
000001a0: 77f8 903f 7fad ca3f 9f6f 633f e78e 513f
000001b0: 6f96 91bf 2803 5dbf 1b96 763f 283e 363f
000001c0: b5b8 563f 5128 4c3f ac33 7ebf 147b 4cbf
000001d0: d095 97bf f9e9 ca3f 09c6 633f a941 d83f
000001e0: 2a45 7cbf 5a71 f73f 6e16 81bf bf9e 60bf
000001f0: db2b 5abf ee2e 603f 1e82 70bf 295b 513f

discriminator.4.weight f4 [1, 128]
0.23824468 -0.22459619 0.22780073 -0.41832426 -0.41022182 0.19326465 -0.32155246 0.2594379
0.266956 0.19843175 0.29649404 -0.38485584 -0.44735336 -0.43866524 0.24597192 -0.502591
0.24928091 0.20278767 -0.48718554 -0.4278627 0.21992719 -0.3193536 -0.47757652 -0.44980517
0.15349413 -0.33150342 -0.50341725 -0.5155771 -0.39278132 0.2783465 0.37807214 0.22436929
0.15851949 0.17688303 -0.66505504 0.24261118 0.18907315 0.168239 0.24292001 0.22098474
0.2384272 0.21872628 -0.38780883 0.24160258 0.35701808 -0.3979704 0.13619173 0.2700763
-0.50445306 -0.38198102 -0.49615774 -0.45634648 0.26476422 -0.5411478 -0.47544864 -0.43908036
0.28341636 -0.46269357 -0.24536352 -0.45772088 0.19413252 -0.4314543 -0.27401537 0.30950674
-0.45668322 0.29383433 -0.35871142 -0.5098945 -0.5001715 0.30684158 -0.39301986 -0.53508085
0.14511964 -0.3859251 -0.38108337 -0.27769595 0.33679467 -0.43739024 -0.36453068 0.3030759
-0.38446012 -0.5407753 0.16802572 -0.4687751 0.3135253 -0.3686796 0.18259211 -0.37457114
0.33663952 -1.3678533 0.17597519 -0.4771384 0.36752528 0.3066393 -0.48490056 0.21858604
-0.52521086 -0.34345865 0.21419922 -0.48033956 -0.7136847 0.20501262 -0.51823246 0.18976305
-0.4106053 -0.3671722 -0.4978297 -0.49252844 0.22745493 0.22283387 -0.3611792 -0.33878633
-0.47558072 -0.43462694 0.254471 0.2885574 0.26202798 -0.3843314 -0.40832978 -0.3780511
0.32907543 -0.20186779 0.28333825 0.3300606 0.23512918 -0.47544822 0.24307108 -0.48851845
00000000: 6af6 733e 8bfc 65be 9844 693e 992e d6be
00000010: 9808 d2be 2be7 453e 86a2 a4be 0bd5 843e
00000020: 75ae 883e b131 4b3e 11ce 973e d30b c5be
00000030: 800b e5be bb98 e0be 10e0 7b3e cea9 00bf
00000040: 7f43 7f3e 92a7 4f3e 6270 f9be d210 dbbe
00000050: 9834 613e 5182 a3be e984 f4be dd4c e6be
00000060: 912d 1d3e d1ba a9be f4df 00bf dcfc 03bf
00000070: a21a c9be 6f83 8e3e ac92 c13e 10c1 653e
00000080: ef52 223e d320 353e 0c41 2abf 116f 783e
00000090: 649c 413e d846 2c3e 06c0 783e d349 623e
000000a0: 4326 743e c8f9 5f3e e18e c6be ab66 773e
000000b0: 13cb b63e c7c2 cbbe d875 0b3e 7147 8a3e
000000c0: d623 01bf 0493 c3be 6308 febe 3fa6 e9be
000000d0: 2d8f 873e aa88 0abf 016e f3be 24cf e0be
000000e0: f31b 913e 2ce6 ecbe 9340 7bbe 645a eabe
000000f0: adca 463e 94e7 dcbe be4b 8cbe ab77 9e3e
00000100: 62d2 e9be 7471 963e 06a9 b7be 7288 02bf
00000110: 3d0b 00bf 571a 9d3e e639 c9be 0ffb 08bf
00000120: 3e9a 143e fa97 c5be 5c1d c3be 2a2e 8ebe
00000130: 5a70 ac3e 9df1 dfbe c4a3 babe c42c 9b3e
00000140: f5d7 c4be 4070 0abf ef0e 2c3e 4a03 f0be
00000150: 6386 a03e 93c3 bcbe 6df9 3a3e cac7 bfbe
00000160: 045c ac3e d115 afbf d732 343e 7c4b f4be
00000170: 462c bc3e d4ff 9c3e e344 f8be 05d5 5f3e
00000180: 3874 06bf d0d9 afbe 0a57 5b3e 11ef f5be
00000190: 0ab4 36bf d4ee 513e e2aa 04bf 3f51 423e
000001a0: dc3a d2be fffd bbbe 89e3 febe b02c fcbe
000001b0: f2e9 683e 902e 643e 7bec b8be 6775 adbe
000001c0: 517f f3be 6c87 debe 064a 823e ccbd 933e
000001d0: 8828 863e 16c7 c4be 9a10 d1be ea8f c1be
000001e0: 937c a83e 6eb6 4ebe b611 913e b4fd a83e
000001f0: b4c5 703e f36d f3be a0e7 783e 171f fabe
