homework-week-12/gan_mnist_dr0.5_adamTrue_lrg0.0001_lrd0.0001.pt (torch, 863251 bytes, 7 tensors)

generator.0.weight f4 [128, 100]
000000 ee da 90 bd 56 0e 9b 3e 02 cc 21 bd e4 e8 6c 3e
       -0.070730075 0.30284375 -0.039501198 0.23135716
000010 e0 bd 5e bd 1c 92 2b 3e 79 64 13 be 0c 44 14 3e
       -0.054380298 0.16754955 -0.14393796 0.14479083
000020 8d 4f 5f 3e c8 32 92 3b 2e 9c 9d 3e bc 19 f0 3d
       0.2180769 0.00446162 0.30783218 0.117236584
000030 07 a6 ab 3d 1b d4 65 bc f2 21 b4 3d 2e 89 98 bd
       0.083812766 -0.014027621 0.08795537 -0.0744804
000040 06 58 35 3e a4 e4 43 3e 3e a6 f1 bd de 73 81 bd
       0.1770936 0.19130188 -0.11799286 -0.06320928
000050 ab 27 ac bd f9 56 0b be 0b f6 41 bd b8 4a d6 3d
       -0.084060036 -0.13607396 -0.047353785 0.1046347
000060 e0 f9 36 be 9e a9 b3 bd d1 02 3a be e6 23 40 bd
       -0.17868757 -0.08772586 -0.18165137 -0.046909235
000070 1c 96 36 3c dd 06 6c bd c5 8b 14 3e 0d ba 48 be
       0.011144187 -0.057623733 0.14506443 -0.19602223
000080 51 08 0e 3d 1b e4 b9 3d aa eb 05 be 6d 7d 30 3e
       0.0346759 0.09076711 -0.1307818 0.17235346
000090 69 b3 31 bd 7b 1f b8 3d 29 25 8e 3d 7b 6b 89 bc
       -0.04338399 0.089903794 0.069406815 -0.016774883
0000a0 5d d1 e5 3c 2e 12 89 bd be b3 ef 3d 86 b2 7d 3e
       0.028053934 -0.066929206 0.11704205 0.24775133
0000b0 b8 6a d2 ba 40 a1 f4 bd 63 c1 3b 3e 5e 57 87 bd
       -0.0016053533 -0.119448185 0.1833549 -0.06608461
0000c0 6a 0a 14 3e 34 25 52 be 54 c2 8c be ea 66 b0 bd
       0.14457098 -0.20522004 -0.2749201 -0.08613379
0000d0 67 51 73 be 9e 93 53 3e a5 66 28 3d df 74 46 3e
       -0.23761521 0.2066178 0.041113514 0.1938052
0000e0 9e 02 87 3d f9 94 4e b9 49 ce 42 3e 36 56 6b be
       0.06592296 -0.00019701188 0.19024004 -0.22982106
0000f0 78 f1 22 be af 4a 8b be bc aa e1 3d 6c 3b 3b be
       -0.15912426 -0.27205417 0.11018893 -0.18284386
000100 d2 84 dd 3c e9 28 30 3c 03 09 6d 3e 5a 18 58 bd
       0.027040873 0.010751941 0.23147969 -0.0527576
000110 13 84 0f be bc 3e 65 be 71 ca 24 3e 1b fb 39 3e
       -0.14015226 -0.22387213 0.1609285 0.18162195
000120 da d0 7c 3e 53 85 60 be 8d 91 82 be 67 42 a5 bd
       0.24689046 -0.21925859 -0.2550167 -0.08069306
000130 eb a0 2b be d5 8b 61 3c 4a 2c 12 3e 46 38 50 3e
       -0.16760604 0.013766249 0.14274707 0.20333967
000140 88 48 f9 bd c5 4c 31 bd be e1 07 3e 40 c9 9b 3c
       -0.12172037 -0.043286104 0.13269708 0.019016862
000150 37 09 00 3e d9 4b 07 3e 08 c8 b8 3d 9d 6f 0b be
       0.12503515 0.13212527 0.09022528 -0.13616796
000160 d3 07 b9 bd b8 3b 60 3e 0a 17 33 3d 66 b5 9b bc
       -0.090346955 0.21897781 0.043723144 -0.019007396
000170 54 b4 98 3e 32 5f 5e 3e 56 a2 05 be c2 7b 08 bd
       0.2982508 0.21716002 -0.13050207 -0.03332115
000180 e2 11 9f 3d bb 76 81 bd fd e6 ee bd 4d ea 63 be
       0.07767083 -0.06321474 -0.11665151 -0.22257347
000190 72 d5 99 be 18 db f5 3d 83 f8 7a bd a7 fd bc bd
       -0.30045658 0.120046794 -0.061272155 -0.09228068
0001a0 66 25 80 3c 75 82 9a bd fd 25 47 be a3 6c 50 be
       0.015642833 -0.07544414 -0.19448085 -0.20353942
0001b0 56 74 76 bd 09 f1 08 3d 0c f9 42 3e e2 76 1a 3e
       -0.06016954 0.033432994 0.19040316 0.15084413
0001c0 13 b2 60 3d 52 58 9f be 55 fe 37 be 13 eb 3e be
       0.054857325 -0.3112207 -0.17968114 -0.18644361
0001d0 18 91 89 bd 44 a1 cc bd 2a 95 33 bd 54 fe 32 be
       -0.067171276 -0.099916965 -0.043843426 -0.17479831
0001e0 46 76 41 3b 2b 46 d0 bd 18 15 bb 3d e7 a7 f6 bd
       0.002951996 -0.101696335 0.09134883 -0.120437436
0001f0 91 29 1f be 4c 59 34 be b7 ed e7 bc 34 99 3c be
       -0.155432 -0.17612189 -0.028311593 -0.18417817
000200 0f 81 7c 3e f1 74 08 3e 1e af 1e 3e 42 dd a0 3b
       0.24658607 0.1332586 0.1549649 0.0049091885
000210 d8 5d 6c be 77 25 91 3e 61 a8 7b 3b c9 ca 1d be
       -0.23082674 0.28348896 0.0038399922 -0.15409388
000220 77 58 5a be 6a 7a a3 be 2f 93 11 3e 7a 94 dc bd
       -0.21322809 -0.31929332 0.14216302 -0.10770507
000230 a5 b7 1e 3e 14 c2 c0 bd 69 a0 ca 3d b1 9e db 3c
       0.15499742 -0.094120175 0.09893877 0.026809068
000240 72 97 9e bd 53 b2 27 be ad 9e 2f 3e 49 fc 22 bc
       -0.0774373 -0.16376619 0.17150374 -0.009947845
000250 cb a0 a8 3c f6 59 5e be 33 6f 9b bd 55 ee 1b bd
       0.020584485 -0.21714005 -0.07589569 -0.038069088
000260 74 03 8f bd 20 cf 3c bd 7e 60 8d bb 14 b5 dd bd
       -0.069830805 -0.046095967 -0.0043144813 -0.108255535
000270 44 fe 34 3d 21 ca da 3d 2e bd 15 3e 63 2e 65 be
       0.0441878 0.10683084 0.14622948 -0.22380976
000280 5a 81 3d 3e d9 3b f8 3c ae 6d 29 3d 52 6d cf bd
       0.18506375 0.030301975 0.041364364 -0.10128273
000290 50 b0 2f 3e a4 6e e3 bd a4 0a ab bd 2e 5a 55 3e
       0.17157102 -0.111050874 -0.08351639 0.20835182
0002a0 61 55 be 3c de a1 45 be 30 7f 8b 3d 0d 17 d6 3c
       0.023234071 -0.19300029 0.068113685 0.026134038
0002b0 50 d5 96 3d 15 a1 e7 bd 2e 84 cb bd 90 e0 36 3d
       0.07364905 -0.11310021 -0.09937321 0.044647753
0002c0 9d a7 39 be b7 cc af bc 02 a9 56 3e 46 91 57 be
       -0.18130346 -0.02145992 0.20962909 -0.21051511
0002d0 8e 0f 0e 3d 7d 43 ab 3d d5 03 98 3d e9 db 82 bd
       0.034682803 0.08362482 0.07422606 -0.06389601
0002e0 b9 46 99 3d 4a 7b 39 3e d4 b5 27 bd c3 11 3a be
       0.074841924 0.18113437 -0.04094489 -0.18170838
0002f0 21 44 4b 3d 1a 4f 6f 3e 34 c9 47 be 03 bb 69 bd
       0.04962552 0.23370019 -0.19510347 -0.057063114
000300 23 73 89 3e 93 27 3d 3e ee 9d a1 bd 3f bf f1 bd
       0.26845655 0.18472128 -0.07891451 -0.118040554
000310 7e 8d fb bc 5c 09 a3 3c a4 3e f1 bb f4 08 4b 3b
       -0.030707117 0.019901924 -0.0073622037 0.0030980678
000320 bf dd d7 bd 3f cb a3 bc bc 36 27 3e ed 67 e7 3d
       -0.105403416 -0.019994376 0.16329473 0.11299119
000330 fe 44 79 3b ec 58 cb bd b3 ad 57 bd 1d 16 47 be
       0.0038035507 -0.0992907 -0.052655887 -0.1944203
000340 9d fd 41 bc b6 db 4c 3c ed 7e 7e 3d 44 13 1f bd
       -0.011840251 0.012503555 0.062132765 -0.038836733
000350 88 76 7b bd c4 71 91 bb 60 b6 b3 bd 86 c3 05 3e
       -0.061392337 -0.0044386107 -0.0877502 0.13062868
000360 c8 d4 ff bc 46 30 4a 3c f1 ba 03 3e 82 53 21 3d
       -0.031229392 0.012340611 0.12864281 0.03938628
000370 4b 9c 4d bd 4c ac 61 3e 33 7a bf bd 8e 0b 8b bd
       -0.05019788 0.22038382 -0.093494795 -0.06789313
000380 30 3b c3 bd bd ff 7c bb 20 95 fb 3d a9 40 68 3d
       -0.095327735 -0.003860458 0.12284303 0.05670229
000390 45 d4 cb 3c cc c7 b0 bc 99 1e 8c bd 9d 99 8d 3d
       0.024881491 -0.021579646 -0.068417735 0.06914065
0003a0 f9 9c 5a 3e b8 cf 0b 3e fc ad b4 3d aa d1 e8 bc
       0.21348943 0.13653457 0.088222474 -0.028420288
0003b0 7d 45 a9 bd 68 72 85 bc 17 42 d7 bd 9d e1 35 bd
       -0.08265207 -0.016289905 -0.105106525 -0.044404615
0003c0 9f cf 8b 3c 5e 61 24 be 0a 59 0f bd ae cd 83 bd
       0.017066775 -0.16052768 -0.034997024 -0.06435715
0003d0 c3 17 0e be bb b8 ed bc b2 99 bd bd bd 36 1f be
       -0.13876252 -0.02901875 -0.09257831 -0.15548225
0003e0 75 b7 91 3a b3 20 8a 3d 40 08 91 3c 1b bf c8 bd
       0.0011117297 0.06744518 0.01770413 -0.098020755
0003f0 dd fa 37 3c 3e 95 0e bd bf e9 a4 bd 94 22 15 be
       0.011229244 -0.034810297 -0.08052396 -0.14563972

generator.0.bias f4 [128]
000000 e7 6f 5c 3e 63 37 43 3e bb fa 9f 3e 2b fa 71 3d
       0.21527062 0.19064097 0.3124598 0.05907647
000010 cf d7 5e 3e 6d 05 40 3e 7b 59 7a 3e a1 25 91 3d
       0.21762012 0.1875207 0.24448197 0.07087255
000020 74 07 9d bd bb 4d a2 3e fb d5 63 3d 6c c6 15 3e
       -0.07667437 0.3169993 0.05562399 0.14626473
000030 06 af aa 3e 6a 38 18 3e 7d ab 5e 3e 7a 26 97 3e
       0.33336657 0.1486527 0.21745105 0.29521543
000040 4c 9c 62 bd 01 81 9a 3e af 87 e6 3d 69 f1 3c 3e
       -0.055324838 0.30176547 0.11256348 0.18451466
000050 a7 b4 45 3d 9e 81 1b 3e a0 64 8c 3e 2d 23 45 bd
       0.048267987 0.15186164 0.2742052 -0.04812925
000060 ef b0 09 3e 78 be a3 3e 55 1c 35 3e 85 0f 62 bd
       0.13446401 0.31981254 0.17686589 -0.05519058
000070 0f 55 86 3e 9c 0d 80 3e e1 f1 99 3e 36 e2 16 3d
       0.2623677 0.25010383 0.3006735 0.036836825
000080 fd e7 3b 3e da cb cb 3e d5 ba 05 3d 28 9b e0 3d
       0.18350215 0.39803964 0.03264888 0.10967094
000090 ab a7 ff 3d f6 f4 87 3e 77 c6 0a 3e 46 2b e4 3d
       0.12483152 0.26554078 0.13552271 0.11141066
0000a0 12 39 b8 bd 46 3e 44 be e6 b4 99 3e 1e d5 d1 3d
       -0.0899526 -0.1916438 0.30020827 0.10245727
0000b0 c0 4e 98 3e 9a a7 b2 3e a5 f4 4a 3e 7b 91 57 3d
       0.2974758 0.34893495 0.19819887 0.052628975
0000c0 aa ee 3a 3e 62 f3 c5 be e4 95 38 3e 0d 8c c7 3d
       0.18255106 -0.3866225 0.18025929 0.097435094
0000d0 86 2b bb 3c 99 cd 05 3e 4a d0 c9 3d 14 60 b7 3e
       0.022847902 0.1306671 0.09854181 0.3581549
0000e0 e2 4a a4 3e 16 89 ff bc f3 1f e5 3d fa d5 82 3d
       0.3208838 -0.031193297 0.111877345 0.06388469
0000f0 a0 27 88 3e 7a ff 9f bd c3 b4 50 3e 8a 83 72 3d
       0.2659273 -0.078124 0.20381455 0.059207477
000100 35 12 e2 3c 4b d6 5e 3e b1 16 9e 3e 96 86 6a 3e
       0.027596572 0.21761434 0.30876687 0.22902903
000110 71 c0 9d 3e 71 80 22 3e 87 79 5f 3e 21 eb ba 3d
       0.30810884 0.15869309 0.21823703 0.091268785
000120 cd 01 b0 3e 29 66 3e 3e 44 20 08 3e 86 84 a1 3e
       0.34376374 0.18593659 0.13293558 0.3154642
000130 f1 d8 79 3e b6 11 6b 3e d7 a9 67 3c c0 2e 13 3e
       0.24399163 0.22955975 0.014139614 0.14373302
000140 2b 3d c1 3e 10 62 37 3e c1 e0 9d 3e 0b e4 00 3b
       0.3774198 0.17908502 0.30835536 0.0019667174
000150 a4 4d 8e bd 81 55 23 3e bd 07 80 3e 67 44 fd 3d
       -0.069484025 0.15950586 0.25005904 0.12366562
000160 a8 26 98 3d cb 30 5d 3e b6 ca d8 3d 0a 36 0e 3b
       0.07429248 0.21600644 0.10585539 0.002169969
000170 a8 d9 2d 3e 0b 67 30 3c a6 a8 a9 3e a0 e4 8a 3e
       0.1697756 0.010766755 0.3313648 0.27127552
000180 78 35 87 3d 1b b3 88 3d 90 e1 8d 3e 22 7f ac 3e
       0.06601995 0.06674787 0.27711153 0.33690745
000190 b4 4d 7b 3e 92 f0 8b 3e 3a 41 5a 3e 8b 86 24 3d
       0.2454136 0.27331978 0.21313944 0.040167373
0001a0 22 4d 2d 3e 98 2d 1a 3e 47 91 4b 3e 9c 2a 2e 3e
       0.16923955 0.15056455 0.19879638 0.17008442
0001b0 04 e7 ba bd dd 7b ba 3e 58 a6 4a 3e 69 c7 8b 3e
       -0.09126094 0.36422625 0.19790018 0.27300575
0001c0 22 d3 ec bc b9 24 2a 3e 4b b4 ae 3e c9 a4 6e 3b
       -0.02890927 0.16615571 0.34121928 0.0036414138
0001d0 38 8d 99 3e a7 af 1b 3e 1f aa 8d 3e e2 61 25 3e
       0.29990554 0.15203725 0.27668855 0.1615062
0001e0 80 43 1c 3e 65 55 c3 3e 45 38 42 3e c2 bb 72 3e
       0.15260124 0.38151088 0.18966778 0.23704436
0001f0 08 77 e4 bd 73 39 96 3e 71 17 35 3e b1 8b ae 3e
       -0.11155516 0.29340705 0.17684723 0.3409095

generator.3.weight f4 [784, 128]
000000 a4 c8 a8 bc 5c 37 93 bc 58 a2 97 bd 44 08 9a bd
       -0.020603485 -0.017970733 -0.074040115 -0.07521108
000010 0f 42 2f bd 8c 95 bd bd 93 f1 e5 bd 33 dc e6 bd
       -0.042787608 -0.092570394 -0.11227717 -0.112724684
000020 f4 52 c6 bd c0 16 7c bd a1 af 28 be e3 49 fa bc
       -0.09683791 -0.061545134 -0.16473247 -0.03055281
000030 ff 14 8b bd 3a af df bd 88 4b 1e bb 13 7f 3a 3d
       -0.06791114 -0.10922094 -0.0024153907 0.045531344
000040 50 f0 30 bd 6d 6d 94 3d d2 a0 bd bd dc 49 06 be
       -0.04319793 0.07247434 -0.0925919 -0.13114113
000050 82 9d c0 bd 63 cf b9 bd c7 a5 d9 3a 39 ba e5 bd
       -0.09405042 -0.09072759 0.0016605192 -0.1121716
000060 ca 0d 1b bd 8f 8e 29 bd 15 c9 8e bc 1c 4b 16 be
       -0.037854947 -0.04139572 -0.017429868 -0.1467709
000070 d4 68 fa bd 7f 52 b3 bc 02 54 28 3b c4 89 90 3c
       -0.12227026 -0.021889923 0.0025684838 0.017643817
000080 78 81 03 bd 05 29 58 bd 82 65 ee bb cc b9 40 bc
       -0.032105893 -0.052773494 -0.0072752843 -0.011763047
000090 28 02 96 bd 23 d3 71 bd bb eb 8c bd 77 e6 d9 bd
       -0.0732463 -0.059039246 -0.068808995 -0.10639661
0000a0 5b 33 e4 bd 48 08 3f bd 5c 0e 91 bc 7c 4a de bd
       -0.11142608 -0.046638757 -0.017707042 -0.108540505
0000b0 61 27 1c bd 0e d2 c2 3c 9f b9 19 be 08 d5 d2 bc
       -0.038123492 0.023781803 -0.15012215 -0.025736347
0000c0 78 f4 b4 bd 04 42 00 be d2 86 8a bb a6 a8 09 3e
       -0.08835691 -0.12525183 -0.0042274976 0.1344324
0000d0 34 35 50 3d 2d 85 33 bc 58 10 17 bd 27 c9 1c 3d
       0.05083199 -0.010957045 -0.03688082 0.03827777
0000e0 36 18 09 bb 42 3c 5c 3d 81 d8 26 bd f2 a0 f6 bc
       -0.0020918972 0.053768404 -0.040733818 -0.030106042
0000f0 0b bb 12 bd 89 c5 21 be ab be d8 3d 1d 9c 63 bd
       -0.03582291 -0.1579801 0.10583242 -0.055568803
000100 4c b4 c1 bd 6d b3 91 bb 7e 06 16 3c b9 43 e4 bd
       -0.09458217 -0.004446438 0.009156821 -0.111457296
000110 d8 ce 65 bd b3 d4 ed bd 83 37 94 bc 48 62 c6 bc
       -0.056105465 -0.11612835 -0.018092876 -0.024216786
000120 3c 35 00 bd 28 00 9f bc 4e 52 b3 bd 62 a0 df bd
       -0.03130077 -0.019409254 -0.08755933 -0.109192625
000130 b7 dc b8 bd af 0c ed bd fa 74 1f be 57 03 1d 3d
       -0.09026473 -0.11574685 -0.15571967 0.038333263
000140 5b a5 d4 bd 1f 5b d5 bc d5 a9 ca bd 21 9c 95 bd
       -0.103831016 -0.026044426 -0.09895674 -0.0730517
000150 15 aa 09 be d9 9f 98 bd f2 fd 3c bc 97 63 41 bd
       -0.13443787 -0.074523635 -0.011535155 -0.047214117
000160 08 4b 35 bc b0 a7 ee bd d4 4f 25 be 6e 1d 2b 3e
       -0.011065252 -0.116530776 -0.16143733 0.16710445
000170 c4 e5 23 3d 67 bd ca bc 12 c0 32 bc 29 6f 6d 3b
       0.040014043 -0.024748517 -0.010910051 0.0036229587
000180 ca f7 4e bc 1f 42 37 bd c5 8c 23 3c ee 90 00 bd
       -0.01263232 -0.044740792 0.009982293 -0.031388216
000190 e2 42 cb bd 73 a8 b7 bc 29 a0 b6 bd 7b cf 9f bd
       -0.09924866 -0.02241919 -0.08917267 -0.07803246
0001a0 00 6a c2 bd 2b 9c bc bc 37 0b fc bc 2a 15 86 bd
       -0.09492874 -0.023023685 -0.030767066 -0.065470055
0001b0 7f 00 32 be b1 cb 53 3b 72 ca 7c bd 48 0d 5c bd
       -0.17383002 0.0032317454 -0.061716504 -0.053723603
0001c0 47 4c b5 bd 31 fc 98 bd 6e e0 dc bc fb a8 41 bd
       -0.088524394 -0.07469977 -0.026962485 -0.047280293
0001d0 16 b3 8c 3c 4d 89 0f bd 29 f5 80 bc b8 ce 64 bd
       0.017175239 -0.03504305 -0.015741901 -0.055861205
0001e0 d1 98 f7 bd c2 dc ad bc f5 4c 35 bd e1 67 6e bc
       -0.12089694 -0.02122343 -0.044262845 -0.014551134
0001f0 fd 42 c8 bb cf 83 40 bd e7 5c 39 bd 53 32 73 bd
       -0.0061115013 -0.047000702 -0.045254614 -0.059374165
000200 a5 13 4f 3d 24 17 90 bd 4c e8 b0 bc 42 bb 33 3d
       0.050555844 -0.07035664 -0.021595143 0.043879755
000210 97 d3 4a 3d 76 aa 1f be 19 4f 83 bd 79 b3 22 bd
       0.049518194 -0.1559237 -0.06411571 -0.03972194
000220 ed a7 8f bd 3f 98 e8 bd fa 48 f7 bd 14 40 f9 bd
       -0.07014451 -0.11357164 -0.12074466 -0.12170425
000230 e0 79 dc bd 71 b5 07 bd 1c 05 e7 bd 58 39 47 be
       -0.10765433 -0.03313202 -0.112802714 -0.19455469
000240 52 2c 17 bd e0 ad 81 bd f2 32 00 3c 32 ad c1 bc
       -0.0369075 -0.06331992 0.007824646 -0.023642156
000250 83 ac b7 bd 1c 1c c6 bd 8d 55 56 be 74 5d 04 bc
       -0.08968451 -0.0967333 -0.20931073 -0.008078922
000260 48 ad 13 3d 5e 26 c0 bd e0 d5 f2 bd 0d 90 be bd
       0.036053926 -0.09382318 -0.118572 -0.09304819
000270 b7 da a7 bd 63 58 86 bd ac 55 21 be 9f 4f 1d 3c
       -0.081960134 -0.06559827 -0.15755337 0.009601503
000280 3b 23 4f bd bc 96 45 3b fc e9 6f bd 06 37 6e 3d
       -0.050570708 0.003014966 -0.058572754 0.058157943
000290 8b 35 75 bd c1 dd d9 bd 58 3a 9f 3d 88 20 38 3d
       -0.059865516 -0.10637999 0.077748 0.0449529
0002a0 95 4b ec 3d 0b 2c 3b 3d 14 61 e8 bd 28 ed 02 3d
       0.11537854 0.0456963 -0.11346641 0.03196445
0002b0 c4 82 d2 bd 1a b8 d8 bd 79 d0 1e be 1c 6d 2a 3d
       -0.10278848 -0.105819896 -0.15509214 0.04160796
0002c0 fb d2 9e 3d c4 03 f0 bb 9d a6 d5 bc fc bd 8d bd
       0.07755085 -0.0073246676 -0.026080424 -0.06921002
0002d0 29 01 23 be 97 9a 08 be e4 b8 a7 bd 40 8c 12 bd
       -0.15918411 -0.13340221 -0.08189562 -0.035778284
0002e0 5c 0b 45 bd 0f a5 c4 3b ed 2c a4 bd dd 0c e2 bd
       -0.048106536 0.006001122 -0.080163814 -0.1103761
0002f0 89 89 0c be 2b 32 a9 bd 6d 39 e9 bd 0e c6 92 bd
       -0.1372434 -0.08261522 -0.11387906 -0.07166682
000300 5f ab 95 bd b5 70 a1 bd ce dd 70 3d 5d 01 b3 3c
       -0.07308077 -0.07882825 0.05880528 0.021851236
000310 ea 53 b4 bc 5e f1 b2 bd 64 7f 28 bd 7e 5f 87 bc
       -0.02201267 -0.087374434 -0.041137114 -0.016525026
000320 e6 51 38 be e0 06 d6 bc bf 84 3b 3d 7d 1f 2b 3c
       -0.17999992 -0.026126325 0.045780893 0.010444519
000330 97 16 d8 3c 8d 15 67 bc b0 5b 47 3d 57 55 ac bd
       0.02637796 -0.014104259 0.048671424 -0.08414715
000340 b2 c2 0f 3d 38 66 1c bc 89 a4 3b 3d 82 fa 4d bd
       0.035097785 -0.009545855 0.04581121 -0.05028773
000350 f8 5e cd bb 2c d5 27 3d 13 2b 0d be b9 ff f5 3c
       -0.0062674247 0.04097478 -0.13785963 0.030029165
000360 45 f4 e3 bd 9e 8f 27 bd 16 9d 04 be 9e 0d 01 bd
       -0.11130575 -0.04090845 -0.12950549 -0.031507127
000370 16 45 07 bd 82 c2 f6 bd d3 fd 6d 3d 78 ac cb bd
       -0.03302487 -0.12048818 0.058103394 -0.09945005
000380 80 7d 85 bd 75 9a de bd 7c 4b c1 bd 4c b2 f0 bd
       -0.06518078 -0.10869304 -0.094382256 -0.117527574
000390 f6 8a ca bd d2 bb c2 bd 45 3a 2b bd 61 aa f9 3c
       -0.09889786 -0.0950848 -0.041803617 0.03047675
0003a0 3b df b1 3d bc 38 ee bc 94 fd 37 bd bd 7c 49 3d
       0.08685156 -0.029079787 -0.044919565 0.049191225
0003b0 25 ea 7c bd 2e b5 33 be 84 1e 6b bd 0c fc 5f 3d
       -0.061746735 -0.17549583 -0.05740215 0.05468373
0003c0 e5 d4 a7 bd 97 b2 c0 bd 1a e5 ef bc 9f 6b 8d bd
       -0.08194903 -0.09409063 -0.029284049 -0.06905293
0003d0 5c 39 8f bd 4d 32 9c bc a1 f7 2c bc e0 b7 8d bd
       -0.06993362 -0.019066954 -0.010557086 -0.06919837
0003e0 89 29 f2 bd ee 4e 67 bd 07 84 d0 bd 72 30 52 bc
       -0.118243285 -0.056471758 -0.10181432 -0.012828933
0003f0 9c cb 4d 3c b8 0c 6c bd 9f f4 91 bd 61 44 59 bd
       0.012560751 -0.057629317 -0.07126736 -0.053043727

generator.3.bias f4 [784]
000000 1f 60 68 bd f6 e4 11 be f6 6a dd bd 00 4f 50 bd
       -0.056732293 -0.14247498 -0.10811417 -0.05085659
000010 a3 a0 17 be ba 98 9f bd fe 41 64 bc ab cb 9f bd
       -0.14807372 -0.07792802 -0.013931749 -0.078025185
000020 62 ca 4c be 1b bb 08 be c4 09 ce bd 83 bf 09 be
       -0.19999078 -0.13352625 -0.100604564 -0.13451962
000030 3c c7 28 be 61 fc e2 bd 9d c6 fd bc 2e bd 2b be
       -0.16482252 -0.11083294 -0.030978495 -0.16771385
000040 1d 54 34 bc 6a 2b db bc 6e 93 82 bd dc 94 8b bd
       -0.011006382 -0.0267541 -0.06375776 -0.06815502
000050 7b 05 de bd 6b 15 bf bc 06 10 e6 bc dc 36 df bd
       -0.10840889 -0.023325643 -0.028083812 -0.108991355
000060 a9 f3 f1 bc 54 72 ab bd 0a bf 6d bd 10 cf 96 bd
       -0.029535132 -0.08371416 -0.058043517 -0.07363713
000070 ca 32 c4 bd b1 57 c3 bd 6e 64 2c bd 8f ab dd bd
       -0.0958 -0.0953821 -0.042087965 -0.10823738
000080 ce b0 f7 bd f1 bb 22 be bb bf f7 bd 9e b2 59 bd
       -0.1209427 -0.15892006 -0.120971166 -0.05314886
000090 f4 31 bb bd f2 62 3c be af c4 c8 bd 18 c4 79 bd
       -0.09140387 -0.1839712 -0.098031394 -0.060978025
0000a0 b3 c0 ce bd 75 8e 2b be 01 67 f0 bc d3 b6 01 bd
       -0.10095348 -0.16753562 -0.029345991 -0.031668495
0000b0 e2 08 e9 bd d4 72 b6 bd d8 d7 91 bd 4c 62 8a bd
       -0.113786474 -0.089086205 -0.07121247 -0.0675703
0000c0 29 57 fa bd ca 1f 93 bd ca 00 3d bd 19 98 41 be
       -0.12223656 -0.07183798 -0.04614333 -0.18905677
0000d0 ed 0f 30 be a6 c1 0a be 63 b7 44 bd af bc 54 bd
       -0.17193575 -0.13550434 -0.048026454 -0.051937755
0000e0 ce 24 9f bd 6c b6 81 be 28 c4 15 be fd 79 d4 bd
       -0.07770692 -0.2533449 -0.14625609 -0.1037483
0000f0 e9 61 e4 bd 2c 16 c6 bd 34 08 c2 bd 95 33 1b bd
       -0.111514874 -0.09672198 -0.09474221 -0.03789099
000100 6f 11 25 bc d3 ac e9 bd 0d 9c 69 3b 5f 3e 45 be
       -0.010074957 -0.11409917 0.0035645992 -0.19262074
000110 f9 6d 52 bd 6b 5a 2c be fd 77 dd bd ea 18 26 be
       -0.05137441 -0.16831367 -0.108139016 -0.16220441
000120 d6 4f bf bd 8c 1b cb bd a5 df 1a be f7 03 0d be
       -0.09341399 -0.099173635 -0.15124376 -0.13771044
000130 1a 95 cc bd ce 98 d6 bd 95 ab e7 bd 03 51 33 be
       -0.09989376 -0.10478364 -0.113120236 -0.17511372
000140 8a 33 97 bd 69 b2 a1 bd 69 42 16 be 3c cf 62 bd
       -0.07382877 -0.07895357 -0.14673771 -0.055373415
000150 37 99 e2 bd 19 37 18 be 77 36 39 be e8 6c b3 bd
       -0.1106438 -0.14864768 -0.18087183 -0.087610066
000160 2a b6 8a bd 95 c5 9c bd 89 67 9c bd f6 45 39 bd
       -0.06773026 -0.07654873 -0.07636935 -0.045232736
000170 08 32 b6 bd 30 af 1d be a5 73 9d bd 85 a6 37 be
       -0.088962615 -0.1539886 -0.07688073 -0.17934616
000180 fd da ac bd 56 9f e1 bd 2e b2 d7 bd 81 3f a1 bd
       -0.08440206 -0.11016719 -0.10532032 -0.078734405
000190 0a 35 32 be 86 27 68 bd fe d3 2b be eb 75 98 bd
       -0.17403045 -0.056678317 -0.16780087 -0.07444366
0001a0 4e d2 31 be 25 94 f1 bd eb 16 44 be 05 2c 5e bd
       -0.17365381 -0.117958345 -0.19149368 -0.0542412
0001b0 a8 0a f8 bd bb 2e 2f be 67 4f 07 be c6 77 e2 bd
       -0.121114075 -0.1710767 -0.13213883 -0.11058001
0001c0 1c c6 8d bd 20 0a dc bd 21 10 d9 bd 43 42 bb bd
       -0.06922552 -0.10744119 -0.105987795 -0.09143498
0001d0 3e e5 2c be 83 c0 c8 bd 8b bb 9f bd de 97 1f be
       -0.16884324 -0.09802344 -0.07799443 -0.15585276
0001e0 24 f1 08 bd 6d 0d eb bd fd a2 c6 bd d5 24 b4 bd
       -0.033433095 -0.1147717 -0.09699056 -0.08796088
0001f0 01 e8 b0 bd 21 84 9f bd 1d f5 18 be 8f 1f f3 bd
       -0.08638001 -0.077888735 -0.14937253 -0.11871254
000200 6d 94 47 3b cb ad 4a bd a3 c3 e5 bd 5f b4 aa bd
       0.003045346 -0.04948215 -0.11218955 -0.08335184
000210 d2 58 e8 bd df 3a 83 bd b2 ad db bd 20 44 09 bd
       -0.11345066 -0.06407713 -0.10726489 -0.033512235
000220 6d 84 b8 bd 9e 7b 94 bd f8 2f 37 be d3 0f ee bd
       -0.09009633 -0.072501406 -0.17889392 -0.11624112
000230 29 a4 b9 bd 61 ae 2b be cf 42 c5 bd 3d 6d 00 be
       -0.09064514 -0.16765739 -0.09631883 -0.12541671
000240 32 82 c3 bd 3e 02 70 bd 28 90 29 be ea 9c 57 bd
       -0.09546317 -0.05859589 -0.16558897 -0.05263988
000250 b4 1f be bd 44 e9 aa bd 9b b3 5c bd cc 49 66 bd
       -0.09283391 -0.08345273 -0.053882223 -0.056222722
000260 72 2d dc 3c dc ea 5d bc 7e 5b 98 bc 7f 7b 7b bc
       0.026877139 -0.013544764 -0.018598314 -0.015349268
000270 85 d1 02 bd d8 31 e3 3c 6e 0d d7 3b 5c ad d3 3c
       -0.031938095 0.027733728 0.0065628802 0.0258395
000280 84 aa ec bd 23 02 06 bd 08 d6 04 be f3 4d 13 bd
       -0.11555961 -0.03271688 -0.12972271 -0.03596301
000290 49 71 69 bd 17 33 a3 bd e4 47 2e be 0e ec b6 bc
       -0.056992803 -0.07968729 -0.17019612 -0.022329357
0002a0 62 cf 23 be 25 c9 f9 bd 6a ab 18 be 9c 66 a8 3b
       -0.15997079 -0.121965684 -0.1490914 0.005139185
0002b0 95 cc 73 bd b2 4f a0 bd be 74 03 be 4d d1 21 be
       -0.059521277 -0.07827701 -0.12837502 -0.15802498
0002c0 e5 43 85 bd 3a d8 de 3c 0e ed 39 bd ab ec a7 bc
       -0.065070905 0.027202714 -0.04539209 -0.020498594
0002d0 b2 10 50 bd 56 c1 98 bd c4 ee 3e 3d 17 bc 11 3d
       -0.050797172 -0.07458751 0.046614423 0.035579767
0002e0 9c 5e fb 3c 81 9c d6 3c 7e 47 84 bd 21 3b c5 3b
       0.030684762 0.026197674 -0.064589486 0.0060190116
0002f0 d9 1d 31 bd ae 89 72 3c 1a 15 e4 bc 3e 90 17 be
       -0.043241356 0.014803333 -0.027842093 -0.14801118
000300 5c 34 c8 bd be 8e 2d be 4f 36 a3 bd 89 af 41 be
       -0.09775612 -0.16948983 -0.07969343 -0.18914618
000310 3a 45 2d be 6f 2a f5 bb 4c 2b 0f be 4c b9 76 bd
       -0.16920939 -0.007481865 -0.1398136 -0.060235307
000320 0b f7 9b bd 4d ca 84 bc c0 a7 89 bd ed fd 35 bd
       -0.07615479 -0.016209746 -0.06721449 -0.044431616
000330 bf 4e 60 bd c7 74 c3 bd ea c3 01 bd 39 50 d3 ba
       -0.054762598 -0.09543758 -0.03168098 -0.0016121931
000340 8d a3 d1 3c 04 b0 21 bd a4 21 c7 3b 63 80 6c 3c
       0.025590682 -0.039474502 0.0060770083 0.014434907
000350 fd 91 61 3d 98 7f 27 bd 07 ce f6 bd 0d 96 28 bd
       0.055070866 -0.040893167 -0.12051015 -0.041158725
000360 5c 52 07 3d dc 3c 62 bc e0 dd dd bd 73 7e f9 bd
       0.03303753 -0.013808455 -0.10833335 -0.121823214
000370 f0 39 0a be 01 ee 28 be 36 f2 c5 bd 68 e0 7f bd
       -0.13498664 -0.16497041 -0.09665339 -0.06246987
000380 e8 1d 55 be e2 bb 40 3c 37 36 c4 bd 82 ba 83 bd
       -0.2081219 0.011763545 -0.09580653 -0.06432058
000390 b7 80 18 be 9b 3f fa bb 6d 08 03 bd 86 b3 02 be
       -0.14892851 -0.007636977 -0.031990457 -0.12763795
0003a0 db 29 10 be dc 55 28 bd 95 d7 c6 3c 9a 44 52 3c
       -0.14078467 -0.041097507 0.02427272 0.012833739
0003b0 53 ed 01 3d a5 0c 23 bd 26 d2 87 3d a7 73 58 3d
       0.03172047 -0.03980698 0.066318795 0.05284467
0003c0 27 69 c5 3c 95 62 a4 3c a6 4c 8c bd d3 2f 0b be
       0.024097992 0.020066539 -0.06850557 -0.13592462
0003d0 bf dd 33 3b a6 86 69 bd 31 ef 68 bd 81 a5 75 bd
       0.0027445403 -0.057013176 -0.056868736 -0.05997229
0003e0 b4 2d 9b bd 23 aa 31 be dd 5f 44 be 41 25 ce bd
       -0.075770766 -0.17350058 -0.19177194 -0.10065699
0003f0 a6 b5 98 bd 10 8e dc bd 98 52 20 be bd a9 00 be
       -0.07456522 -0.10769284 -0.15656507 -0.1256475

discriminator.1.weight f4 [128, 784]
000000 b8 c6 94 bc 40 16 67 3c db b1 9a bc cf 70 85 3c
       -0.018161163 0.014104426 -0.018883636 0.016289143
000010 e9 53 05 3a 6d b1 da 3c e0 bf 01 3b 91 72 a1 3c
       0.0005086051 0.026695931 0.0019798204 0.01970795
000020 d0 0b 83 3c d6 80 13 3c b3 ec 65 bc b1 17 72 3c
       0.015996844 0.009002885 -0.014033484 0.014776156
000030 69 20 e8 bb f8 1e ed 3b 7c 37 87 bc cd 7b 1b 3c
       -0.0070839417 0.007236358 -0.01650595 0.009489966
000040 fc 74 14 3d 43 e4 23 3a b2 66 e8 3c c8 aa 8b 3b
       0.036244377 0.000625197 0.028369281 0.004262302
000050 d3 f8 a6 bb 63 93 87 3c c5 73 e3 3b 53 a8 da 3c
       -0.00509558 0.016549772 0.006941291 0.026691591
000060 1d 4f 13 3c 35 76 ce 3c bd a7 c5 3c 8c d4 fe ba
       0.00899103 0.02520285 0.024127835 -0.0019442006
000070 1e 40 7f 3c 3c 17 2c 3d d0 e9 ee 3c 88 77 c8 bc
       0.015579252 0.042014346 0.029164225 -0.02447106
000080 41 55 e6 bb be 2b 06 3b 59 3e fb bb 42 b1 84 3c
       -0.007029206 0.002047285 -0.0076673445 0.016197804
000090 2d 03 05 3d 3d 22 32 3d 33 14 a2 3c e1 b2 dc 3c
       0.03247373 0.043489683 0.019785022 0.026940765
0000a0 56 af ee 3b f9 eb d2 ba 43 8d 39 3b 4e a5 8a bb
       0.0072840853 -0.0016092054 0.0028312958 -0.0042311316
0000b0 de 52 99 ba 85 1b 32 bc cc ba d6 3b 53 8a 1e 3d
       -0.001169767 -0.010870819 0.0065530296 0.038706135
0000c0 28 b7 5c 3c a8 66 f7 3c 7f 52 f1 3c 60 b9 a3 3b
       0.013471402 0.030200318 0.029458283 0.0049964637
0000d0 f2 5a c3 3b 85 8e 8c ba 18 be 97 bc 49 1c ec 3b
       0.0059617693 -0.0010723626 -0.018523261 0.0072055203
0000e0 29 cf ed 3c d3 94 03 3c 3d df d7 bc a3 f1 0e bd
       0.029029446 0.008031088 -0.026351565 -0.03489841
0000f0 72 77 16 3c 33 7e 9a 3c 00 c9 31 3a ba 8d 1d 3c
       0.009183751 0.018859005 0.00067819655 0.00961631
000100 09 18 da bc 74 22 14 3d 2d 34 81 3c f4 76 ba 3b
       -0.026622789 0.03616567 0.01577195 0.00569045
000110 b0 bb c7 3c 6d 3f 07 3c bf ba c8 bc b5 66 21 bc
       0.024381489 0.008254868 -0.02450311 -0.009851147
000120 b9 83 05 3c 5d 53 7d bc ce 64 eb bc 1a b9 40 bc
       0.008149081 -0.01546177 -0.02873459 -0.011762882
000130 66 b6 c6 bc bf 72 26 3b d0 25 01 3c 5f 76 7b 3c
       -0.024256896 0.0025397984 0.00788255 0.015348046
000140 24 d8 a7 3c a3 ab ed 3b c2 d3 5f bc 34 76 7d 3a
       0.020488806 0.0072531267 -0.013661327 0.0009668798
000150 22 81 58 bb f4 ec da b8 e6 3d 3b 3b e4 65 b3 3c
       -0.0033035954 -0.00010439186 0.002857083 0.021899171
000160 e8 98 80 3c f4 a8 e8 3c ff 5f 91 3c a3 a4 06 3d
       0.015697911 0.028400876 0.01774597 0.032871854
000170 09 39 8c 3d 4d 16 43 3d eb 0f 83 3d 62 ab 86 3d
       0.06846816 0.04762869 0.063995205 0.065756574
000180 de 20 17 3d 1d e0 0e 3c 43 01 a8 3b af bf 2a 3d
       0.03689658 0.008720425 0.0051271035 0.04168671
000190 0e 32 5e bc 68 3a 61 bd e2 45 17 bd 27 c7 da bc
       -0.013561739 -0.05498734 -0.03693188 -0.026706291
0001a0 b5 48 2b bd ce 82 a9 bc bc 2e 3d 3b ca e1 4a bc
       -0.041817386 -0.020692255 0.0028866967 -0.012382934
0001b0 75 92 12 3d 55 03 81 3a 71 2c 7c 3c ff 32 4e ba
       0.035784204 0.0009842912 0.015391455 -0.00078658754
0001c0 6d d7 e5 bc 68 b4 b9 bb 7f 3e 92 bb c2 43 b8 3a
       -0.028056825 -0.005667258 -0.0044630165 0.0014058279
0001d0 67 87 23 3d 6b ae 69 3c 35 b7 49 3d 1d 8e 18 3d
       0.03992405 0.014262776 0.049246985 0.037244905
0001e0 d0 45 83 3d db f7 a7 3d 7a f3 91 3d df 91 62 3d
       0.064098 0.082015716 0.071265176 0.055314895
0001f0 ba ab bb 3c ea 04 8a bc ae 7d 8d 3c 8c c4 75 bd
       0.022909034 -0.016848046 0.017271843 -0.060001895
000200 a7 ea bc bd f8 00 ca bd 86 6b 44 bd aa dd 02 bd
       -0.09224444 -0.09863466 -0.047954105 -0.031949677
000210 1e fa 58 3c 0e fc 32 bb 64 af 92 3c 85 30 b4 3c
       0.013243226 -0.002731088 0.017905898 0.021995792
000220 5c 70 a8 3c 89 df ad bc c3 db 06 3d bb 5e 50 3c
       0.02056139 -0.021224754 0.032924425 0.012717898
000230 8a 6b a9 3c 3f bc 3d 3c c6 89 36 3d 0f 63 26 bc
       0.020681161 0.011580526 0.044564985 -0.010155453
000240 6d 75 8b 3c 3b b9 37 3d c0 88 d7 3c 00 cd dd 3d
       0.017023766 0.044854384 0.026310325 0.10830116
000250 1d 50 28 3d ad 9c 4e 3d 7f 83 3b 3c e1 e1 b8 bc
       0.041092027 0.050442386 0.011444925 -0.022568645
000260 5d e3 ba 39 ae c9 3b 3d 24 20 21 bb e7 60 01 be
       0.00035646083 0.045846634 -0.0024585808 -0.12634622
000270 94 3c 1e be fb 35 3a be b3 b4 14 be bc 11 27 bd
       -0.15452796 -0.18184654 -0.14522056 -0.040788397
000280 18 df 3d 3d 4f 3d 68 3d bc c4 71 3d 23 0b 04 3d
       0.046355337 0.056699093 0.05902551 0.032237183
000290 23 12 f3 3c b5 fc 12 3c 3e bc d7 3c 69 91 c1 ba
       0.029671734 0.008971383 0.026334878 -0.0014768067
0002a0 f3 32 9b 3c d5 4c 2f bb 27 b0 d4 bc b1 b9 bb ba
       0.018945193 -0.0026748676 -0.025962902 -0.0014322308
0002b0 b7 d4 c2 3c 30 a8 5b 3d 16 7e 02 3d fa 02 84 bc
       0.023783071 0.053627193 0.031858526 -0.0161147
0002c0 73 bb 35 bc 99 f5 94 b8 ec 64 13 bd 04 97 f5 bc
       -0.011092055 -7.102936e-05 -0.03598492 -0.029979236
0002d0 4a 5d 02 bc 38 cb 8e 3d 94 b8 ae bc a9 77 32 be
       -0.007956812 0.06972355 -0.021328248 -0.17428459
0002e0 8a 55 66 be 79 49 47 be 7a 7e 74 be 7a 84 ac bd
       -0.22493568 -0.19461621 -0.23876372 -0.084237054
0002f0 51 a4 d9 3c 47 07 5c 3d 7a 74 22 3d 4a cc 24 3d
       0.02656761 0.053717878 0.039661862 0.040233888
000300 73 30 9a bb f9 c4 3f bc 7b 9e 90 bb 8f 1e 01 3c
       -0.0047054826 -0.011704677 -0.0044134236 0.007880821
000310 70 e1 70 bb 8b 7a 88 3b c7 66 2a 3d b0 39 66 bb
       -0.0036755465 0.004164999 0.041601922 -0.00351296
000320 cd 3e dd 3c 7e 87 b3 3c 4d ad 19 3c e3 8e c3 bc
       0.027007485 0.021915194 0.009379697 -0.023871845
000330 25 c1 18 bc 10 b7 d6 bc ec 72 90 bc a5 25 b3 bb
       -0.009323393 -0.026210338 -0.017632924 -0.005467134
000340 de 8c 58 3c 0b 2c 74 3d 1e 9d 90 bd 97 3c 44 be
       0.013217179 0.059612315 -0.07061218 -0.19163738
000350 ec 9d 6b be ed 5e 84 be b8 30 4b be 45 8c cb bc
       -0.23009461 -0.25853673 -0.19842803 -0.02484716
000360 cc 70 6c 3d 3b 5e 4f 3d 15 54 a0 3c b9 61 6c 3d
       0.05772476 0.050626975 0.019571343 0.057710383
000370 37 2c be bc ee 74 b5 bc 26 82 cc bb c2 3c 49 3c
       -0.023214443 -0.022150483 -0.006241101 0.012282552
000380 7f f4 71 bc 30 cf 93 3c 93 ca bc 3b c5 78 47 3d
       -0.014767765 0.01804313 0.0057614534 0.04869916
000390 77 1d d1 3b b8 9f 60 bc 90 4e 02 3c 77 c9 c8 bc
       0.0063816863 -0.013709955 0.007953301 -0.024510128
0003a0 4c c8 24 bc 63 c9 26 bc 76 d2 80 3b 08 f9 66 3c
       -0.01005752 -0.01017985 0.003931339 0.01409746
0003b0 b3 0a f7 3c 1b 79 0d 3d 2a 0f 98 bd a3 87 2f be
       0.030156469 0.034539323 -0.07424767 -0.17141585
0003c0 0f ea 70 be 3d 82 66 be 13 32 2d be ec af 7e bc
       -0.23526786 -0.2251062 -0.16913633 -0.015544873
0003d0 9a 10 75 3d 00 dd 29 3d ca 41 4b 3c 5f af 99 3b
       0.059830286 0.041470528 0.012405822 0.0046900953
0003e0 0f d1 8a bc 09 60 5b bc 98 b5 9d 3c 21 85 bf 3b
       -0.01694539 -0.013389596 0.01925163 0.0058447276
0003f0 5b 57 63 3c b9 67 4e bb 13 60 b1 3b cb 16 b2 3c
       0.013875808 -0.003149493 0.0054130643 0.021739384

discriminator.1.bias f4 [128]
000000 db a4 ad be 60 af cb be b4 5d d9 be f6 b2 d7 3e
       -0.33914837 -0.39782238 -0.42454302 0.42128724
000010 7b a8 0e 3f 65 ad dd be f2 21 ef 3e 43 3f b5 be
       0.5572583 -0.43296352 0.46705586 -0.35399827
000020 db 28 c0 be e7 37 b1 be 4b 14 f4 be 2b b8 d2 3e
       -0.3753117 -0.34612963 -0.47671732 0.41156134
000030 47 ab eb 3e 7e 38 99 3e 3d 7e b7 be ff 7e 97 3e
       0.46029112 0.29925913 -0.358385 0.29589078
000040 7f 29 b2 be fe 13 70 be 77 6b 2c 3f d0 0c 08 3f
       -0.34797284 -0.23445126 0.6735148 0.5314455
000050 b4 27 97 be 1e dd 9c 3e d2 1b e2 3e e4 e4 f5 3e
       -0.2952248 0.3063745 0.4416185 0.48026192
000060 28 af c2 be 43 19 bc 3e 68 33 12 3f 53 24 fd 3e
       -0.3802426 0.36738023 0.5710969 0.49441776
000070 a9 69 26 3f 9e 53 cc be 36 bd b1 be 1a 8f a7 be
       0.65004975 -0.39907545 -0.3471467 -0.32726365
000080 d0 67 9c be 46 b2 c7 3e 23 ab bf 3e 63 44 a6 be
       -0.30547953 0.390032 0.37435254 -0.3247405
000090 b8 63 90 be 26 d8 a0 be f9 c5 e7 be d4 9d 8d be
       -0.2820108 -0.31414908 -0.4526823 -0.27659476
0000a0 63 06 aa be 4f f6 6d be 30 e7 26 3f 01 b1 6f be
       -0.33207998 -0.2323849 0.65196514 -0.23407365
0000b0 16 3a aa be 86 43 1f 3f 7b a3 91 be 6d 6c 87 be
       -0.3324744 0.6221241 -0.28445038 -0.2644991
0000c0 c4 6f 0e 3f 8f 1e d4 3e 88 1b c6 3e 7b 63 b2 3e
       0.5563929 0.41429564 0.3869288 0.34841523
0000d0 fb d7 a2 be ef 08 1e 3f 29 dc ec 3e 63 ad c7 be
       -0.31805405 0.6173238 0.4626172 -0.3899947
0000e0 24 2f a3 be f2 1f c4 3e df dd 97 be 6f 26 ce 3e
       -0.31871903 0.38305622 -0.29661462 0.40263698
0000f0 a3 18 84 be a3 58 a9 be 89 84 c2 3e a1 70 a3 be
       -0.25800046 -0.33075437 0.3799174 -0.31921867
000100 14 ca d4 be 31 2e bc be 21 28 d7 3e 5a 69 09 3f
       -0.41560423 -0.3675399 0.42022803 0.5367638
000110 7c 31 23 3f 30 51 94 be fb e3 08 3f 7d 78 16 3f
       0.6374738 -0.2896819 0.5347287 0.587776
000120 a2 37 8a be 8a 5d 1e 3f 9e 6a 1d 3f e6 4f d5 3e
       -0.2699557 0.6186148 0.6149081 0.4166252
000130 78 57 9f be c7 9d ef 3e 60 7e d8 3e 1d 3d 93 be
       -0.3112142 0.46800062 0.42283916 -0.28757563
000140 6e 42 b1 3e d9 14 1c 3f 66 57 ae be 64 8e be 3e
       0.34620994 0.6096931 -0.34051055 0.3721801
000150 a9 19 81 be 9a 4a ec 3e a8 d6 87 be 5d 9c ea 3e
       -0.2521489 0.46150666 -0.26530957 0.4582242
000160 47 b0 af be 69 70 33 3f b4 53 8d be 46 bd ef 3e
       -0.34314176 0.700934 -0.27602923 0.46824092
000170 34 09 89 be 34 d5 8b be 85 19 f5 3e 40 ca e1 be
       -0.26764834 -0.273111 0.47871032 -0.44099617
000180 c0 64 e1 3e fa 50 25 3f 34 d4 7a be 6f aa 1c 3f
       0.4402218 0.64576685 -0.24495012 0.6119756
000190 32 a8 24 3f c5 a9 81 be dc ad df 3e 6d 57 b6 be
       0.64319146 -0.25324836 0.43687332 -0.35613576
0001a0 68 dc ee 3e 7e 09 a0 3e d1 71 e9 3e a0 9e da 3e
       0.46652532 0.31257242 0.45594648 0.42699146
0001b0 db b2 ae be a0 43 84 be 9e d0 27 3f 54 f1 e5 3e
       -0.3412083 -0.25832844 0.655527 0.4491068
0001c0 c7 1a d2 3e 0d 27 24 3f 42 e1 aa be 74 c4 c3 be
       0.41036054 0.64122087 -0.33374983 -0.3823582
0001d0 d4 10 c9 be 41 5e 0e 3f 86 a6 d1 3e b7 7d ab 3e
       -0.3927065 0.5561257 0.4094736 0.3349435
0001e0 ca c3 d8 be 6f 05 d1 3e 34 a2 ad be 4c 0e ba be
       -0.42336875 0.40824458 -0.33912814 -0.36339033
0001f0 72 c9 80 be b2 af 25 3f 54 0e d7 be e5 39 bf 3e
       -0.2515369 0.64721215 -0.4200312 0.37348858

discriminator.4.weight f4 [1, 128]
000000 79 c1 05 3f 8f 9b ef 3e 6e 13 c3 3e 91 4c 0d bf
       0.5224834 0.4679837 0.3810076 -0.55194956
000010 4e 4c a3 be b1 bb b4 3e aa fc 05 bf 80 ab fb 3e
       -0.31894153 0.35299447 -0.5233866 0.49154282
000020 f7 02 00 3f 67 9a b7 3e 1d 85 d0 3e ca 93 f1 be
       0.50004524 0.35859987 0.40726557 -0.47183067
000030 7d 8b 0d bf 3e ce 21 bf b1 c9 bc 3e 5d 76 20 bf
       -0.5529097 -0.63205326 0.36872628 -0.6268061
000040 08 08 cc 3e ce 10 df 3e 8a 6c bb be ef 9b 97 be
       0.39849877 0.43567508 -0.36606246 -0.29611155
000050 6a e5 ed 3e 44 06 0e bf 6f 01 f8 be 44 27 e5 be
       0.46464092 -0.5547831 -0.48438594 -0.4475652
000060 8c 7d c0 3e 9f a1 08 bf f8 c9 9d be 4c 11 e8 be
       0.37595785 -0.53371614 -0.30818152 -0.45325696
000070 7f b9 c8 be ab 9a c2 3e 58 a8 b0 3e 6d 98 a9 3e
       -0.39204022 0.38008627 0.34503436 0.33124104
000080 90 52 f0 3e 67 a7 01 bf a2 d7 04 bf 8f c8 d7 3e
       0.4693799 -0.5064606 -0.5189153 0.42145202
000090 fc 66 fb 3e d2 32 c3 3e 5f 73 da 3e ec 23 de 3e
       0.49102008 0.3812471 0.42666146 0.4338678
0000a0 58 2f d6 3e e7 14 be 3e 70 de f2 be a1 32 dd 3e
       0.41832995 0.37125322 -0.4743533 0.4320269
0000b0 65 68 19 3f b5 35 ba be eb 50 f2 3e 0d 0c e3 3e
       0.5992492 -0.363691 0.4732736 0.44345132
0000c0 05 7f be be 00 29 e1 be d7 68 37 bf 59 ee e9 be
       -0.37206283 -0.43976593 -0.7164435 -0.45689657
0000d0 f9 8e c6 3e 5f 03 dc be 45 8b 0c bf 98 c3 a7 3e
       0.38780954 -0.42971322 -0.5490001 0.32766414
0000e0 94 d1 d9 3e 43 72 f6 be df ed 9b 3e b8 af 0c bf
       0.42542708 -0.4813405 0.3045492 -0.54955626
0000f0 2b 0a f0 3e 1e 58 c7 3e 30 a9 3a bf 2a 71 dc 3e
       0.46882758 0.38934416 -0.7291441 0.43055087
000100 f3 a8 9e 3e 19 77 b0 3e ab 56 78 be c5 10 bd be
       0.30988273 0.34465864 -0.24251811 -0.36926857
000110 aa b8 f7 be 1d d9 cf 3e 57 69 8a be 5f c0 56 bf
       -0.48383075 0.40595332 -0.27033493 -0.83887285
000120 4e 11 ab 3e 3c c8 65 be 92 11 dd be d8 88 fc be
       0.3341164 -0.22439665 -0.43177468 -0.49323153
000130 a2 f8 b5 3e 30 6e 0b bf e1 49 08 bf b9 a8 d3 3e
       0.35541254 -0.5446501 -0.5323773 0.41339663
000140 a0 b9 38 bf d7 42 8c be 38 12 ee 3e 5d d7 11 bf
       -0.7215824 -0.27394745 0.46498275 -0.56969243
000150 73 7e 08 3f 3e 0f 26 bf 32 5f bf 3e 34 1b 0a bf
       0.53317946 -0.6486701 0.37377316 -0.5394776
000160 b3 dd 16 3f bf 8b e4 be 73 9e ce 3e 4d 8a da be
       0.58932036 -0.44637868 0.40355262 -0.4268364
000170 08 4a cc 3e f4 29 0a 3f 85 57 00 bf 63 5a f5 3e
       0.3990023 0.53970265 -0.50133544 0.47920522
000180 c3 f9 23 bf d4 df 28 bf 52 69 ce 3e 4f 7e 9d be
       -0.6405298 -0.65966535 0.40314728 -0.30760428
000190 ae 62 0e bf c6 31 e4 3e 00 22 1f bf 2b 8e d1 3e
       -0.55619323 0.44569224 -0.62161255 0.40928778
0001a0 12 e0 15 bf 1f a7 50 bf 66 6a 0a bf 10 25 24 bf
       -0.5854503 -0.81505007 -0.540686 -0.6411905
0001b0 62 4a 01 3f 12 38 07 3f ae 0f b2 be 30 37 1d bf
       0.50504124 0.5281993 -0.34777588 -0.61412334
0001c0 18 bd 20 bf a9 6f 08 bf 42 c1 1a 3f ff 04 d7 3e
       -0.62788534 -0.5329538 0.6045114 0.41996
0001d0 14 2e 02 3f 81 3b 26 bf b7 cc 23 bf 68 ba ca be
       0.5085156 -0.64934546 -0.63984245 -0.39595342
0001e0 9d 8a d3 3e e7 31 10 bf 03 e6 be 3e 71 ab e1 3e
       0.4131669 -0.56326145 0.3728486 0.44076112
0001f0 f9 bd dc 3e d2 9c c1 be 8a 7c e2 3e 8a 70 13 bf
       0.43113688 -0.37814957 0.4423564 -0.57593596
