homework-week-12/gan_mnist_dr0.9_adamTrue_lrg0.0002_lrd0.0002.pt (torch, 863251 bytes, 7 tensors)

generator.0.weight f4 [128, 100]
000000 b7 dd 83 3d 6e 5c 0b 3e ee c0 d4 bd 5b 23 03 3e
       0.06438773 0.13609478 -0.10388361 0.12806456
000010 31 29 8f bd ae 5c 09 3d cc ea 5d bd a5 3e 60 3d
       -0.069902785 0.03353565 -0.054178998 0.054747242
000020 b3 05 2c 3e 9b 98 16 be 94 a4 2b 3e d3 7f 43 3d
       0.16799049 -0.14706652 0.16762 0.047729325
000030 18 aa d6 3d 1f 11 67 3d b6 df a9 3c 9c 57 50 bd
       0.104816616 0.056412812 0.020736557 -0.0508648
000040 43 c2 68 3d 21 9b ba 3d 31 a6 30 bd e7 fc ca bb
       0.056825887 0.0911162 -0.043127242 -0.006194699
000050 4b bc 6e bd e8 ce 28 bd d8 96 4f bd ad d7 03 3e
       -0.05828504 -0.041212946 -0.050680965 0.12875243
000060 fd 0c 63 be f7 df 9e bd 39 12 b0 bd a2 e2 96 bd
       -0.22172923 -0.07757562 -0.08597226 -0.073674455
000070 e4 55 27 3d 2c a5 bb bd f9 50 13 3e 93 d2 84 bd
       0.040853396 -0.091623634 0.14386357 -0.06485476
000080 dc 72 e2 3d f2 93 a2 bc 00 58 52 3b 10 e7 e1 3d
       0.11057064 -0.019845936 0.003209591 0.110304
000090 9b db bd bc f5 5a cd 3d 5a 7e 53 3d ab 0a 57 bd
       -0.023176005 0.10027114 0.05163417 -0.05250041
0000a0 e3 a0 8d 3c e9 39 2a bd 89 dd 8d 3d 1a 4d df 3d
       0.01728863 -0.041559134 0.0692702 0.10903378
0000b0 c1 c7 83 3d c4 9e b3 bd 76 df 8a 3d 85 6e 93 3c
       0.064345844 -0.087705165 0.06780903 0.017997036
0000c0 f5 c8 5d 3c 20 f6 15 be 7c 6e 3d be b9 d3 67 bd
       0.013536681 -0.1464467 -0.18499178 -0.0565984
0000d0 a7 b6 bf bd f4 8a 1d 3e 9b c2 40 3d 7d 96 a4 3d
       -0.0936101 0.15385038 0.04706059 0.08036516
0000e0 3d ef dd 3d 7a 87 13 bd 56 d2 a0 3d 5f 0b 08 be
       0.10836647 -0.036017872 0.078526184 -0.13285588
0000f0 31 8d 82 bd 45 0f d7 bd 9c 1b 58 3b 8b ad 0b bd
       -0.063745864 -0.10500959 0.003297544 -0.03410105
000100 89 16 27 3d a0 d0 47 3d f0 58 18 3e 12 1b bb bd
       0.040792976 0.048782945 0.14877677 -0.091360226
000110 0a 1f 10 be cf 4e cb bd cc f3 e0 3d ba 74 8d 3d
       -0.1407434 -0.09927141 0.109840006 0.069070294
000120 3f 55 19 3e 3a 4e 6d be f1 bb 39 be ed f8 2f bd
       0.14973925 -0.23174372 -0.181381 -0.042962003
000130 b8 8d ec bd 39 01 54 3d 64 68 be 3c c0 77 00 3e
       -0.11550468 0.05175898 0.023243137 0.12545681
000140 b5 c7 31 bd f6 ac a7 bd 64 c5 81 3d e3 04 45 bc
       -0.043403346 -0.081872866 0.063364774 -0.012025091
000150 66 04 71 3d 08 bb cc bb 09 82 2f 3d 30 1d fc bd
       0.058842085 -0.006247882 0.04284862 -0.123102546
000160 96 3a b0 bd a8 97 98 ba b6 02 f8 3c 7a 10 f9 3c
       -0.086049244 -0.0011641877 0.03027473 0.030403364
000170 10 35 cd 3d 18 ca 19 3e 78 00 04 be 55 b9 33 bd
       0.100198865 0.15018499 -0.12890804 -0.04387792
000180 65 8c eb 3d 41 5e 05 bc 79 cf a9 bd 94 f8 2c be
       0.115013875 -0.008140148 -0.082915254 -0.168917
000190 c5 70 3b be 50 3f 92 3d 95 b9 3e bd 68 79 f2 bd
       -0.18304737 0.07140982 -0.046563704 -0.11839563
0001a0 2b 14 d1 3c ee d8 c2 bd a5 ed 9f bd be 13 df bd
       0.025522312 -0.09514032 -0.07808999 -0.108924374
0001b0 d3 08 61 be 45 cf 23 be fe 57 34 3e db 2a 95 3c
       -0.21976022 -0.15997036 0.17611691 0.018208912
0001c0 e7 b9 5e 3c fb 29 0d be 42 3e 17 be 6e a1 89 bd
       0.013594127 -0.13785546 -0.14769843 -0.067202434
0001d0 47 c1 25 bc d3 ea 6c be 4e 3c e7 bd ef 1f 6c bd
       -0.010116882 -0.23136453 -0.11290799 -0.05764764
0001e0 b5 1b 03 3c 21 f7 ec bd 84 cc 6b 3d 70 02 e2 bd
       0.008002211 -0.115705736 0.05756809 -0.11035621
0001f0 85 aa 13 be 09 27 13 be 78 af 85 bd 5d 71 a3 bd
       -0.14420517 -0.1437036 -0.06527609 -0.07980607
000200 f6 ba d8 3d a6 76 1a 3d 30 8b 05 3e cb a1 dd bc
       0.10582535 0.03771081 0.13041377 -0.027054688
000210 8f c7 03 be 81 d4 dc 3d bc 14 b0 bc 0e a6 96 bd
       -0.12869094 0.107827194 -0.021494262 -0.07355891
000220 3c 66 0c be 88 e8 4b be a2 15 31 3d 46 55 8a bd
       -0.13710874 -0.19912922 0.04323352 -0.06754546
000230 e6 84 f2 3d 55 11 18 be c7 37 c3 3d 4c e8 8f bd
       0.118417546 -0.14850362 0.09532123 -0.07026729
000240 00 f9 ec bc ba b1 1a bc 33 4c 01 3e 65 f1 8f 3d
       -0.028927326 -0.009441787 0.12626724 0.07028464
000250 58 c5 a9 3d 84 d6 b5 bd ff 94 0e 3b 6c 0c 8a bd
       0.082895935 -0.08878806 0.002175629 -0.067406505
000260 db da d5 bd 4f 74 37 be 1d 1d df 3d b5 ac 1d be
       -0.10442134 -0.17915462 0.10894225 -0.15397914
000270 7c 5f 9e 3d 3d a1 7a 3d 1a 71 29 3d bb 9c c5 bd
       0.07733056 0.061188925 0.041367628 -0.096490346
000280 2b 9c 51 3e d8 36 6d 3d c4 16 55 bd 39 63 14 be
       0.2046973 0.05791363 -0.052023664 -0.14490975
000290 0d 67 a9 3d 47 39 a5 bd ba 6f 8d bd 8f 9d dc 3d
       0.082716085 -0.080675654 -0.06906076 0.107722394
0002a0 ed ec 46 3d a2 da 9d bd f0 bd c2 bd 43 4d 9b bd
       0.048565794 -0.077077165 -0.09508884 -0.07583096
0002b0 3b 93 94 3c c5 1a 31 bd eb 81 30 bd 91 dc 31 bd
       0.018136611 -0.04323842 -0.04309265 -0.04342324
0002c0 a3 87 2f be 7f 3d 76 3d 0c 02 0a 3e da aa 08 be
       -0.17141585 0.06011724 0.13477343 -0.13346425
0002d0 37 26 15 bc ed 87 8e 3d 50 9c 83 3d 94 b7 ec bd
       -0.009103349 0.069595195 0.064262986 -0.11558452
0002e0 30 af 35 3e ef 51 59 3d 76 a1 18 bb bc 06 05 bc
       0.1774261 0.053056654 -0.0023289598 -0.008119281
0002f0 0a 6e 46 bd f4 8a 09 bd 1c 13 b1 3c ce 82 56 bd
       -0.048444785 -0.03357978 0.021615557 -0.05237084
000300 00 43 0c 3e 1e 9c 4f 3e 29 4d 75 bd c3 bc 02 bc
       0.13697433 0.20274398 -0.05988804 -0.007979575
000310 bf 23 0a 3d dc b0 65 bd 66 64 44 3d 6e 77 99 3a
       0.033725496 -0.05607687 0.04794731 0.0011708566
000320 63 38 c9 bd 73 dd 3f bd db 90 c7 3d 31 02 05 3d
       -0.09825208 -0.04684205 0.09744426 0.032472793
000330 86 17 47 3d 4b 42 16 bd b9 4d fd bc fa d4 65 bd
       0.048606418 -0.036684316 -0.03092085 -0.056111313
000340 f3 96 55 bd e5 b4 f1 3d d5 b9 4a 3d eb 24 08 3d
       -0.05214591 0.11802081 0.04949363 0.033238333
000350 9e 11 85 bd 3a fe 86 bb f4 8d 0b 3d 1e 8b 55 3d
       -0.06497501 -0.0041196616 0.034070924 0.052134626
000360 cc 2b 82 3c b4 18 c1 b9 46 a1 94 3d e9 87 89 bc
       0.015890025 -0.00036830234 0.07257323 -0.01678844
000370 f9 17 6a bd c8 59 c2 3d 91 a2 16 bd f6 a9 f3 bc
       -0.05715177 0.09489781 -0.03677613 -0.02974413
000380 40 1b ac bd 2b 3b a2 3d 21 fc 5f 3d dc e6 c4 3c
       -0.08403635 0.07921442 0.05468381 0.024035864
000390 f5 43 ae bd fb f1 5a bd 9a ba e1 bd dd 57 0e 3d
       -0.085090555 -0.053453427 -0.110219195 0.03475176
0003a0 df 0b 92 3d 7f ca cd 3d b9 cb ab 3d 0f 5f f7 3c
       0.071311705 0.10048389 0.083884664 0.030196695
0003b0 23 ad 85 bc 14 51 47 bd 2c c8 f8 bd 36 c6 c4 bd
       -0.01631791 -0.048661307 -0.12147555 -0.09608118
0003c0 28 fa b1 3d 4d 30 c0 bd 4a 41 0c bb dd 2b 52 bd
       0.08690292 -0.09384213 -0.002140122 -0.051311363
0003d0 92 28 62 3c 25 5b 88 bd cb e6 43 be 66 66 33 3c
       0.013803618 -0.066580094 -0.1913101 0.010949707
0003e0 43 4c e6 bc 36 5d ab 3b ff fe 67 bd 73 1c 81 bd
       -0.028112536 0.0052296175 -0.056639668 -0.063042544
0003f0 b4 fa a9 bd e0 1b 07 bd 4f 39 30 bc 03 10 99 bd
       -0.08299771 -0.032985568 -0.010755851 -0.07473757

generator.0.bias f4 [128]
000000 94 5f e8 3e 9d 9f 0e 3f fb 10 fe 3e 69 83 7a 3f
       0.4538542 0.557123 0.4962233 0.97856766
000010 09 d7 d8 3e a7 f5 c4 3e 6e 47 e3 3e e1 22 17 3f
       0.4235156 0.38468668 0.44390434 0.59037596
000020 35 c5 b8 3e 8f 5d 1e 3f 09 e0 3c 3f 3f 73 0f 3f
       0.36087957 0.6186151 0.7377935 0.56035227
000030 9d 28 03 3f b5 0b f5 3e 30 07 c3 3e 5f 32 14 3f
       0.51233846 0.47860494 0.3809142 0.5788936
000040 97 ac 22 3f e3 f3 0e 3f f1 2d 0b 3f f4 32 21 3f
       0.635446 0.5584089 0.54366976 0.62968373
000050 8d 59 11 3f 04 36 e9 3e 28 c0 02 3f b8 62 97 3e
       0.5677727 0.45549023 0.5107446 0.29567504
000060 7a 12 a1 3e 71 ec 10 3f fc 16 d5 3e 30 f5 0c 3f
       0.3145941 0.5661078 0.41619098 0.55061626
000070 4f e9 44 3f e9 6f 28 3f 00 6e 24 3f 5f d3 38 3f
       0.769185 0.6579576 0.64230347 0.72197527
000080 fb 0a 2c 3f 8b a5 0a 3f 17 b1 f0 3e 98 31 cf 3e
       0.67204255 0.5415885 0.4701011 0.40467525
000090 3c 03 1b 3f 75 f8 0c 3f a1 d6 b8 3e e9 e4 1e 3f
       0.6055181 0.55066615 0.3610125 0.6206804
0000a0 fd 67 65 3e f0 f5 9c 3e ed 40 ef 3e 2c 5b 89 3e
       0.2240295 0.30656385 0.46729222 0.2682737
0000b0 f3 94 02 3f f1 bd bf 3e a6 cd ea 3e b5 a3 07 3f
       0.5100853 0.374496 0.45860022 0.5298417
0000c0 bd 84 0e 3f 1d 47 93 3e f5 33 0d 3f 7d 3b f3 3e
       0.5567129 0.28765193 0.55157405 0.47506323
0000d0 c4 75 26 3f 1e b1 d1 3e e1 d1 fd 3e 89 1d 16 3f
       0.65023446 0.40955442 0.49574187 0.5863882
0000e0 48 26 16 3f f5 85 05 3f 50 df c6 3e 66 bc f1 3e
       0.5865216 0.5215753 0.3884225 0.4721405
0000f0 50 80 1d 3f c7 50 09 3f 5e 86 45 3f 5e fe 43 3f
       0.61523914 0.5363888 0.77158153 0.7656001
000100 9b d6 0c 3f 55 58 08 3f 2e 7c 25 3f 2f b8 0d 3f
       0.5501496 0.53259784 0.6464261 0.55359167
000110 2d 1e 1e 3f c8 cd 22 3f 3e 41 2a 3f 25 19 c4 3e
       0.61764795 0.6359525 0.665058 0.38300434
000120 ed aa 30 3f fa a5 27 3f 73 a6 af 3e 7d e9 cc 3e
       0.6901081 0.65487635 0.34306678 0.40021887
000130 40 24 1b 3f f4 ba 02 3f 53 4b 1c 3f 54 22 03 3f
       0.6060219 0.5106652 0.61052436 0.51224256
000140 82 c0 1e 3f 03 2f 15 3f 6d 44 f6 3e c0 59 43 3f
       0.62012494 0.5827486 0.4809908 0.7630882
000150 94 0f ef 3e 63 a3 27 3f c3 59 41 3f eb aa 61 3f
       0.46691573 0.65483683 0.7552759 0.88151425
000160 cc 9e 0b 3f ce ac 1e 3f 28 1a 0b 3f 65 d8 03 3f
       0.5453918 0.6198243 0.54336786 0.51502067
000170 0f 0a b9 3e b4 48 e4 3e e4 d1 66 3f f7 d4 ef 3e
       0.36140487 0.44586718 0.9016402 0.46842167
000180 c8 cd b0 3e b2 1a 0a 3f 4c 43 05 3f 36 eb 0b 3f
       0.34532 0.53946984 0.5205581 0.5465578
000190 0e ac a8 3e 43 14 0e 3f 1d 33 11 3f d8 b6 06 3f
       0.32943767 0.55499667 0.5671862 0.5262275
0001a0 10 b4 b8 3e f1 a1 e5 3e 83 a4 24 3f 4a 6f 1c 3f
       0.36074877 0.44850114 0.64313525 0.61107314
0001b0 a3 4b f4 3e ea 56 36 3f a9 c3 3d 3f 64 a8 95 3f
       0.47713956 0.7122637 0.7412668 1.1692014
0001c0 ec 7f 2b 3f 3d c2 2e 3f 95 d3 2a 3f ab 77 57 3f
       0.6699207 0.68265134 0.667291 0.84166974
0001d0 13 55 ba 3e c8 af cf 3e bb 24 10 3f d4 d6 9f 3e
       0.3639303 0.40563798 0.56306046 0.31218588
0001e0 54 25 11 3f 68 dc 0f 3f 2f 86 58 3f 5a 27 d8 3e
       0.56697583 0.5619569 0.8457975 0.42217523
0001f0 93 b3 36 3f 85 9e 3c 3f 54 3d f5 3e 9c c0 0c 3f
       0.7136776 0.7367938 0.47898352 0.549814

generator.3.weight f4 [784, 128]
000000 71 1e 94 bd 76 fe 95 bd d5 3d 51 bd 12 ad aa bd
       -0.07232369 -0.07323925 -0.05108436 -0.08333792
000010 a6 f0 37 bd d1 93 e8 bd a2 65 92 bd be a7 51 bd
       -0.044907235 -0.11356319 -0.07148291 -0.051185362
000020 1e 07 cd bd 65 a3 3b bd f8 2d 83 bd 3b 30 5a bd
       -0.10011123 -0.045810122 -0.06405252 -0.053268652
000030 df 4d 33 bd 0d 8c ec bc 12 0e a4 3c 70 f6 1f bb
       -0.043775436 -0.028875375 0.02002624 -0.0024408363
000040 97 e6 63 bd 27 27 b4 bd 73 26 92 bd c5 56 3d be
       -0.05563983 -0.0879653 -0.0713624 -0.18490131
000050 76 6b a6 3c 3e 0b e2 bc b1 57 18 bc f2 6e 11 3d
       0.020314913 -0.027593251 -0.009298251 0.035506196
000060 73 29 86 bd bf 81 a1 bc 5f 69 88 3c ef 83 83 bc
       -0.065508746 -0.019715188 0.016651807 -0.016054122
000070 72 2b 94 bd 06 04 85 bd 0b b1 6e bd 4c 19 2d bd
       -0.07234849 -0.06494908 -0.05827431 -0.042260453
000080 2a 90 44 bd 4f 24 da 3b fb 2f 2c bd 56 a3 a9 bd
       -0.047989048 0.0066571604 -0.042037945 -0.08283107
000090 24 aa d4 bd 24 17 a0 bd 29 1f c6 bb 84 d1 18 bd
       -0.10384014 -0.07816914 -0.006046195 -0.037309185
0000a0 dc d2 0b bd 2c 0b 12 bb 6d 72 19 3c e4 6e 2d bb
       -0.034136638 -0.002228449 0.00936566 -0.00264638
0000b0 d8 a0 1f bc e2 c9 78 bd 6f 2f b7 bd f2 56 a4 bc
       -0.009742938 -0.060739405 -0.08944594 -0.02006099
0000c0 28 98 5c bd 06 94 09 3d 3e ed 43 bd 34 3f 37 3c
       -0.053856045 0.03358843 -0.047833674 0.011184502
0000d0 4c 30 f7 bd 8f 52 50 3b 29 06 d0 3b 93 a6 39 bd
       -0.12069759 0.003178749 0.0063483906 -0.045324873
0000e0 8c 42 87 bd be 2b 8b bc 7a d1 0c 3d 35 09 18 bc
       -0.0660449 -0.016988631 0.03437946 -0.009279539
0000f0 24 ff e5 bd d8 87 3d bd c8 98 84 bd db 7c 8f bd
       -0.11230305 -0.04627213 -0.06474453 -0.07006236
000100 2c 14 a2 bc f7 c6 c5 bd 23 42 08 bd a8 19 03 bd
       -0.01978501 -0.0965709 -0.033266198 -0.03200689
000110 b1 b0 2d bd 9c 80 44 bc 83 d9 bd bd 91 67 8d bd
       -0.042404834 -0.0119935535 -0.09270003 -0.06904519
000120 19 bc c3 bd b0 6d 32 bb fa b1 ac bd e7 95 1d bd
       -0.09557361 -0.0027226023 -0.08432384 -0.038473036
000130 55 3b e8 bb 1c 6a ab bd a1 49 db bd 1d 91 a2 bd
       -0.007087151 -0.08369848 -0.10707403 -0.079378344
000140 ad d6 93 bd 94 35 2b bd f9 82 0a bc 34 9e d2 bd
       -0.072186805 -0.041799143 -0.008454078 -0.10284081
000150 35 3c 5f bd 1a 01 dc 3c cc 61 14 be b9 a6 bd bd
       -0.054500777 0.026855994 -0.14490432 -0.092603154
000160 34 18 c0 3c 8b 8a a8 bd 09 67 74 bb 50 48 b2 bd
       0.023449041 -0.0822955 -0.003729286 -0.08705199
000170 d7 c8 0e bd fd 9e 4d bd 92 9d e5 bc 00 af 08 bc
       -0.034859505 -0.05020045 -0.028029237 -0.0083425045
000180 a5 f3 15 3d ac 72 85 bc 78 7e 91 bd e7 0c 45 bd
       0.03660931 -0.016290031 -0.071042 -0.048108008
000190 f7 d9 7c bd 19 29 31 bb f1 86 b3 bc a4 c7 ea bc
       -0.061731305 -0.0027032553 -0.021914931 -0.02865965
0001a0 df 1f c2 bd 90 64 de bd 51 28 c8 bb 8e 60 91 bd
       -0.09478735 -0.108590245 -0.0061083217 -0.070984945
0001b0 7f 6e 3e bd a8 8c a0 bd e7 07 45 bd 86 f3 04 bc
       -0.046492096 -0.07839328 -0.04810324 -0.008114701
0001c0 3b b2 88 bd 08 1b 81 bc 7a 13 d7 bd c0 02 82 bd
       -0.0667462 -0.01575996 -0.10501762 -0.06348181
0001d0 44 1f 85 bd 90 82 7f bd 70 1d 8e bc c3 10 30 be
       -0.06500104 -0.062380373 -0.017348021 -0.17193894
0001e0 c7 c5 19 bc 0d b8 7e 3d f8 cb 50 bc b0 a6 ac bd
       -0.009385533 0.062187243 -0.012743942 -0.084302306
0001f0 f8 71 df bd 25 a7 be bd 69 a1 97 3b 65 d0 84 bd
       -0.1091041 -0.09309224 0.004627396 -0.064850606
000200 8b 02 01 bd e3 ad e4 bd ce 5b 15 bd d1 37 d0 bd
       -0.031496566 -0.11165979 -0.036464505 -0.10166896
000210 04 05 0c bd 14 46 57 bd b0 97 ba bc 56 8d 1a bd
       -0.03418447 -0.052557066 -0.022777408 -0.037732445
000220 f2 62 f4 bd f2 e8 b5 bd f7 3e b1 bd f8 3c db bc
       -0.11932935 -0.088823214 -0.08654588 -0.02676247
000230 5e 2d 27 3d 9b d1 26 bd 82 8d e4 bd 54 62 42 bd
       0.04081475 -0.04072724 -0.11159803 -0.047457054
000240 9d b9 90 bd de d9 b2 bd 18 12 4a bd f7 4d 49 bd
       -0.07066653 -0.08732961 -0.04933366 -0.04914662
000250 cc f1 60 bc a3 c3 38 bd c0 e2 90 bd 98 82 e4 bd
       -0.013729524 -0.04510845 -0.07074499 -0.11157721
000260 41 8d d9 ba 8d 9d 23 bd 52 92 e6 3c f5 9b 23 bd
       -0.0016597883 -0.039945174 0.028145943 -0.039943654
000270 9b 35 4f bd 43 e9 ab bd 5d 79 8d bd 96 b9 99 bd
       -0.05058823 -0.083941005 -0.06907914 -0.07506101
000280 98 70 a3 bc 98 74 52 bd e2 5b 29 3c b2 b7 50 3d
       -0.01995115 -0.051380724 0.010336848 0.050956436
000290 d0 9f 8a bd 4c d3 34 3d d8 ff a9 bc 97 9d 43 bd
       -0.06768763 0.04414682 -0.020751879 -0.04775771
0002a0 42 e8 6a bc d4 e5 8b bd 83 35 d4 3c b3 fe 4c be
       -0.014337601 -0.068309456 0.025904423 -0.20019035
0002b0 ca 48 9b bd 16 e2 49 bd 56 b1 88 bd a0 3d 28 bd
       -0.07582243 -0.049287878 -0.06674449 -0.041074395
0002c0 06 0f 24 3d 42 d8 b9 bd 02 db 18 bc 7c 0c 68 bd
       0.04005339 -0.09074451 -0.009329559 -0.05665253
0002d0 5e 56 b8 bc 2b 04 a6 bd f2 3b f4 bc e6 0a 6d bd
       -0.02250212 -0.08106264 -0.02981374 -0.05787172
0002e0 9a 1f fe bc 44 54 16 bd 4e 5c a0 bc 2a af 63 bd
       -0.031020928 -0.036701456 -0.019575264 -0.05558697
0002f0 57 0a 08 be 26 62 b9 bd 23 17 69 bd 98 8c b4 bd
       -0.13285194 -0.090519235 -0.05690683 -0.08815879
000300 da 78 6b 3b de e6 bc ba 75 10 5d 3c 2c f1 19 bd
       0.0035930187 -0.0014412066 0.013492693 -0.037583515
000310 35 e9 86 bd 92 9f 21 3d 25 49 43 bd 23 d8 ad bd
       -0.065874495 0.03945882 -0.047677178 -0.084884904
000320 dc df 23 be 37 2e 47 3d 47 f1 2e bd 0b f3 85 bd
       -0.16003364 0.04862806 -0.04271057 -0.065404974
000330 b4 63 5d bd ea 32 8c 3c ae fe f5 3b 7d 65 e9 bd
       -0.054050162 0.017114121 0.007507167 -0.113963105
000340 37 2d 8b bd 2e 83 95 bd 7f 75 86 bc e4 ff 9e bd
       -0.067957334 -0.07300411 -0.016413448 -0.07763651
000350 20 f1 69 3c e4 fc 6d bd 76 f2 aa bc 39 4c f0 bc
       0.01427868 -0.058102503 -0.020867568 -0.02933322
000360 f0 30 8f 3d 04 a3 d3 bc cf a7 97 bd ae 53 04 bd
       0.06991756 -0.025834568 -0.07405054 -0.032306366
000370 3b af 26 bd 75 df c4 bd 59 a1 eb bc 6a 41 ff 3b
       -0.040694457 -0.096129335 -0.02876346 0.0077897804
000380 3c e2 35 3d a1 87 f4 bd eb c8 21 bd 63 b9 af bd
       0.044405207 -0.11939932 -0.03949825 -0.085802816
000390 d6 a1 1d bd 5f 6f 07 3d 1c 16 8f bc 6f 40 eb 3c
       -0.038484417 0.033065196 -0.017466597 0.028717248
0003a0 1a 2a df bc 45 70 44 bd 51 ed 56 bd 7c 75 15 bb
       -0.027241755 -0.04795863 -0.052472416 -0.0022805622
0003b0 ee 66 5e bd f6 bb e3 bc 0f 33 e1 bd 20 e5 6d bd
       -0.05429738 -0.027799588 -0.10996067 -0.05807984
0003c0 db c0 99 3c dc bf b0 bd 6b 5d 8e bd 36 84 10 bd
       0.018768718 -0.08630344 -0.06951412 -0.035282336
0003d0 10 90 8e bd 9f 99 01 bd 0c ca ff 3c 6b 1a 1d 3c
       -0.069610715 -0.031640645 0.031224273 0.009588818
0003e0 ec 96 ce 3d 62 a1 00 3d d2 ed 98 bd 25 a8 10 bd
       0.1008738 0.031403907 -0.074672356 -0.035316605
0003f0 4f 80 1b 3d cd 66 9e bd 8f 5e 6a bd 08 0e bf bd
       0.03796416 -0.077344514 -0.057219084 -0.09328848

generator.3.bias f4 [784]
000000 d9 c0 99 be 36 0b 5d be 0c f6 ab be 70 30 96 be
       -0.30029944 -0.21586308 -0.33586156 -0.2933383
000010 08 c4 e1 be d8 68 b5 be 0f 51 74 be 0c 5c bb be
       -0.44094872 -0.35431552 -0.23859046 -0.36593664
000020 20 a5 ad be f2 23 bd be 01 74 92 be 8f a4 82 be
       -0.33915043 -0.36941487 -0.2860413 -0.25516173
000030 38 86 97 be 99 d3 a1 be a4 96 4d be 7e 4e c5 be
       -0.29594588 -0.3160675 -0.20076996 -0.38536447
000040 ea 5a ec be 5d ae 81 be 97 25 96 be 3b 88 75 be
       -0.46163112 -0.2532834 -0.29325554 -0.23977749
000050 4e ee dd be 00 91 9c be 92 b1 64 be d0 e2 c0 be
       -0.43345875 -0.30579376 -0.22333363 -0.37673044
000060 97 dd db be 09 fc 89 be 6c 20 95 be 10 42 9a be
       -0.42942497 -0.269501 -0.29126298 -0.30128527
000070 1e 08 b6 be a8 0a 9e be 94 3b a3 be 25 92 b2 be
       -0.35553068 -0.30867505 -0.31881392 -0.34877124
000080 c6 77 c7 be 42 38 b7 be b6 38 be be 75 f8 91 be
       -0.38958567 -0.3578511 -0.37152642 -0.2850987
000090 4b 26 8b be 18 29 d1 be 6d c7 ac be 0a 96 a9 be
       -0.27177653 -0.40851665 -0.337459 -0.33122283
0000a0 47 57 86 be 00 72 84 be 0a f1 d4 be b5 5c d0 be
       -0.26238462 -0.25868225 -0.41590148 -0.4069573
0000b0 41 9c ae be b2 7a a6 be d2 76 c8 be f0 d8 6c be
       -0.34103587 -0.32515484 -0.39153153 -0.2312963
0000c0 ca 70 80 be 94 0b 89 be ad 2f 93 be 9a ee a8 be
       -0.2508605 -0.26766646 -0.2874731 -0.3299454
0000d0 01 d1 ac be c1 6f a1 be 9b c4 44 be 76 e9 b1 be
       -0.33753207 -0.31530574 -0.19215624 -0.3474843
0000e0 88 2d 8b be 4a b9 ee be 22 e4 93 be d9 c9 d4 be
       -0.27183175 -0.4662574 -0.2888499 -0.41560248
0000f0 ec c3 7d be ed 40 c2 be ed 3c a7 be 7d f3 8f be
       -0.2478177 -0.3794016 -0.3266367 -0.28115454
000100 ed a2 95 be 7c 14 93 be ef 47 86 be b6 0a bb be
       -0.29225865 -0.28726566 -0.26226756 -0.3653161
000110 0e 87 92 be 4a 50 b4 be 2e 64 7c be 55 ee cc be
       -0.28618664 -0.35217506 -0.2464759 -0.40025583
000120 b5 65 9f be 74 49 a1 be 32 66 d2 be 29 2c 63 be
       -0.31132284 -0.31501353 -0.41093594 -0.22184815
000130 5f fe 1f be 14 d3 a3 be e3 bb 91 be 81 b2 92 be
       -0.15624379 -0.31996977 -0.2846366 -0.28651813
000140 35 34 ba be 00 39 a1 be e0 39 b9 be d9 82 27 be
       -0.36367956 -0.314888 -0.36176968 -0.16358508
000150 fd 94 8d be ed 04 a4 be 50 89 d7 be 1b cf 9e be
       -0.27652732 -0.32035008 -0.4209695 -0.31017384
000160 49 ba 8b be 18 c7 9b be 6d b7 88 be b2 8e a5 be
       -0.27290562 -0.30425334 -0.26702443 -0.3233543
000170 ae b7 8b be ca 30 8e be 6f b0 4e be bd 8f aa be
       -0.27288574 -0.27771598 -0.20184492 -0.3331279
000180 e4 fc 2a be 45 5b a9 be 73 c3 9b be ca 89 79 be
       -0.16698033 -0.33077446 -0.30422553 -0.24368969
000190 0b 22 95 be cc fa 8e be a3 10 a0 be a6 c6 b3 be
       -0.29127535 -0.27925718 -0.31262693 -0.35112494
0001a0 b4 2b a5 be 0a ca c2 be e1 20 c5 be d6 73 99 be
       -0.32259905 -0.3804477 -0.38501647 -0.29971188
0001b0 8a 7d ab be 0b 78 a7 be 91 b3 93 be a2 5d db be
       -0.33494216 -0.32708773 -0.28847936 -0.42844874
0001c0 3b 14 c1 be 3d c7 87 be ce de 9c be e8 79 77 be
       -0.37710747 -0.26519194 -0.30638736 -0.24167597
0001d0 e3 0c a2 be 4b 62 93 be c4 78 88 be 13 cb 15 be
       -0.31650457 -0.2878593 -0.26654637 -0.14628248
0001e0 05 27 7e be 7b 65 9d be 12 40 ad be a4 8d 7c be
       -0.24819572 -0.30741486 -0.33837944 -0.24663407
0001f0 ba 14 82 be 2c 7e 65 be 99 b0 8e be e4 90 76 be
       -0.25406438 -0.22411412 -0.27869108 -0.24078709
000200 88 c1 8f be 83 cf 7e be 0e eb 93 be 2a 8b 7c be
       -0.2807734 -0.24883847 -0.2889027 -0.24662462
000210 32 04 91 be 1e 16 38 be 01 f4 af be d7 8d 6f be
       -0.28323513 -0.17977187 -0.34365848 -0.23393951
000220 73 b0 9e be 4f 54 c1 be b4 5a b2 be ef a7 a1 be
       -0.30993995 -0.37759635 -0.34834826 -0.31573436
000230 85 8d a0 be eb f0 a9 be 42 ba 8e be 32 f9 a2 be
       -0.3135797 -0.33191618 -0.27876478 -0.31830746
000240 04 5b b6 be 76 e4 29 be c7 03 83 be 07 ab 6a be
       -0.35616314 -0.16591057 -0.2558882 -0.22916804
000250 ab 06 85 be 0e 20 32 be 74 fa 77 be ea ec 2e be
       -0.2598165 -0.1739504 -0.24216634 -0.17082563
000260 89 ca 6f be f7 6d 30 be d4 f2 20 be 64 0f 1f be
       -0.23417105 -0.17229448 -0.15717632 -0.15533215
000270 e4 ec d8 bd 9e b8 e4 bd 84 91 04 be 37 8e 16 be
       -0.10592058 -0.111680254 -0.12946135 -0.14702688
000280 5a f5 2f be e4 5c 78 be 45 a8 6b be c5 12 8d be
       -0.17183438 -0.24254185 -0.23013408 -0.27553383
000290 31 90 a3 be ce 7b 45 be 70 00 4e be 40 64 7c be
       -0.31945947 -0.19285509 -0.20117354 -0.24647617
0002a0 5d 12 c3 be 29 aa 43 be 59 d4 b0 be c0 ca 7f be
       -0.38099948 -0.1910788 -0.34537008 -0.24979687
0002b0 30 97 8f be 97 bf b7 be 0f 7a 84 be d8 ea 60 be
       -0.28045034 -0.3588836 -0.25874373 -0.21964586
0002c0 6b 84 3f be 47 23 53 be 70 8e 23 be 9d e1 eb bd
       -0.18702857 -0.20618926 -0.15972304 -0.11517642
0002d0 82 3b d7 bd d0 f2 b8 bd c8 34 5e bc 94 26 00 3d
       -0.10509397 -0.09030688 -0.013562389 0.03128679
0002e0 49 16 d5 bd 73 5d a3 3c 22 20 e0 bd df c5 4b bd
       -0.10404641 0.019942021 -0.10943629 -0.04974925
0002f0 2f 73 2d be f9 2e 5e be d1 ed 7a be 55 af 7e be
       -0.1693847 -0.21697606 -0.24504782 -0.24871571
000300 64 48 b2 be df 3e 9a be da 77 af be c4 52 c8 be
       -0.34820855 -0.30126092 -0.34271127 -0.39125645
000310 eb 43 ce be a1 5e 8c be 36 ef b5 be 31 94 b0 be
       -0.40286192 -0.27415946 -0.35534066 -0.3448806
000320 ba 3d 8e be 72 47 b6 bd 8c 88 82 be 2a ee 4f be
       -0.2778147 -0.08900346 -0.25494802 -0.20305696
000330 f7 50 2b be 4a 0c 1f be 26 3a cd bd 32 cc e0 bd
       -0.16730104 -0.15532032 -0.100208566 -0.10976447
000340 32 af 3c bd f1 06 8e bc f1 0e ff bc ed 6f ae 3d
       -0.046065517 -0.017337294 -0.031135054 0.08517442
000350 27 fa 5e 3d 37 59 de 3d 9c 49 0a 3d 84 da c5 bd
       0.054437783 0.1085686 0.033761606 -0.09660819
000360 bb 7b d5 bc 9b 99 0f be 7c 7d 27 be c1 88 b4 be
       -0.026059976 -0.1402344 -0.16356462 -0.35260585
000370 fd 56 66 be bb 97 c1 be 79 92 a0 be da 06 9e be
       -0.22494121 -0.37811074 -0.3136175 -0.30864602
000380 80 92 bc be a6 c2 6b be 3f 40 95 be b3 3d bf be
       -0.3683052 -0.23023471 -0.29150578 -0.3735176
000390 c4 7c c7 be a1 9f 2f be 40 23 5b be 85 14 7b be
       -0.38962376 -0.17150737 -0.21400166 -0.24519546
0003a0 de 76 8c be 02 93 b7 bd fe 69 3d bd f5 eb 57 bd
       -0.27434438 -0.089635864 -0.04624366 -0.05271526
0003b0 5a 13 75 bc 17 74 bc 3c d2 20 0f 3d 8b 91 90 3c
       -0.014958227 0.023004575 0.03494341 0.017647525
0003c0 19 fb 16 3d fe 49 c2 3d ef d9 3b 3d ee 51 2b bd
       0.03686056 0.09486769 0.045862135 -0.04182618
0003d0 be 27 21 bd 7f 74 b1 bd 15 e1 82 be 11 32 ac be
       -0.03934454 -0.08664798 -0.2556235 -0.33631948
0003e0 06 5b ac be b0 7b 38 be 91 45 b2 be 26 08 9d be
       -0.33663195 -0.18015933 -0.348187 -0.3067028
0003f0 d0 1d 58 be c2 3b e7 be e3 d0 a3 be 7d bb 96 be
       -0.21105123 -0.4516278 -0.31995305 -0.29439917

discriminator.1.weight f4 [128, 784]
000000 17 f0 76 3c 41 23 65 3c a7 32 8e bc ba a0 1a 3c
       0.01507189 0.013985456 -0.017358137 0.009437734
000010 05 cb 00 3c 36 4b 0c 3d f8 ed 38 bc 6b 50 12 bd
       0.007860904 0.034251414 -0.011287205 -0.035721224
000020 b1 31 a4 bc 45 b6 81 bc de c0 d2 3c b4 57 de 3c
       -0.020043226 -0.015833983 0.025726732 0.02714143
000030 1d 70 a8 3c 10 18 c3 3c 37 9e d6 3b ff 63 68 3b
       0.020561272 0.023815185 0.0065496224 0.0035459993
000040 74 dc 84 bc fd 22 01 3c 3f 37 65 3c a6 a5 36 3c
       -0.016218401 0.007881877 0.0139902225 0.011147892
000050 de 69 02 3d b6 18 f3 3c ec f2 10 3b a3 80 8b 3b
       0.031839244 0.029674869 0.002211745 0.004257278
000060 e6 e4 7f 3d 0c 31 21 3d e1 d6 d5 3c de de 26 3c
       0.062474154 0.039353415 0.026103439 0.010184972
000070 9c 4d 88 bc c1 2c 12 3c 51 32 1e 3c ab 61 83 bb
       -0.01663857 0.008921803 0.009655551 -0.0040094457
000080 1f da cc 3c bf 4f 33 3c c4 5b 0e bc 50 72 ad 3b
       0.025006352 0.010944306 -0.008688871 0.005293168
000090 0e 5c 18 3d d9 51 64 3c 86 03 7c 3c 87 6d 03 3d
       0.037197165 0.01393553 0.015381699 0.032086875
0000a0 5d 31 ee b9 1f 32 f3 bc 18 d5 31 3c 48 6f ca 3c
       -0.00045431676 -0.029686986 0.010854028 0.024711266
0000b0 4c 38 da 3b 44 ad 80 bc 78 60 c7 3c fc 4d e5 3c
       0.006659543 -0.01570762 0.024337992 0.027991287
0000c0 6c 8c 3d 3c a4 b9 13 3c 46 5a 1e bc a7 f7 bf bc
       0.011569124 0.009016428 -0.009665078 -0.02343352
0000d0 d3 0a b0 3b 3e 14 06 3d 0f 35 83 bc 94 a0 6e 3c
       0.005372384 0.03273415 -0.016016511 0.014564652
0000e0 9d 68 a9 bc 53 5b cd 3c e6 50 2c 3c ff 8c 07 3c
       -0.020679766 0.02506796 0.010517335 0.008273362
0000f0 50 3f 86 bc 12 43 c2 3b fd 35 a4 3c 24 11 be 3c
       -0.016387612 0.0059284056 0.020045275 0.023201533
000100 9c b5 a6 3b 95 8c 41 3c 93 c7 4a 3c 8e 0d 05 3d
       0.0050875675 0.0118133025 0.012376684 0.03248363
000110 7a 11 db 3c 59 78 21 3b 70 b7 e6 bc 95 c2 d5 3a
       0.026741732 0.0024638383 -0.028163642 0.00163086
000120 bb 97 41 3b fe 73 91 bc 44 0e 08 bc 4a b9 8c bb
       0.0029539901 -0.017755505 -0.008304182 -0.004294549
000130 ce f2 19 3d 95 75 e2 3c 74 69 ce bc 6b e5 01 3d
       0.037585072 0.027643958 -0.025196768 0.03171293
000140 45 c1 18 bc a3 84 e0 3b 69 c1 2c bc 7f 4c 52 bc
       -0.009323423 0.006851749 -0.010544159 -0.012835621
000150 05 29 bb bc 86 22 aa 3c eb 07 2d 3b 28 ab cf 3c
       -0.022846708 0.020768415 0.0026402425 0.025350168
000160 60 63 c1 bc c0 20 51 bc 87 02 1f 3c 33 1d c9 ba
       -0.023606956 -0.012764156 0.009705192 -0.0015343785
000170 73 58 93 3c 98 81 68 3d 71 96 b8 3b e9 24 34 3d
       0.017986512 0.056764215 0.0056331684 0.043980513
000180 45 f6 57 3d 7b 0c b2 bc 49 50 0e bc 94 9f 50 bd
       0.052725095 -0.021734467 -0.008686134 -0.050933436
000190 37 0a 0f bd 6a 7b 77 bd c9 8e ba bc 9a 0c 45 bb
       -0.03492185 -0.06042043 -0.022773163 -0.0030067326
0001a0 19 81 a0 bc b4 fb ce 3b e9 a1 4a bb 8e dc ca 3c
       -0.019592809 0.0063166264 -0.003091926 0.024763372
0001b0 df 4b a8 3c 07 9e 0b 3d e7 16 12 3d 01 3b 8a 3b
       0.02054399 0.034086253 0.035666373 0.0042184596
0001c0 9a 7c 25 3a f7 d4 c9 3c 68 54 c0 3b 11 6d 24 3c
       0.00063128176 0.024637682 0.005869437 0.010035769
0001d0 ca d4 27 3c 38 36 e3 3b d9 fb b9 3c 75 7a 9e 3b
       0.010243604 0.0069339536 0.022703098 0.0048363754
0001e0 91 ad 37 3d 29 a9 d0 3c 7c f0 ac 3c c2 b6 15 3c
       0.04484326 0.025471287 0.021110766 0.009137811
0001f0 ef 57 d8 bc bc 19 11 bd e8 6d c1 bd 45 74 78 bd
       -0.026409118 -0.035424933 -0.09444791 -0.06065776
000200 85 dd 4c bd f8 aa cf bc d9 64 56 bc 9f db 88 3c
       -0.050015945 -0.025350079 -0.013085567 0.016706286
000210 1a fb 71 bb 8e df 4c 3d 63 0a c2 3c 29 ff 42 3d
       -0.003692335 0.050017886 0.023686593 0.04760662
000220 21 96 e1 3c 30 36 8d bb 11 d1 fb 3b fe 6a 4c bc
       0.027537407 -0.004309438 0.0076848348 -0.012476681
000230 5c e8 ad ba 1c 28 54 3c 15 57 90 3b 25 a1 48 3c
       -0.0013268101 0.012949016 0.0044049122 0.012245451
000240 94 8f 34 3d 05 1a 05 3d 06 28 78 3c 69 c1 1f 3d
       0.04408224 0.032495517 0.015146261 0.03900281
000250 93 7d dd 3c 44 89 36 3d 59 3e 9b 3b 9c c3 ac bb
       0.027037418 0.0445645 0.004737657 -0.005272342
000260 3e eb 89 bd 98 59 9f bd 42 90 92 bd 39 6a f4 bd
       -0.06734322 -0.077807605 -0.07156421 -0.11934323
000270 a6 8f 96 bd 9c bd 1f bd af 26 e4 bb cd fc 18 3d
       -0.073516175 -0.038999185 -0.0069626193 0.037350465
000280 8a cd 81 3b 02 66 11 bc 1e 63 36 3c 6d ef 66 3c
       0.0039612697 -0.008874418 0.01113203 0.0140951695
000290 30 e4 32 bc ea d4 7b 3b 7b 19 ce 3c 49 e3 8c ba
       -0.010918662 0.0038426467 0.025158634 -0.0010748889
0002a0 9e 9e 93 3b 80 30 37 bb 3e fc 2d 3d 4a 01 10 bc
       0.0045049926 -0.0027952492 0.042476885 -0.00878937
0002b0 05 23 b9 3c a7 13 5e 3c ac bd 8b 3c d2 9b 30 3d
       0.022599706 0.01355449 0.017058216 0.04311735
0002c0 a6 f6 14 3c 12 f1 2c bb 48 ed e4 bc 71 be 37 bd
       0.009092009 -0.0026388806 -0.027945176 -0.044859353
0002d0 93 25 a6 bc 53 da 54 bd a3 0d a1 bd 21 bd c6 bd
       -0.020281589 -0.051966023 -0.07863929 -0.09704042
0002e0 71 30 f0 bc fa 24 c4 3c be 92 17 3d 0a ab 13 3d
       -0.029319974 0.023943413 0.03700518 0.036051787
0002f0 4c 41 bd 3b 7b 91 21 bc 51 a4 a3 bb bc 44 ba 3c
       0.0057756063 -0.009861345 -0.0049939533 0.022737853
000300 9a f2 c7 3b 60 aa bb 3c f4 2c 22 3c 61 11 d6 3c
       0.0061019184 0.02290839 0.009898413 0.026131334
000310 b9 60 db 3b 53 70 d1 3a 31 e3 7f bc 38 f8 d9 3c
       0.00669488 0.001597891 -0.0156181315 0.026607618
000320 70 23 8a bb db dd 81 bb 4d 63 06 3c 59 15 6e 3d
       -0.0042156503 -0.003963215 0.008202386 0.058125827
000330 f5 b0 68 3d 33 92 04 3d b3 67 89 3b db 6f 4b 3b
       0.056809384 0.03236599 0.00419327 0.0031042013
000340 36 12 81 bc db b0 b7 bc e7 a8 d1 bc 36 9a a9 bd
       -0.015755754 -0.022423198 -0.025593234 -0.082813665
000350 6e b4 1a bc ee 4b e4 3c e4 b7 0e 3d 0c 42 59 3d
       -0.009442432 0.027868237 0.03484334 0.053041503
000360 9c 47 14 3d f4 e5 b9 3c 25 91 0b 3d d2 95 80 3a
       0.036201105 0.022692658 0.034073967 0.0009810275
000370 15 b8 82 3a a4 6c 93 3a 2e 6e 55 bc 66 3e c5 3c
       0.0009973074 0.0011247587 -0.013026757 0.024077605
000380 99 13 99 3c d0 5c 6c 3c a0 ec 23 3a 69 80 12 3c
       0.018686103 0.014426425 0.00062532164 0.008941748
000390 a3 5c 95 3c c2 45 97 3b 19 a5 36 3d 44 2c 83 3d
       0.01823265 0.00461647 0.044591043 0.064049274
0003a0 e4 71 3e 3d 74 2d 91 3d f7 03 42 3d 32 34 3e 3d
       0.046495333 0.070887476 0.047367062 0.046436496
0003b0 87 2e 7f 3d 24 a4 5f 3c 12 06 e7 bb 65 1e 10 3d
       0.06230023 0.013649974 -0.007050284 0.035185236
0003c0 e4 e6 e9 3b 4f 8f a2 bb 45 22 3f bc 44 a3 ad 3c
       0.00713812 -0.0049609314 -0.011665885 0.021196015
0003d0 17 35 79 bc 81 07 f8 3c 9a 9b f8 3c aa 29 04 bc
       -0.0152104115 0.030277016 0.030347634 -0.008066574
0003e0 e6 98 91 bc 68 a2 12 bb ae 61 6b 3c 1a 19 c3 bb
       -0.017773103 -0.0022374634 0.01436655 -0.00595392
0003f0 89 43 1f bc 8b 7a 0e 3b 13 af e0 bb d7 31 75 3c
       -0.0097206915 0.0021740522 -0.006856808 0.014965496

discriminator.1.bias f4 [128]
000000 57 f6 e9 be 4b 70 19 3f 26 bf f5 be 0c e6 e0 3e
       -0.45695755 0.5993697 -0.47997397 0.43925512
000010 5c fc ec 3e df cf ee be 7f af 13 3f 81 3f e5 be
       0.46286285 -0.46642968 0.5768966 -0.44775012
000020 ba 42 e6 be 88 79 d7 be 1e 04 11 bf f8 60 ed 3e
       -0.44972783 -0.42084908 -0.5664691 0.46363044
000030 61 4f 07 3f b9 18 fe 3e c7 ce f9 be 7b c2 c1 3e
       0.528555 0.49628237 -0.4879057 0.3784369
000040 9f cf bf be 3d 50 d2 be fb 33 1d 3f cc f1 aa 3e
       -0.3746309 -0.41076842 0.6140744 0.333876
000050 4d cc d9 be a9 05 f9 3e 7c 87 1a 3f f1 bd f8 3e
       -0.42538682 0.4863713 0.6036298 0.48582414
000060 da 90 f5 be c6 5f 0e 3f 8f a6 0c 3f 6d b7 de 3e
       -0.47962075 0.5561489 0.5494165 0.43499318
000070 07 aa 06 3f b4 65 c9 be 26 3b e7 be 5e 73 ef be
       0.5260319 -0.39335406 -0.45162314 -0.46767706
000080 67 a2 d0 be ff 2f 1a 3f bd 63 ed 3e 18 a4 b6 be
       -0.40748903 0.60229486 0.46365157 -0.3567207
000090 f3 a2 02 bf e5 dd b8 be 7c d3 00 bf 42 05 e7 be
       -0.5102989 -0.36106792 -0.503227 -0.451212
0000a0 a7 49 e1 be cc 3d c7 be 61 24 0b 3f 8f 61 bc be
       -0.44001505 -0.38914335 0.54352385 -0.3679318
0000b0 af 5d e4 be 2e 41 ed 3e f7 22 d6 be 6d 2b d6 be
       -0.44602725 0.4633879 -0.4182355 -0.41830006
0000c0 e8 8d c6 3e 16 8d 07 3f 64 43 f0 3e d4 0f 03 3f
       0.3878014 0.52949655 0.46926415 0.51196027
0000d0 11 32 18 bf 95 12 fe 3e 26 6d 0f 3f e8 3e fa be
       -0.59451395 0.49623552 0.5602592 -0.4887612
0000e0 2d 27 02 bf 68 de 07 3f c0 e1 3e 3f 8b 1f f6 3e
       -0.5084103 0.5307374 0.7456322 0.4807094
0000f0 80 2c e0 be 02 13 07 bf bc 55 0c 3f 54 85 ce be
       -0.4378395 -0.5276338 0.5481832 -0.40336096
000100 e2 32 f7 be 2e 03 ea be 0d 86 e7 3e 91 dd 08 3f
       -0.48281008 -0.4570555 0.4521946 0.53463084
000110 11 ad 12 3f c4 9b b3 be ef 43 e0 3e 96 8d 0c 3f
       0.5729533 -0.35079777 0.4380183 0.54903543
000120 06 5f af be b0 07 03 3f 68 b4 ee 3e 35 fd f3 3e
       -0.34252185 0.51183605 0.46622014 0.4765412
000130 e2 d1 01 bf 88 23 14 3f f5 6d 09 3f 3e 39 e5 be
       -0.5071088 0.57866716 0.53683406 -0.44770235
000140 37 8b f9 3e dd 37 16 3f 1a 24 e5 be f5 42 ef 3e
       0.48739025 0.5867899 -0.44754106 0.46730772
000150 da 8a e1 be 1f 0d fe 3e 22 2a df be 4e 1a 15 3f
       -0.44051248 0.49619386 -0.43586832 0.5824326
000160 bb 20 da be 07 30 23 3f b3 99 b1 be 78 e5 fa 3e
       -0.42603096 0.6374516 -0.34687576 0.49003196
000170 ec 29 cd be d1 8b c9 be fe 9f e0 3e a9 40 1b bf
       -0.40071046 -0.39364484 0.43872064 -0.6064554
000180 8f f6 03 3f de b4 0f 3f da f3 f7 be 0d 03 18 3f
       0.51548094 0.56135356 -0.4842823 0.59379655
000190 c7 50 f4 3e e2 7f ce be da ea 03 3f 73 35 83 bd
       0.47717878 -0.40331942 0.5153023 -0.06406679
0001a0 3e e5 0a 3f 04 33 f6 3e 48 ca 14 3f 21 47 e2 3e
       0.54256046 0.48085797 0.58121157 0.44194892
0001b0 5c 89 02 bf b6 5d e4 be 73 72 05 3f 91 3d ee 3e
       -0.50990844 -0.44602746 0.5212776 0.46531346
0001c0 77 46 05 3f 7e e7 f5 3e ad ca e5 be 3c 25 e7 be
       0.52060646 0.48028177 -0.44881192 -0.45145595
0001d0 9a e3 01 bf 40 ae ff 3e 3c 51 dc 3e c8 34 01 bf
       -0.5073792 0.4993763 0.43030727 -0.5047116
0001e0 81 35 f3 be ec 40 dd be d9 5e cc be bf 92 df be
       -0.47501758 -0.43213594 -0.39916113 -0.43666646
0001f0 ba 76 c8 be 97 41 16 3f 49 9e e7 be d8 eb 00 3f
       -0.3915308 0.5869383 -0.4523795 0.5035987

discriminator.4.weight f4 [1, 128]
000000 90 21 c9 3c 9a df 2c be ab 31 7b 3d 53 28 fb bd
       0.024552137 -0.16882172 0.061326664 -0.122635506
000010 a1 2c 53 be 35 73 76 3d 83 9e 33 be 31 24 62 3d
       -0.20622493 0.060168464 -0.17540936 0.055210296
000020 a6 0f b4 3d cd bb 54 3d aa 27 47 3d 33 d2 30 be
       0.08792047 0.051936913 0.04862181 -0.17267685
000030 2b e2 2f be 1a 2d 39 be 52 3a 54 3d 0c c6 14 be
       -0.1717612 -0.18083611 0.05181343 -0.14528674
000040 c2 f2 7e 3d f1 57 64 3d 5b e0 5f be ba 6a 3c be
       0.06224323 0.05574793 -0.21862929 -0.18400088
000050 3b e6 8a 3d 5f 5a 20 be aa 69 3e be a2 32 10 be
       0.06782194 -0.15659474 -0.18594995 -0.14081815
000060 00 d3 74 3d c6 11 1e be 5e 9f 2f be 41 e8 30 be
       0.059771538 -0.15436468 -0.17150638 -0.17276098
000070 45 d7 07 be 7b e9 4b 3d 6d 9b 7c 3d 7c ea 82 3d
       -0.13265713 0.04978321 0.061671663 0.063923806
000080 de dd 6f 3d fe 95 5c be b0 17 29 be 5f de 9d 3d
       0.0585612 -0.21541592 -0.16512942 0.077084295
000090 94 2b 8b 3d cf 52 4a 3d 38 a9 87 3d bf 89 14 3d
       0.06795421 0.04939538 0.06624073 0.036264177
0000a0 e0 e6 85 3d 3d 70 89 3d 51 c3 30 be a3 41 a0 3d
       0.065381765 0.06710861 -0.17262007 0.07825019
0000b0 1e 78 b1 3d 3d f1 28 be 0d 51 9b 3d 14 62 68 3d
       0.08665489 -0.16498275 0.075838186 0.05673416
0000c0 ff 31 e3 bd d5 25 3c be 8e 15 2b be a0 7b 24 be
       -0.110935204 -0.18373807 -0.16707441 -0.16062784
0000d0 99 f1 11 3d 49 9f 44 be 20 08 36 be 2c ad 8c 3d
       0.035630796 -0.19201387 -0.17776537 0.068689674
0000e0 d2 c0 62 3d 43 0d 4c be 29 61 b5 bd a7 a2 1a be
       0.05535967 -0.19926934 -0.088564225 -0.1510111
0000f0 81 57 37 3d 7b 58 21 3d 60 7c 17 be e9 c4 7d 3d
       0.044761185 0.039391022 -0.14793539 0.061955366
000100 d9 7c 6e 3d 9c 8a 44 3d 3e c9 1d be da 5c 0b be
       0.058224533 0.04798375 -0.15408799 -0.13609639
000110 ef f4 6e be fd 00 ac 3d 13 c5 02 be b3 7a 49 be
       -0.23335622 0.08398626 -0.1277049 -0.19675712
000120 16 3f 60 3d 6d 67 29 be cf 0d 03 be 76 23 38 be
       0.054747663 -0.1654336 -0.12798236 -0.17982277
000130 83 b3 42 3d cb 70 19 be f3 f8 08 be a5 cd 55 3d
       0.047534477 -0.14984433 -0.13376217 0.05219807
000140 2a 1e 36 be 0b 1e 43 be ab a8 11 3d 98 d6 2f be
       -0.17784944 -0.19054429 0.035561245 -0.17171705
000150 72 32 90 3d 78 64 38 be fc 3b 9d 3d 98 ab 30 be
       0.07040872 -0.18007076 0.07677457 -0.17252958
000160 b1 c1 73 3d 90 ed 34 be 84 4e 50 3d c5 dc 2d be
       0.05951089 -0.17668748 0.05085613 -0.16978748
000170 3d 24 02 3d d0 77 69 3d 21 7f 0f be a3 84 d9 3c
       0.03177284 0.056999028 -0.1401334 0.026552504
000180 20 ea 2a be 3c b9 5f be 90 e7 b2 3d 1c 72 6b be
       -0.16690874 -0.21848005 0.08735573 -0.22992748
000190 9f 44 1e be 47 ec 8a 3d 69 1e 3f be 5e db 12 be
       -0.15455864 0.067833476 -0.18663944 -0.14341494
0001a0 8b 24 12 be cf 9a 34 be d2 d1 3c be 65 53 13 be
       -0.14271753 -0.1763718 -0.18439415 -0.14387281
0001b0 75 68 fa 3c e4 e7 5b 3d fb 56 16 be 91 df 3e be
       0.030567387 0.053687945 -0.14681618 -0.18639971
0001c0 5c ae 1a be 2f b8 2d be 61 02 81 3d d4 e0 96 3d
       -0.15105575 -0.16964792 0.06299282 0.07367101
0001d0 84 d4 66 3d 95 ac 1e be cc 1c 0d be d7 b2 6f 3d
       0.056355014 -0.15495522 -0.13780516 0.058520164
0001e0 e4 42 7f 3d 4c 2a 40 3d 9f 9d 41 3d b8 ff ae 3d
       0.06231965 0.046915337 0.04726946 0.08544868
0001f0 95 77 df 3c 1c ab 36 be 78 37 51 3d d1 dd 2d be
       0.0272787 -0.1783871 0.05107829 -0.16979147
