homework-week-12/gan_mnist_dr0.5_adamFalse_lrg0.0002_lrd0.0002.pt (torch, 863265 bytes, 7 tensors)

generator.0.weight f4 [128, 100]
000000 06 31 9d 3d ab ab aa 3d d8 99 c6 bc 95 66 bf 3d
       0.07675366 0.08333524 -0.02424328 0.09345738
000010 bd f9 af bc 9e be a8 3c 32 b1 46 bd 90 81 6f 3d
       -0.02148139 0.020598706 -0.04850883 0.05847317
000020 a2 ba b6 3d 85 52 96 bd 2b aa b2 3d 69 b3 9f 3c
       0.08922316 -0.07339958 0.08723863 0.01949473
000030 e8 9d 98 3d f1 97 4f 3c 7c 8e 46 3d 8d 2a 68 bc
       0.07451993 0.012670503 0.048475727 -0.014170301
000040 20 3e 9d 3d 91 8c 75 3c 18 d7 3f bd 65 96 ce 3c
       0.07677865 0.014987127 -0.04683599 0.025218198
000050 c0 c8 39 bd d2 1b 3c bc 53 d3 29 bd 2a 0f 87 3d
       -0.045357466 -0.011481242 -0.0414613 0.06594689
000060 1b 98 a3 bd 7d bd 3f bd f5 90 eb bc 06 0a 74 bd
       -0.07987996 -0.04681157 -0.028755644 -0.05957987
000070 69 cf 1f 3c e3 58 cc bd b8 bb ba 3d 57 70 b1 bd
       0.00975404 -0.09977891 0.09117836 -0.08664005
000080 ae fa 9f 3d 3f 36 8d 3c 28 a5 08 bd ff 54 80 3d
       0.07811485 0.01723778 -0.03336063 0.06266212
000090 0c 58 7e 3c 49 b1 a7 3d 58 31 3e 3c ba 13 04 bd
       0.015523922 0.08188111 0.011608444 -0.032245375
0000a0 f4 9d d8 3c 0e 9e dc bc b5 43 2f 3d c4 dc b8 3d
       0.026442505 -0.026930835 0.04278918 0.09026483
0000b0 39 ba 6f 3d 32 b0 36 bd 9f 47 71 3d 4f 15 9b 3c
       0.058527205 -0.044601627 0.058906194 0.01893106
0000c0 47 bc 52 3d 12 a5 7f bd 67 a9 cb bd 8d 5a 22 bd
       0.051449087 -0.062413283 -0.0994442 -0.039637137
0000d0 85 9c a1 bd 2b cd a9 3d a0 51 eb 3c b8 08 2a 3d
       -0.07891182 0.08291086 0.028725445 0.04151222
0000e0 86 b2 03 3d 03 6b 02 bb 03 74 a2 3d 05 d0 93 bd
       0.032152675 -0.001990021 0.07932284 -0.07217411
0000f0 57 f9 b8 3b 9f ac 8c bd 3e 22 02 3d e2 40 11 bd
       0.005644958 -0.06868862 0.031770937 -0.035462268
000100 67 76 f7 3c 45 04 a8 bc ee 10 ac 3d 5d 50 74 bd
       0.030207826 -0.020509848 0.084016666 -0.059646953
000110 3b a3 75 bd e7 3a 75 bd f4 31 b8 3d a9 d4 0c 3d
       -0.05997012 -0.059870627 0.08993903 0.034382496
000120 ce 27 c6 3d e8 72 a9 bd 57 7e cd bd 15 9e a0 bd
       0.09675561 -0.0827387 -0.10033863 -0.07842652
000130 53 48 8b bd dc 4d 25 3d d2 51 11 3d 71 16 ad 3d
       -0.06800904 0.040357456 0.03547842 0.08451546
000140 a8 22 55 bd db 37 8a bd d3 fc 59 3d 7c e9 26 bd
       -0.052035004 -0.06748935 0.053219628 -0.04075001
000150 87 b0 7c 3d 62 1d be bc 8b 35 6b 3d 99 ff a1 bd
       0.061691787 -0.02320737 0.05742411 -0.079100795
000160 14 20 51 bd 9b d3 fb 3c 3d 42 ad 3c 00 a9 cd bc
       -0.051055983 0.03074055 0.021149749 -0.025105
000170 4d 10 77 3d df 62 8b 3d b2 91 98 bd c9 37 5d bd
       0.06031828 0.068059675 -0.07449664 -0.05400828
000180 5d 38 bc 3d 06 13 0e bd 0b 54 15 bd 6a 46 c8 bd
       0.09190438 -0.03468611 -0.036457103 -0.097790554
000190 46 52 6b bd 8e f8 cb 3c 4f e7 69 bc da fb 95 bd
       -0.05745151 0.024898794 -0.01427634 -0.073234275
0001a0 c5 81 16 3b 71 b2 8d bd 20 24 ad bd 77 a9 66 bd
       0.0022965532 -0.069188006 -0.08454156 -0.056313958
0001b0 4b ff b4 bd 44 c6 80 bd fc 18 cc 3d 70 59 a1 3c
       -0.08837756 -0.06287816 0.09965703 0.019695967
0001c0 68 f9 00 3d 2c e0 c0 bd b8 4b 87 bd a2 23 07 bd
       0.031487852 -0.094177574 -0.06606239 -0.032992966
0001d0 74 53 6f 3c 8b 04 b5 bd a4 dc 2e bd b1 16 78 bd
       0.014607299 -0.08838757 -0.042690888 -0.060568515
0001e0 df 1b cb b9 ef 6b 1c bd 78 2d ba bb 6b 5d 8b bd
       -0.00038739943 -0.03818887 -0.00568169 -0.068049274
0001f0 58 29 8f bd ab bb 71 bd 27 7c 10 bd 9d 1f a1 bd
       -0.069903076 -0.059016865 -0.03527465 -0.07867358
000200 6d 12 ad 3d b3 b5 9d bc 7d a0 b2 3d 3a 56 02 3d
       0.0845078 -0.01925168 0.08722017 0.031820513
000210 f7 ec ae bd 07 02 8e 3d ad 32 db bc 12 15 20 bd
       -0.08541291 0.069339804 -0.026757563 -0.039082594
000220 7d 1e ad bd 04 e4 cc bd 1e 14 ee 3c 46 e8 af bc
       -0.08453081 -0.10004428 0.029062327 -0.021473061
000230 db 38 21 3d 64 31 a7 bd 81 e3 99 3d 5d f6 98 bd
       0.039360862 -0.081637174 0.07514096 -0.07468865
000240 3c 67 91 bc e1 7c ae 3c 41 df 54 3d 00 d5 a5 3d
       -0.017749421 0.021299781 0.051970724 0.08097267
000250 d0 c5 b7 3d 3f a4 a4 bd c2 97 c9 3c 87 f7 2c bd
       0.089732766 -0.0803914 0.024608497 -0.042228248
000260 4c 8c 3c bc 6e 2e 9a bd 16 b6 ba 3d 87 99 97 bd
       -0.011508059 -0.07528387 0.091167614 -0.0740233
000270 ac 84 60 3d 00 13 10 3d b6 81 08 3d d4 07 5c bd
       0.054814026 0.03517437 0.033326827 -0.053718403
000280 de 37 bb 3d 51 e9 ba 3c 73 f1 4b 3c 3a a1 b4 bd
       0.09141515 0.022816332 0.012447703 -0.08819814
000290 06 c0 2b 3d eb 42 67 bc da 8b 36 bd 6b 7f b1 3d
       0.041931175 -0.014115076 -0.044566967 0.08666881
0002a0 9b 38 b5 3c 5d bd 62 bd c6 0a 54 bd a3 63 a9 bb
       0.022121718 -0.055356372 -0.051768087 -0.0051693483
0002b0 03 09 67 3d 3a a6 d8 bc 01 4b 6f bd 62 62 10 bd
       0.05640508 -0.02644645 -0.05842114 -0.035250075
0002c0 e5 e7 99 bd 6c 4b 12 3d 0a 91 a1 3d ee 30 c4 bd
       -0.075149335 0.03571646 0.07888992 -0.09579645
0002d0 48 f8 c3 3c 29 0b 56 3d 53 b8 95 3c 0d 73 10 bd
       0.0239221 0.052256737 0.01827637 -0.03526597
0002e0 fd a2 54 3d be d4 54 3d bf 48 17 3d 32 6f 94 bc
       0.05191325 0.0519607 0.03693461 -0.018119428
0002f0 71 6c da bc 3e 5e 4c 3c 27 7d 9b bc c7 64 f9 bc
       -0.026663037 0.012473641 -0.018980576 -0.030443562
000300 d5 e0 84 3d e0 79 af 3d fe e0 21 bc 3e 7d ba bc
       0.06488196 0.08568168 -0.0098803025 -0.022764798
000310 ed cb e4 3a 20 31 c6 bb e1 10 c6 3c 1a 38 ef 3c
       0.0017455794 -0.0060483366 0.02417797 0.029201556
000320 75 cd b7 bd 54 31 19 bd d3 63 a8 3d ed 39 20 3d
       -0.08974735 -0.03740056 0.08222165 0.039117742
000330 44 f0 86 bb 85 90 72 bd a2 13 78 bd fb 4b b6 bd
       -0.0041179974 -0.059219856 -0.0605656 -0.08901211
000340 a1 3f 02 bd 13 a7 08 3d 1d 40 81 3d 1d 76 36 3d
       -0.031798963 0.03336246 0.06311057 0.044546235
000350 cc 3b b1 bd 62 35 74 bd 54 26 82 bc 40 c5 c3 3d
       -0.086539835 -0.059621222 -0.015887417 0.09559107
000360 23 fc 6f 3c 9c 93 d3 bc 6d 93 2c 3d e8 97 17 bd
       0.014647516 -0.025827222 0.042132784 -0.037010103
000370 0e ce 85 bd cf e0 92 3d 21 f3 3c bd 9d 82 98 bc
       -0.065334424 0.07171785 -0.046130303 -0.018616969
000380 fb 21 ca bd 79 a6 88 3d 79 62 9c 3d 83 95 13 3d
       -0.098697625 0.06672377 0.0763597 0.036031257
000390 c8 a4 8c bd 30 6a c8 bd 1e 82 a5 bd fc 03 96 3d
       -0.06867367 -0.09785879 -0.080814585 0.07324979
0003a0 3f f7 46 3d 9d f0 ad 3d c0 39 53 3d 0e ef cc 3c
       0.048575636 0.08493159 0.051568747 0.025016334
0003b0 e0 68 ed ba e3 b1 9b bd 10 10 ac bd 9c 75 bb bd
       -0.001811292 -0.076022886 -0.08401501 -0.091532916
0003c0 90 fa 28 3d fa fa 4c bd a6 f1 a6 bc e9 be 66 bd
       0.04125458 -0.050044037 -0.020378899 -0.05633441
0003d0 d1 d5 8f bc 29 ec 90 bd f0 7c 84 bd fd f7 03 3d
       -0.01755801 -0.07076294 -0.064691424 0.032218922
0003e0 01 a5 ec bc e2 6a 7c 3d 1a eb 06 bd 11 e4 92 bd
       -0.028887274 0.06162537 -0.032939054 -0.071724065
0003f0 4e 1f 91 bc 89 5e 44 bd 7d 46 fe bc cd ff c1 bd
       -0.017715123 -0.04794172 -0.03103947 -0.09472618

generator.0.bias f4 [128]
000000 65 98 71 bd 0f ae dc 3b a8 19 a1 3d c4 e2 e8 3d
       -0.058983225 0.0067346166 0.07866222 0.11371377
000010 24 a6 80 bd ee 68 8e bd f5 bf 4d 3d dc da ce 3c
       -0.06281689 -0.069536075 0.050231893 0.025250845
000020 03 96 65 bd e1 34 80 bd 96 f3 ef 3c 91 44 bc 3c
       -0.056051265 -0.06260086 0.029290956 0.022981914
000030 a0 8e 58 bd fb 80 b1 bd 81 05 d6 bc e1 cd b9 3d
       -0.052870393 -0.08667179 -0.026125671 0.090724714
000040 57 92 9e bd 86 4f 85 3d de 0e 71 3d 28 f3 37 bb
       -0.07742756 0.065093085 0.05885207 -0.0028068516
000050 4e 45 88 bd 3f 74 17 bd 5a 47 8e bd 1a 59 67 bc
       -0.06653844 -0.036976095 -0.06947203 -0.014120365
000060 45 59 2c bd 2a 49 02 bc 5f a6 19 bd 47 01 79 bd
       -0.04207732 -0.007952014 -0.03751218 -0.060792234
000070 2c eb 3a 3e 4b da 87 3d ea be c9 3c 88 b9 fe 3c
       0.18253773 0.06633433 0.024627168 0.031094328
000080 98 be 4c 3d 3a 80 57 bc e1 43 fb bc 3c 67 17 bd
       0.049986452 -0.01315313 -0.030672016 -0.036963686
000090 c2 4b 42 bd 49 0e 8b bd 17 e7 a1 bd dc 17 c2 3d
       -0.04743553 -0.06789834 -0.07905405 0.09477207
0000a0 b0 66 93 bd 98 b4 6a bd 84 86 aa bd bc b4 84 bd
       -0.071973205 -0.057301134 -0.08326438 -0.06479785
0000b0 36 c4 93 3c e8 d8 cf bd 68 dd 99 bd de c8 9c bc
       0.018037897 -0.101487935 -0.07512933 -0.01913875
0000c0 e4 4d 2b 3c 2e 8c 8c bd b0 3e 46 bd cf 09 9a 3d
       0.010455582 -0.06862675 -0.048399627 0.07521402
0000d0 7d 78 40 3c 28 73 34 bd f3 00 89 3c 0b 26 77 3d
       0.011747477 -0.044055134 0.016724085 0.060339015
0000e0 52 4b ad 3c 3f 5f 3a bd 5b ba 9e bc 7f 39 07 bd
       0.02115408 -0.04550099 -0.01937597 -0.033013817
0000f0 33 f1 55 3d 06 ab 4f bd 9b 87 0e 3e 53 44 ff bc
       0.05223198 -0.05070021 0.13918917 -0.03116051
000100 17 f6 b4 bc 2e 52 05 3d ab 74 ee 3d 02 f8 07 bd
       -0.022090001 0.032549076 0.116433464 -0.033195503
000110 64 84 38 bd 6d 27 64 bd 95 f5 d3 3d 91 a1 55 bd
       -0.045048133 -0.05570166 0.103495754 -0.052156035
000120 41 b6 c5 3b 1b 25 7c 3d f3 47 08 bd 68 0b 44 bd
       0.0060336892 0.061558824 -0.03327174 -0.04786244
000130 d5 f1 73 bd ba a1 58 3d d0 e8 1b 3d af 2b 81 bd
       -0.0595568 0.05288861 0.038063824 -0.0630716
000140 cf 1e 63 3d 9e b5 75 3d 30 65 81 bc 06 ee 5e 3d
       0.055449303 0.059987657 -0.01579532 0.054426216
000150 3d de d2 bd c0 7f cd bc 25 b7 07 3b 74 75 07 3e
       -0.10296295 -0.02508533 0.0020708528 0.13228399
000160 ac da 1b bd 9b a8 a6 3d a5 2c c2 bd 8a 39 9c 3d
       -0.03805034 0.08137628 -0.094811715 0.07628162
000170 36 33 9b bd 93 80 1f bc e5 92 81 3d 8d c0 2c bd
       -0.07578127 -0.009735244 0.06326846 -0.04217582
000180 1c de 8d bd e2 3d 8a 3d 17 6f a7 bd bf 02 57 3d
       -0.069271296 0.067500845 -0.081754856 0.052492853
000190 f5 1e af bc c3 45 c8 3a f3 e9 05 bd 20 6c 83 bd
       -0.021377066 0.001527958 -0.032693814 -0.064171076
0001a0 81 ae e4 bd 37 08 9e 3c 8f ef 8b 3d 9e 13 c4 3d
       -0.111660965 0.019291027 0.068328016 0.09574054
0001b0 6d 7c 88 bd 42 4c 14 3d 06 eb e4 3d 82 e7 2e 3d
       -0.06664357 0.036205538 0.1117764 0.04270125
0001c0 0c 24 c9 3b 73 08 ef 3c 0a 41 aa 3d 5b 3c c9 3d
       0.0061383303 0.029178834 0.083131865 0.09825965
0001d0 00 ee 9f bc 9d 8a 1c bd 33 a8 b2 3d eb 88 1c bd
       -0.019522667 -0.03821813 0.08723488 -0.038216513
0001e0 32 ea 95 3d f8 19 e3 3d c7 59 1c 3d 9b c9 f1 bd
       0.0732006 0.110889375 0.038171556 -0.11806031
0001f0 5b ee b3 3d 6e 2c 32 3d a1 da a4 bc 08 03 68 3d
       0.08785697 0.043499403 -0.020123782 0.056643516

generator.3.weight f4 [784, 128]
000000 5a dc 12 3d 85 22 2e 3d 5f 7c 8d bd 10 b9 a3 bd
       0.035854675 0.04251339 -0.069084875 -0.07994282
000010 f9 6c 19 3d df 3a 38 bd b9 6b b6 bd b7 51 83 3d
       0.03745744 -0.04497802 -0.08907265 0.0641207
000020 36 3e 9c bd cd c5 17 bd f5 03 85 bd 4b 0b 87 3d
       -0.07629053 -0.037053872 -0.06494895 0.06593951
000030 03 7d 9f bc 59 6d 54 bd 7e e1 85 3d 29 2d 96 3d
       -0.01946879 -0.051862095 0.0653715 0.07332832
000040 5e 74 24 3d d3 f7 6b 3d 58 0d b5 bd 28 4f b3 bd
       0.04015004 0.05760939 -0.08840436 -0.08755332
000050 16 57 2d 3d 76 05 e6 bc 8a d3 f0 3c 9c 70 97 3d
       0.04231938 -0.028078776 0.029397745 0.073945254
000060 ee c1 dd bc 20 54 67 bd 37 ad 97 3d 84 19 49 bd
       -0.027070012 -0.056476712 0.07406085 -0.0490966
000070 ad 31 82 bd bb 11 7a 3d 29 cc 57 bc c8 08 53 bd
       -0.06357131 0.061052065 -0.013171234 -0.051522046
000080 65 f2 b4 3c 13 8f 53 bd d9 e9 72 bb 74 6e 9f bd
       0.022088239 -0.051650118 -0.0037065654 -0.07784739
000090 45 d0 e9 bc a5 29 79 3d 8c 74 c4 3b 22 56 b7 bc
       -0.028541693 0.06083073 0.005995339 -0.022379939
0000a0 92 9c 75 3d 1f 10 24 3d 18 f2 2f 3d 98 f5 0a 3d
       0.05996377 0.040054437 0.042955488 0.033925623
0000b0 b4 77 1e bd ea 89 af bd 4c 79 77 bd 3c d3 7f bd
       -0.038688377 -0.08571227 -0.060418412 -0.06245731
0000c0 64 13 86 3c 9d 6b 7b 3d 96 a7 95 3d 04 80 7d 3d
       0.016366668 0.061381925 0.07307355 0.061889663
0000d0 64 14 6b 3b 7d 84 52 3d ac 83 b5 bb 03 b1 f1 3c
       0.0035870308 0.051395882 -0.005539378 0.029503351
0000e0 31 32 8a bd 76 80 9e 3d 0a 0c 02 3d a6 56 20 bc
       -0.067478545 0.07739346 0.031749763 -0.009786284
0000f0 af f7 37 bd e4 2b f3 3b 21 5c ad bc 50 c6 84 bd
       -0.044913944 0.0074210037 -0.021162095 -0.064831376
000100 ae 3c 7f bd a2 ee 35 bd 39 30 11 3c 23 29 82 bd
       -0.062313728 -0.04441703 0.008861595 -0.063555025
000110 ce 65 25 3d 07 4c 63 bd 12 05 2b 3d 5b 54 95 bb
       0.04038029 -0.055492427 0.041752882 -0.004557175
000120 e2 6f 0c bc 15 be 0b 3b 17 06 f8 bb 70 60 0c 3d
       -0.008571597 0.0021323015 -0.0075690853 0.034271657
000130 59 01 6e bc 28 3e 2a bd ac 3c b2 3a 7c 92 72 bd
       -0.0145266885 -0.041563183 0.0013598404 -0.05922173
000140 4d b5 bf 3c 63 c2 39 bb e0 01 0f 3d d7 ec e0 bc
       0.02340188 -0.0028344623 0.034913898 -0.027456684
000150 f9 50 ca bb 17 64 4d bd 61 6e 48 bd be 37 00 bc
       -0.0061742035 -0.05014428 -0.04893339 -0.00782579
000160 6c 58 1a 3d a9 eb 35 bd 99 43 7d 3d a6 98 1f bd
       0.037681982 -0.044414196 0.061832044 -0.038963936
000170 1f db cd bc 88 6c 78 3d 6c 4e e1 bc 6c fb 25 3d
       -0.0251289 0.06065038 -0.027503215 0.040522978
000180 f8 50 88 bc 56 7e 2e 3d a1 1e 83 3b 39 46 57 bd
       -0.016640171 0.042600952 0.004001454 -0.052557204
000190 89 b6 88 bd b4 b9 2c 3d 09 9d 54 3c 3a 64 b1 bc
       -0.06675441 0.042169288 0.012976893 -0.021654237
0001a0 b9 30 c0 bc 53 bc 3b bd e2 dd 92 bd 00 50 17 3c
       -0.023460733 -0.045833897 -0.07171227 0.009235382
0001b0 a8 39 a9 bd e7 e7 24 bc 8e 14 59 3d 23 03 f8 3c
       -0.0826295 -0.010065055 0.052998118 0.030274933
0001c0 21 20 1f 3d 6b 44 b7 3b d0 8b 76 bd 41 4b 11 3d
       0.038849 0.005592873 -0.06019193 0.03547216
0001d0 ee 43 7c 3d 63 6b dc 3c 32 d7 4d 3d 79 0f a0 bd
       0.06158822 0.026906675 0.050254054 -0.07815451
0001e0 c1 03 b1 bd 25 63 f1 bc d6 b5 5e 3c 33 1e 4f 3d
       -0.08643294 -0.029466221 0.013593158 0.05056591
0001f0 37 bf 15 bd 4d 83 44 bd 52 6c 49 3d 11 79 40 bc
       -0.03655931 -0.04797678 0.049175568 -0.0117476145
000200 57 71 45 3a dd 4f b7 bd 13 0d 62 bc 22 fa 0f 3d
       0.00075318426 -0.089507796 -0.013797062 0.035150655
000210 70 b2 a4 3d 0b cf a6 3b c0 fd 4c 3d a2 2f f0 3b
       0.08041847 0.0050905994 0.050046682 0.007329897
000220 49 a1 96 bd d5 82 0c bc c5 99 16 bd fd 78 8a bc
       -0.073549815 -0.008576115 -0.03676774 -0.016903395
000230 e8 50 1d bd df 07 7d 3d 20 9d 9a bd 77 1f 6f bd
       -0.038407236 0.061775085 -0.075495005 -0.058379617
000240 54 b2 01 bd 01 56 8a 3d f1 5e d0 bc 85 2e fe 3c
       -0.031664208 0.06754685 -0.025435897 0.031028042
000250 94 d6 23 3d 42 ee 90 3d 67 b9 d0 bc 1b 90 33 3c
       0.03999956 0.07076694 -0.025479032 0.01095965
000260 ad f7 3d bd 07 dd 46 bc 71 ee a2 bd 29 07 9d bd
       -0.04637878 -0.012137658 -0.07955635 -0.07667381
000270 a5 32 75 3c d8 fa 98 bd 4f 5a 26 3d 6a 00 70 3d
       0.014965688 -0.0746972 0.04061347 0.058594145
000280 6d db cc 3c ca b6 e5 3c fc 7d ac bd 54 6b 3b bd
       0.025006974 0.028041262 -0.08422467 -0.045756653
000290 f5 c0 8f bd fb 4b b5 bd 55 a8 0a 3d f5 0e 6f 3c
       -0.070192255 -0.08852383 0.03385194 0.014590968
0002a0 94 cf a0 3d d9 fb e3 bc 1b e5 7f bd 0b f4 a5 bd
       0.078520924 -0.027830051 -0.06247435 -0.08103188
0002b0 a3 cf 7e 3a ce 0b 55 bd ef 46 28 3c f4 fe 5b 3d
       0.00097202713 -0.05201321 0.010270818 0.05370994
0002c0 a4 d9 93 3d 25 fc 9b bc 82 f6 83 bd b7 bb 59 bd
       0.07219246 -0.01904113 -0.06443502 -0.053157534
0002d0 e4 39 4b 3d d6 1d 7c 3c 98 e5 f4 ba af 3a bd bd
       0.049615756 0.015387973 -0.0018684147 -0.09239709
0002e0 37 7a 2e 3d 88 19 4f 3d 34 ea 3f 3b 3b 7e b0 bc
       0.042597022 0.050561458 0.0029283883 -0.021544566
0002f0 4b a4 44 bd b1 9c 9f bb 37 6d 6a bb 17 2e a9 3c
       -0.048008244 -0.004870974 -0.0035770664 0.02065186
000300 87 22 f0 bb 43 19 9e 3d a8 da 47 3d 4b 32 7a 3c
       -0.0073283347 0.07719662 0.04879251 0.01527078
000310 ab 4b a8 bd 1a e6 40 bd 79 1d f2 3c 19 48 7a bd
       -0.082175575 -0.047094442 0.02955507 -0.061103914
000320 3e 9d 9b 3c d9 07 80 3c fd 48 74 bd b2 52 62 3c
       0.018995877 0.015628742 -0.05963992 0.013813661
000330 16 ce 64 bc 52 e7 70 3d 99 04 cf bc c7 3f 95 3d
       -0.01396515 0.058814354 -0.025270747 0.07287555
000340 9d d9 90 3d 6f ae 12 bd 9b ca 28 3c 50 2b 01 bd
       0.070727564 -0.035810884 0.010302211 -0.031535447
000350 34 d2 8a 3d ae 5e 15 3d c8 53 a3 bb 91 fe 36 3d
       0.06778374 0.036467247 -0.0049843527 0.044676367
000360 d9 f5 98 bd 5a a6 f2 bc fb 2f 74 3c fc 4a ba bd
       -0.07468767 -0.029620338 0.014904018 -0.090963334
000370 8b 34 94 3d 3c b4 05 3b 97 7f 97 3d ad d5 f3 bc
       0.07236584 0.0020401618 0.07397383 -0.029764974
000380 bc 34 81 3a 6d f3 f8 bc 72 73 21 bd e1 b4 1e bd
       0.0009857635 -0.030389512 -0.039416738 -0.03874672
000390 e2 95 63 3d 2a 5c 9a 3d 74 3b 9b 3c 62 46 39 3d
       0.05556286 0.0753711 0.018949248 0.045233138
0003a0 b9 38 13 3d 89 84 d7 bb 7f 42 91 bd 3d 58 7b 3c
       0.035942767 -0.0065770787 -0.07092761 0.015340862
0003b0 95 11 0d bd 18 77 e0 3c 71 47 83 bd bd 57 1b bc
       -0.034440596 0.027400538 -0.06410111 -0.009481368
0003c0 e6 31 22 bd 87 72 b1 bd 56 09 b4 bd 21 34 98 3d
       -0.039598368 -0.086644225 -0.08790843 0.07431818
0003d0 76 67 81 bb 61 f7 a2 bd 0d 3d 10 3c 6d 52 15 bc
       -0.003949101 -0.0795734 0.008803618 -0.00911389
0003e0 8f 87 88 3d 4d 0c 9d 3d 36 9d e7 bc 41 66 62 bd
       0.06666481 0.07668362 -0.028273206 -0.0552733
0003f0 05 72 6a bd e9 c7 f5 bc cb 42 5a bd 68 a0 96 3d
       -0.057237644 -0.030002551 -0.053286355 0.07354814

generator.3.bias f4 [784]
000000 fb ac fa bc 62 f9 0e bd 0f 3b 2b bc 10 73 21 3d
       -0.030600062 -0.0349058 -0.010451092 0.039416373
000010 dc cf e5 bc e7 39 02 3d a7 46 e9 3b 94 35 10 bd
       -0.028053217 0.0317935 0.007119018 -0.035207346
000020 a2 eb cf bd 2b 63 82 bd a3 c5 db bc 4e 7f df bd
       -0.10152365 -0.06366571 -0.026827639 -0.10912953
000030 b1 c5 52 bc 1b 7b 38 bc 6d d4 81 3d 55 de ac bd
       -0.012864516 -0.011259819 0.06339345 -0.08440844
000040 c2 37 dd 3c c2 06 9c 3d 36 84 ad bc 36 40 04 3d
       0.027004126 0.076184765 -0.021181207 0.0322878
000050 89 4b e9 bc 43 6c 87 3d dc b3 e0 3c 4d 0a 64 bd
       -0.0284784 0.06612446 0.027429514 -0.055673886
000060 06 e8 6a bc 52 9c 03 bd 47 57 a3 3c fb 4c a4 3b
       -0.014337545 -0.0321315 0.019939078 0.0050140596
000070 d5 c7 10 bd f8 5c cd b9 b0 01 ce 3c 6d 7c 3a 3d
       -0.035346825 -0.00039169914 0.025147289 0.045528818
000080 7c 9c c1 bd 5b c0 9b bd b9 59 06 bd 9a 44 22 3d
       -0.09453675 -0.07605048 -0.03280041 0.039616205
000090 cf 55 8f bb 70 27 9e bd 56 28 5d bc a4 d5 55 3d
       -0.004374243 -0.07722366 -0.013498386 0.052205697
0000a0 0d e5 6a bd 26 3e b5 bd f8 ce b3 3d ff 5f 5f 3d
       -0.057347346 -0.088497445 0.087797105 0.05453491
0000b0 b6 5b 0e bd 61 f9 bb b9 ff 56 4b 3d be 6b 29 bd
       -0.03475543 -0.0003585322 0.049643513 -0.041362517
0000c0 aa 52 16 bd 8e 61 06 3b 9b b9 56 3d d6 d7 88 bd
       -0.03669993 0.0020504924 0.0524231 -0.066817924
0000d0 ff 98 88 bd 20 26 84 bd 9c ad 08 bd 4d a7 fe 3c
       -0.06669807 -0.06452584 -0.03336869 0.031085635
0000e0 f2 4f 5b bc f4 46 f2 bd 8e 99 09 bd df 80 46 bd
       -0.01338576 -0.118299395 -0.033593707 -0.048462745
0000f0 53 7c 88 bb 7a 2e 3b bd 17 62 11 bc e4 06 82 bd
       -0.004165211 -0.04569862 -0.008873484 -0.063489705
000100 9b 13 95 3d 26 15 5c bd 2e f5 4a 3d 50 76 c1 bd
       0.0727913 -0.053731106 0.049550228 -0.094463944
000110 02 95 65 3b 01 ed 7f bd 23 13 36 bd 47 3f 00 bd
       0.0035031443 -0.062481884 -0.044451844 -0.031310346
000120 46 08 ab bc cb d5 0b bc 92 10 be bd cd f6 10 bd
       -0.020877969 -0.008534859 -0.09280504 -0.035391618
000130 96 65 98 3c 5a 87 94 bd b4 39 6c bd 8d 82 ad bd
       0.018603127 -0.07252379 -0.057672217 -0.08472166
000140 aa 6f a3 3d 4c 8c 54 3c 0f 3f 78 bd ac 63 a3 3a
       0.079802826 0.0129729025 -0.060607012 0.0012465618
000150 2b b6 0d bd cf f4 82 3b f4 b0 f3 bd 56 8e 24 3d
       -0.034597557 0.0039964686 -0.118989855 0.040174805
000160 ec 74 a8 bc 52 a3 23 bd 8b a6 24 bd 16 ad 8e 3d
       -0.020563565 -0.039950676 -0.04019789 0.06966607
000170 30 49 2d bd 51 eb 8e bd 22 54 09 3d 01 6b 9d bd
       -0.042306125 -0.06978477 0.0335275 -0.07686425
000180 11 ea 32 3c b0 11 8a bc cf d0 9e bd 02 bc 3a 3b
       0.010920064 -0.016854137 -0.07754671 0.002849341
000190 e4 41 e5 bd ca 1c 02 bd 0d 16 37 bd 7d 83 aa bc
       -0.11194208 -0.031765737 -0.044698764 -0.020814652
0001a0 94 2c 60 bd a4 92 17 3c 04 f2 9a bd 4f 5d f7 bb
       -0.054730013 0.00925127 -0.07565692 -0.007548965
0001b0 f2 68 50 3c e9 a0 e8 bd b3 fd cb bd a9 ac 93 bd
       0.012720333 -0.11358816 -0.09960499 -0.07210667
0001c0 b8 6d 09 bd 52 2b 20 bc c7 8b 9c bc 28 26 46 3a
       -0.0335519 -0.009775953 -0.01910962 0.00075587863
0001d0 1d 5e ac bd ba f3 18 bd 22 ac 64 3d fe 30 fd bc
       -0.08416388 -0.03734181 0.05582822 -0.03090715
0001e0 12 dd 84 3d 41 dd 7b bd c2 9d 5d 3d 45 f9 c9 3a
       0.06487478 -0.0614903 0.054105528 0.0015409371
0001f0 ef 9a 1b 3a 4c 0f da 3c 10 d6 ef bd 3a cf 4c bd
       0.00059358677 0.026618622 -0.11710751 -0.050002314
000200 5c 06 af bb b8 6d 80 3c 96 b9 2f bd f9 97 88 bc
       -0.0053413343 0.015677318 -0.042901598 -0.016674029
000210 2e 4a 64 bd 49 7a ae bb 1a 0a b9 bb e4 65 60 3d
       -0.055734806 -0.005324636 -0.005646956 0.05478467
000220 6a 5e ab bc 60 93 2d bd 63 b2 d4 bd eb 38 0a bd
       -0.020919044 -0.042376876 -0.10385587 -0.033745687
000230 c8 b5 76 bc e2 d7 dd bd de 1d 40 3c 42 8c bf bd
       -0.015057988 -0.10832192 0.011725871 -0.09352924
000240 d4 9f ea 3c cc 00 10 3d 6c 00 bd bd 86 d7 3a 3d
       0.028640665 0.03515701 -0.09228596 0.045615695
000250 5c ee 37 bd 5f 5d 14 bd ae 90 a8 bc 23 d0 69 39
       -0.04490505 -0.036221858 -0.020576801 0.00022298149
000260 a9 24 31 3d 67 8e 9a 3d 9d 7a 8d bc 9d 9e 78 b9
       0.043247852 0.07546692 -0.01727038 -0.00023710211
000270 1a af 67 bd 79 6e 73 3d 7b 79 58 3c 50 7f 9f 3c
       -0.056563474 0.059431527 0.013212557 0.019469887
000280 f7 19 6d bd 9e 8c 7a 3c 3b 92 22 bd 5f 5a 21 3d
       -0.05788609 0.015292315 -0.039690237 0.039392825
000290 74 37 23 3d 77 16 81 3a b2 ec 9d bd 9f 98 c8 3d
       0.039847806 0.0009848614 -0.07711162 0.09794735
0002a0 9c a5 c3 bd 7f 6d ae bd 43 6d cb bd a3 12 74 3d
       -0.09553072 -0.085169785 -0.099329494 0.059588086
0002b0 2b e0 67 3d 72 4b 04 bd bd 94 44 bd 8c c8 0c be
       0.056610268 -0.032298513 -0.04799341 -0.13748378
0002c0 bf 41 22 3b 82 b0 62 3d 54 7d 28 bb ae 0f d4 bb
       0.0024758426 0.055344112 -0.0025709467 -0.0064715957
0002d0 c2 53 1e bd d5 a3 2c bc 85 44 00 3d bb fb 97 3d
       -0.038654096 -0.0105371075 0.031315345 0.07421061
0002e0 23 9f 96 3c 12 3e 72 bb 93 d9 2f bd 0b a5 e9 ba
       0.01838643 -0.0036963266 -0.042932104 -0.0017825676
0002f0 46 ac f0 bc 96 a1 f5 3c 93 45 a0 3b 6d 92 98 bd
       -0.029379021 0.029984277 0.0048911064 -0.074498035
000300 2a 5c 65 bb 89 89 6b bd f6 0a ba 3c 61 94 0c be
       -0.003499756 -0.05750421 0.022710305 -0.13728477
000310 5b 48 84 bd 55 f1 99 3c c8 0e 14 bd 18 ca c0 ba
       -0.06459113 0.018791834 -0.03614691 -0.0014708666
000320 2d 73 fd 3c 80 c6 62 bb ac d6 c1 39 6d a6 c0 bb
       0.03093871 -0.0034603179 0.00036971772 -0.0058792145
000330 31 64 81 bc e7 70 bf bd ec 0d 26 bd 69 96 52 3d
       -0.015794845 -0.09347706 -0.04054062 0.051412974
000340 9a 4c 3b 3d d5 59 a0 3b 33 47 12 3c 1b fd dc bc
       0.04572735 0.0048935213 0.008928108 -0.026976159
000350 4c cf 88 3d d7 2a dd bc 76 06 89 bd 80 28 84 bd
       0.06680164 -0.026997967 -0.066906855 -0.06453037
000360 85 9b f8 3c dc 74 78 bd ef a1 2f bd b0 19 61 bd
       0.030347595 -0.06065832 -0.04287904 -0.054956138
000370 d3 e0 ca bd 82 13 f1 bd f7 71 1e bd 70 4b 45 3b
       -0.09906163 -0.11771299 -0.038682904 0.0030104779
000380 06 ae bc bd 90 b0 86 3d 8c 81 a0 3d 57 f3 29 3b
       -0.0921288 0.065766454 0.07837209 0.0025932395
000390 bf d9 95 bd 35 d5 c0 3d 01 3b 18 3d 20 e8 c1 bd
       -0.073169224 0.09415666 0.037165646 -0.094681025
0003a0 a7 f2 b8 bd b7 93 37 bb f6 2a 5c 3c f6 f6 a5 bc
       -0.09030657 -0.002801163 0.013437977 -0.020259362
0003b0 d1 e4 99 3d 4b 61 91 bc 42 f1 8e 3d 20 1c 06 3e
       0.075143464 -0.017746588 0.0697961 0.13096666
0003c0 69 96 8b 3d 60 99 86 3d 44 00 d4 3c 9a 8a f3 bd
       0.06815798 0.06572223 0.025879033 -0.118916705
0003d0 52 07 17 3c b8 c8 19 bc ff 77 31 bd 37 14 21 3c
       0.009218054 -0.009386234 -0.043327328 0.00983148
0003e0 38 01 18 bc 2c 63 c8 bd 94 5e dc bd d8 de 8d bd
       -0.009277634 -0.097845405 -0.10760227 -0.0692727
0003f0 79 d4 d1 3c e1 12 8a bd 62 63 64 bd c2 96 b6 bc
       0.02561401 -0.06741882 -0.05575884 -0.022288684

discriminator.1.weight f4 [128, 784]
000000 a1 16 c0 bc 09 cb 00 bd 55 78 bf bc af 1b fb bc
       -0.02344829 -0.03144363 -0.023372808 -0.030652849
000010 1a 94 eb bc 3f b0 ec 3c b8 08 61 bc c8 37 73 bc
       -0.028757144 0.028892634 -0.013734989 -0.014844842
000020 d3 ef a9 39 e4 e1 ce 3c 3a 5b d7 bc 83 a4 48 bc
       0.00032412875 0.025254197 -0.026288617 -0.012246254
000030 18 9e 26 bc b4 d7 0e bd b8 14 d6 bc a8 5e 32 bc
       -0.010169528 -0.03487368 -0.026132926 -0.010886826
000040 68 95 7b 3c fd 17 14 bc ce 4f 14 3b b8 d7 dd bc
       0.015355445 -0.009038922 0.0022630575 -0.027080402
000050 d1 cd 86 bc b3 07 3d bc 75 5c 7a bc 97 48 08 bd
       -0.016455563 -0.01153748 -0.015280833 -0.033272352
000060 78 a5 d9 3c b4 93 02 bc 45 ed d5 bc 39 4a 12 3d
       0.02656816 -0.0079697855 -0.026114115 0.035715315
000070 e1 6a fd 3c ed bf 2b 3c 4d c9 91 3c ce 45 6b 3c
       0.030934753 0.01048277 0.017796183 0.014359904
000080 92 b1 8a bc 06 ce a8 3c e2 0e a1 ba 1b 84 01 bd
       -0.016930375 0.020606052 -0.0012287761 -0.031620126
000090 99 f1 01 bb 1d fa 81 3c 58 cc c0 3c b1 d7 28 3c
       -0.0019827841 0.015866334 0.023534939 0.010305331
0000a0 60 64 28 3c df 6a 43 bb 81 36 36 3c 0f e1 05 39
       0.0102778375 -0.0029818339 0.011121393 0.00012767709
0000b0 8a 57 ae bc 0d 3a eb 3c a9 36 dd bc 5c 43 5a bc
       -0.021281976 0.028714204 -0.027003603 -0.013321724
0000c0 59 77 06 3d 88 3b de 3c a1 d6 8d bc b1 d9 d2 bc
       0.032828663 0.027127996 -0.017314257 -0.025738569
0000d0 96 aa c0 3c 08 c1 1a bc 30 7e db bc 60 c9 19 bd
       0.023518842 -0.009445436 -0.02679357 -0.03754556
0000e0 dd 2c 04 3d a8 fe ba bc 8f 5b 63 3c 5a 00 8c bc
       0.032269347 -0.022826508 0.01387681 -0.017090011
0000f0 27 c8 e7 3c c8 a9 5b bc fa 89 08 3c 29 00 f4 bc
       0.028293682 -0.013407178 0.008333677 -0.029785233
000100 7e 74 c7 bc cb 52 61 bc d1 7a 8d 3a 15 fe a4 bc
       -0.02434754 -0.01375265 0.0010794048 -0.020140687
000110 4f bd fd bc 3c 95 0a bd 8d 1e 21 bd 0b 02 d6 3c
       -0.030974058 -0.033833727 -0.039335776 0.026124021
000120 73 0e 92 bc 83 4e 1e 3c e6 27 10 3c 4d 89 06 bd
       -0.017829156 0.009662273 0.008798575 -0.032845784
000130 f1 46 da 3c ea 21 67 bb 32 77 b7 3c 90 d5 d8 bc
       0.026645156 -0.0035268017 0.022395704 -0.026469022
000140 e2 82 99 3c bd ef d9 bc 84 4a 10 bd cd 75 db bc
       0.018739168 -0.026603574 -0.035227314 -0.02678957
000150 d7 c1 f2 bb 3a d4 e9 3b d2 f5 23 bc 16 d6 55 39
       -0.0074083614 0.007135895 -0.010007339 0.00020393016
000160 37 b0 e7 bc fa da 43 3b f7 06 26 3c 95 41 ab bc
       -0.028282268 0.002988516 0.0101334965 -0.020905295
000170 a1 1f 99 3c b7 ad c2 3b e1 7d e9 3c ec 7e 91 3c
       0.01869184 0.0059411186 0.028502407 0.017760716
000180 e7 92 15 3c 1b 18 a0 bc 5e 04 b2 bc 7a 51 01 3d
       0.0091292625 -0.019542744 -0.021730598 0.031571843
000190 38 f1 fa bc f7 59 43 3c 00 37 91 3b 33 8b 78 bc
       -0.0306326 0.011923305 0.0044316053 -0.015169906
0001a0 c9 88 b5 bc 24 f6 fc bc 1a 8e 14 bd 22 75 05 bd
       -0.02215995 -0.030879088 -0.03626833 -0.03258241
0001b0 c8 fb 55 bc 3b b3 17 bd 47 e1 d0 bc 2f 5f 1d bd
       -0.013060518 -0.037036162 -0.025498046 -0.038420852
0001c0 40 a7 d5 bc cb 76 8c bc 14 fc c3 bc 9b f1 fc bc
       -0.026080728 -0.017146489 -0.023923911 -0.030876925
0001d0 f8 d3 97 bb a3 26 b1 bc 5e 56 ff 3c a0 c1 ff 3c
       -0.004633423 -0.021624869 0.031169113 0.031220257
0001e0 3d 04 c7 3c 33 6a 1a 3c 0c c9 8e bc 25 f9 d1 3c
       0.024294013 0.009424734 -0.017429851 0.025631497
0001f0 1f f2 24 3c ae 0a 93 3c 71 0c b6 3c 63 ca aa bc
       0.010067492 0.017949428 0.02222273 -0.020848459
000200 8c b8 85 bb 4d f0 b6 3c f9 8c dd 3c de 7b 00 bd
       -0.0040808376 0.022331381 0.02704476 -0.03136813
000210 af 17 f2 3c b4 0d 85 bc 5b 9d bb 3c bc b1 a8 bc
       0.029552309 -0.016241886 0.022902181 -0.020592563
000220 85 7f 2c 3c d5 74 4c bc c3 4a 4c 3a 07 c9 f4 bc
       0.01052845 -0.012479027 0.0007793123 -0.029881014
000230 9b 04 a5 3a 87 f6 7b 3b 2b f1 e5 ba 24 b6 f3 bc
       0.0012589874 0.0038446502 -0.0017543187 -0.029749937
000240 39 bf f7 bb d9 17 53 bc 84 27 b5 3c 57 bc 22 3c
       -0.0075606373 -0.012884104 0.02211357 0.009932599
000250 19 bf 8a 3c a0 6b fd bc 43 0e 37 39 34 e8 e5 bc
       0.016936826 -0.030935109 0.00017457553 -0.028064825
000260 23 e3 06 3c d6 1c ec bc cb da 50 bc dc d3 97 3b
       0.008232865 -0.028822344 -0.012747477 0.00463341
000270 9a ad 11 3d bc f5 f1 bc dd e9 c9 bb 32 b8 07 bc
       0.03556595 -0.02953612 -0.006161912 -0.008283662
000280 50 65 07 3d a1 19 de 3c 14 29 c0 3b 9e c4 f7 3c
       0.033055604 0.02711183 0.005864272 0.030245122
000290 36 08 cc 3c 64 5e 81 bb 98 20 e0 3c 70 00 1a bd
       0.024906259 -0.00394802 0.027359292 -0.037598073
0002a0 8e c6 37 bb af b1 7f 3c 04 de 80 bc 84 4d 9b bc
       -0.0028041932 0.015606328 -0.015730865 -0.01895786
0002b0 a1 23 c1 bb f3 e9 e5 3c f3 ae a1 3b f1 b8 b7 bb
       -0.00589414 0.028065657 0.0049341857 -0.0056067635
0002c0 90 5a a7 3c bf ad bb 3c 44 78 e5 3c 2e 52 15 3b
       0.020428926 0.022909997 0.028011449 0.0022784579
0002d0 3a 8a dd 3c 0e f9 c2 3b b5 1f 8e bb 5d 62 88 3c
       0.02704345 0.0059501 -0.004337276 0.016648466
0002e0 24 de 03 bd 8a a5 b4 3b a6 4f f3 ba b1 e6 02 3d
       -0.03219427 0.005512898 -0.0018563166 0.031958286
0002f0 aa 97 87 bc 73 5f d9 3a 31 4c a9 3c 7c c1 14 bc
       -0.016551811 0.0016584232 0.020666214 -0.009079333
000300 6b 78 01 bd 00 70 11 3b 82 af 3f 3a 5d 12 bb 3b
       -0.03160898 0.0022192001 0.00073122245 0.005708976
000310 fb ae 8a 3c 87 6a ca bc 2e cf 65 3c b1 00 19 bd
       0.01692914 -0.024709 0.014026446 -0.037354175
000320 81 66 bc 3c 68 41 81 3b 19 cb f1 3c 4d 21 0b bc
       0.022998096 0.0039445646 0.02951579 -0.008491826
000330 ff 90 f4 3c b9 5b 04 3b f0 7d 3d bc 91 e9 dc bc
       0.029854296 0.0020196273 -0.01156567 -0.026966842
000340 19 11 d8 3c d6 7f a9 bc 84 17 8b 3a 2f 56 f7 3b
       0.02637534 -0.02069084 0.0010611867 0.0075481157
000350 af 91 84 bc 94 f7 d1 3c 60 d2 2f 3c b4 a4 a7 3c
       -0.016182749 0.02563075 0.01073131 0.020464279
000360 b4 7b a4 3c de f3 b1 bc 54 ee 9c 3c 13 f3 ea 3c
       0.020078517 -0.02172273 0.019156612 0.02868036
000370 62 87 e4 3b c3 91 f6 bb 93 96 49 3c ef 98 a9 bc
       0.0069741467 -0.0075247004 0.012303966 -0.020702807
000380 a5 fe 0b bd 9a 15 0c 3d 01 99 15 3c 49 ca 20 3c
       -0.034178395 0.03420029 0.009130717 0.009813854
000390 9b 68 0b bd 9c 0f 17 3b fe f1 b4 3c 39 17 0f bd
       -0.034035306 0.0023050075 0.022088047 -0.034934256
0003a0 4f cf e1 bc c5 47 72 bb 4f 9b 09 bd 84 56 f9 bc
       -0.027564673 -0.0036969048 -0.03359538 -0.030436762
0003b0 e4 1f a1 bc 47 45 22 3d ff ca d0 3b e4 6a 97 bc
       -0.019668527 0.03961685 0.0063718553 -0.018483587
0003c0 19 f0 38 3c 5c c9 2b 3c f5 bd cd 3c a2 a6 ca 3c
       0.0112877125 0.01048502 0.025114993 0.02473766
0003d0 71 80 05 3d aa e7 9b 3b 25 60 b2 bc bd 4c 5e 3c
       0.032593194 0.004757841 -0.02177436 0.0135681005
0003e0 83 2f d8 bc db a5 88 bb 2d 91 19 3a 43 39 ed bc
       -0.026389843 -0.004170162 0.00058581197 -0.028957969
0003f0 a5 75 43 3c 69 74 1e bd 77 59 c7 bc 13 4d c6 3c
       0.011929904 -0.038685236 -0.024334652 0.024206674

discriminator.1.bias f4 [128]
000000 d8 91 18 bd 86 cb e2 3b cc d3 1b bc 2f 7a 99 3c
       -0.037248462 0.0069212345 -0.0095109455 0.01873502
000010 17 4b 9a 3d 8a 3a 70 3c 51 b4 a3 3c aa 4a 12 3d
       0.075338535 0.014662394 0.019983443 0.035715736
000020 b5 32 8c bd e2 cc 9d bc bd 09 1e bd 1b 7b d5 3d
       -0.06845609 -0.019262735 -0.038583506 0.10423871
000030 5f f3 98 3d b1 31 e4 3c f1 76 73 bb 03 04 a8 3c
       0.07468294 0.027855726 -0.0037149752 0.020509725
000040 d8 4e 02 bc 3d 99 a7 3c 44 55 b5 3c d3 f5 cb 3b
       -0.007953368 0.020458812 0.022135384 0.006224373
000050 64 f5 ca 3a 4c ff 54 bc 2a 42 12 3d d8 29 d2 3c
       0.0015484509 -0.013000321 0.03570763 0.025654718
000060 ac f3 e4 b9 ac 1a ba 3b 11 1c da bc 1c dd 3a 3d
       -0.00043669099 0.005679449 -0.026624711 0.045621023
000070 2e 75 84 3d d4 ef bd bd 14 b4 ac bd d2 0a 94 3b
       0.06467663 -0.09274259 -0.08432785 0.0045178914
000080 ed b8 84 3c 00 4c ab 3b 24 83 c4 3c 39 68 25 bd
       0.01620146 0.0052275658 0.023988314 -0.040382598
000090 3f 85 4f bb 07 fe d2 bc eb 2c 63 bc b8 31 29 bd
       -0.0031665114 -0.025755895 -0.01386569 -0.04130718
0000a0 fd 88 45 bd 64 79 e6 3c 42 c6 97 3d 30 71 57 bd
       -0.048226345 0.028134055 0.074108616 -0.05259818
0000b0 3f 29 24 bd 2b ed 2b 3d 74 3c f0 bb 19 55 72 bd
       -0.040078398 0.041974228 -0.0073314253 -0.059163187
0000c0 40 7a 17 3d 82 24 33 3d 69 e0 33 3c 51 37 d2 bc
       0.03698182 0.04373599 0.0109787965 -0.025661143
0000d0 c5 e2 34 bc 48 1f 01 3d 49 ce a2 3d 02 52 d3 3c
       -0.011040394 0.031523973 0.07949502 0.02579594
0000e0 88 5d dc bd c1 2d b8 3c b7 c7 2c 3d 77 f1 ef 3c
       -0.10760027 0.022482755 0.04218265 0.029289944
0000f0 d5 b0 9d bc 78 64 53 3d 93 d3 00 3c 15 98 8c bd
       -0.01924936 0.051609486 0.007862943 -0.06864945
000100 e4 32 31 3d 21 f5 8a bd 67 6a f3 bc 05 d9 1d 3c
       0.043261424 -0.06785036 -0.029713823 0.009634261
000110 05 10 bd 3d 59 d6 92 3b 80 7c 27 3d db d7 b6 3d
       0.09231571 0.0044811186 0.040890217 0.0892789
000120 5b 04 ac 3c 35 14 e5 3c ab d6 d2 3d fc 98 c6 bc
       0.02099817 0.027963737 0.10294851 -0.02424287
000130 a0 79 af 3a 6b 72 0d 3d a2 8f 31 3d 1a 0d e4 bb
       0.0013387688 0.034532946 0.04334987 -0.0069595696
000140 1b b2 80 3d 69 18 4e 3d c2 47 3b bd c0 cd 29 3d
       0.06283971 0.050316248 -0.04572273 0.041455984
000150 d8 ea d5 bc 38 7c 55 3c 6f 29 23 3d a1 ef 92 3d
       -0.026112959 0.013030104 0.039834436 0.07174612
000160 87 2c f7 bc 73 61 6b 3d d2 38 92 bd 89 cc 68 3d
       -0.0301726 0.05746598 -0.07139744 0.056835685
000170 c0 ee 83 bd d8 12 af bd 7d 24 8b bc 1a 63 04 bc
       -0.06442022 -0.08548516 -0.016985172 -0.008080268
000180 18 24 a3 bb 2e 20 c9 3d 56 23 5e 3c d8 2a 24 3d
       -0.004978668 0.09820591 0.013558229 0.04007992
000190 bd 94 e8 3c d5 2f ba bc 5c 0d a1 3c a6 4b 2a bd
       0.028391236 -0.022727886 0.01965969 -0.04157605
0001a0 9c 34 4a 3c f4 8f c1 3c 94 ea 77 3d 1a 1a a5 3b
       0.012341645 0.023628213 0.060526446 0.005038512
0001b0 5e e9 5c 3b 79 f8 35 3c 00 ef 9f b9 1a dc c1 3d
       0.0033708434 0.011106604 -0.00030504912 0.09465809
0001c0 15 be 61 3c 96 6d 91 3d 66 99 b8 bc 0e aa bf bc
       0.013778229 0.0710098 -0.022534084 -0.023396518
0001d0 20 74 7b 3b ae 84 a1 3c 32 e1 e7 bb 37 83 98 3c
       0.0038368776 0.019716587 -0.007076406 0.018617256
0001e0 9c d7 0c bb 0a 01 4e 3d 1d cd 94 bc 50 8b a1 bd
       -0.0021490818 0.05029396 -0.018164212 -0.078879
0001f0 c6 cb 7d bc 4a 5d 72 3d 92 fd 37 bd db 7e a6 3b
       -0.015490478 0.059171 -0.044919558 0.0050810403

discriminator.4.weight f4 [1, 128]
000000 dc a0 94 3d 69 ee 42 bd d1 dc e2 bc cf cc a4 bd
       0.07257244 -0.047590647 -0.027693184 -0.08046877
000010 33 c7 26 be 70 dc 4e 3c 4d 71 aa bd 6a 0c 31 bd
       -0.16286926 0.012625799 -0.08322392 -0.04322473
000020 f9 31 a8 3d 2a c1 94 3d df f1 22 b9 24 f8 4c be
       0.082126565 0.072634056 -0.00015539628 -0.20016533
000030 46 d0 1f be 42 99 f9 bd 6c 65 86 bc 37 1e 0f be
       -0.15606794 -0.12187435 -0.016405784 -0.1397637
000040 76 71 33 3c ab 20 69 ba 3e 82 2e bd e2 aa dc bd
       0.010952344 -0.00088931125 -0.042604677 -0.10774781
000050 ec 8e aa 3b 5d 20 88 bd 60 e6 83 bd 87 b8 aa bd
       0.005205026 -0.06646798 -0.06440425 -0.08335977
000060 2c 95 29 bb 91 db 20 bd 62 5a 5f 3d 0e ba 0a be
       -0.0025876267 -0.039271895 0.054529555 -0.13547537
000070 3b b8 cb bd 8b 52 c6 3d 85 3f c3 3d a6 7f cf bc
       -0.099472485 0.096837126 0.095336 -0.025329422
000080 79 0a c5 ba d9 f8 18 bd a5 33 f3 bd 94 3e 43 3d
       -0.0015033028 -0.037346695 -0.11875085 0.0476671
000090 0e 11 08 bc 84 d2 98 3c e6 62 91 bb eb 82 71 3d
       -0.008304847 0.01865507 -0.0044368384 0.058962744
0000a0 5a 96 9b 3d f5 f4 19 bd 8d f3 01 be fe 8d d3 3d
       0.07597037 -0.037587125 -0.12690563 0.10329817
0000b0 fe 81 91 3d 1e a5 b9 bd af 66 1e 3d dc 51 67 3d
       0.07104872 -0.09064697 0.038672145 0.05647455
0000c0 59 49 20 be 0b 54 d4 bd e4 35 05 be d8 6a 13 bd
       -0.1565298 -0.103675924 -0.13008839 -0.035990566
0000d0 02 6e 22 bd b6 ad c5 bd 49 af 21 be 21 7d 1a bd
       -0.039655693 -0.09652273 -0.15789522 -0.03771699
0000e0 8d c9 12 3e 79 ba f8 bd ed 58 2f bd 27 1f b5 bd
       0.14334698 -0.12144942 -0.042809416 -0.088438325
0000f0 d1 76 3f 3d ad 63 e0 bd 37 07 cb bd a0 bf af 3d
       0.04674417 -0.10956512 -0.099134855 0.085814714
000100 f7 0b af bd 27 5e df 3d 58 04 ec bc b0 aa 8f bd
       -0.08547204 0.1090663 -0.028810665 -0.07014978
000110 b9 0b 26 be 73 bd 81 3c ca 58 04 be 26 65 1e be
       -0.1621541 0.015837407 -0.12924495 -0.15468273
000120 e7 42 98 bc 8f 3c a3 bd af 1b 3a be f5 73 2c bd
       -0.018586589 -0.07970535 -0.18174623 -0.042102773
000130 3a a5 6a bd 0c 27 56 bd 3f e1 03 be a6 ac c0 3c
       -0.05728648 -0.05228333 -0.12878893 0.023519825
000140 fa d2 37 be cc f8 b1 bd 4b 3b b0 3b 6d a2 13 be
       -0.17951575 -0.08690032 0.005378162 -0.1441743
000150 20 d9 ce 3d 9e 0f ab bd 54 e8 8f bd 7e 57 ea bd
       0.10100007 -0.08352588 -0.07026735 -0.11442469
000160 d8 a9 1e 3d e2 ed 9a bd de a6 dc 3d 0b 42 22 be
       0.038736194 -0.07564904 0.10774015 -0.15845506
000170 b2 17 f6 3d 21 6d e5 3d 42 50 24 bd b5 a5 ac 3c
       0.12016238 0.11202455 -0.040115602 0.021075109
000180 6b e3 5d bd 9e c1 30 be 1c 11 40 3c d6 40 9d bd
       -0.05417196 -0.17261359 0.011722829 -0.07678382
000190 54 53 b4 bd 7c fb 20 3d 3c 75 a2 bd f4 88 22 3d
       -0.08804956 0.039302334 -0.07932517 0.03968139
0001a0 ff 08 5c bd 2c 8e 05 be 68 14 0c be 04 22 85 bd
       -0.053719517 -0.13042516 -0.1367966 -0.065006286
0001b0 8d 4c 4e bd 65 4e 6c bc 50 d2 a7 bc b0 2f 4b be
       -0.050365973 -0.014422988 -0.020486027 -0.1984241
0001c0 96 cc 50 bd f2 b5 15 be c3 a0 80 bc 2c 2e f4 3c
       -0.05097636 -0.14620188 -0.015701657 0.029807173
0001d0 9e f4 bc 3c 77 a2 bf bd c5 bc 96 bd 24 e4 6d bc
       0.023065861 -0.093571596 -0.07360224 -0.014519725
0001e0 a1 72 07 bd 24 c0 b4 bd aa 29 e9 3c bb ee 19 3e
       -0.033068303 -0.088257104 0.02846225 0.15032475
0001f0 98 fa e3 3d 8d 8a f6 bd 51 a4 29 3d d9 a5 9e bd
       0.11131781 -0.12038145 0.04141647 -0.07746477
