homework-week-12/gan_mnist_dr0.1_adamTrue_lrg0.0002_lrd0.0002.pt (torch, 863251 bytes, 7 tensors)

generator.0.weight f4 [128, 100]
0	0x3d4d683d	0.050148237
1	0x3e7d9dc5	0.24767216
2	0xbd466b02	-0.048441894
3	0x3e6de01d	0.23230024
4	0xbe5543e9	-0.20826687
5	0x3e0c86c7	0.13723288
6	0xbe4c89cb	-0.19974439
7	0x3e6a74d3	0.22896127
8	0x3ed79ae6	0.42110366
9	0xbe84ec94	-0.25961745
10	0x3e4f31be	0.20233819
11	0x3df3123c	0.11868712
12	0x3d71bb91	0.059016768
13	0xbe89aecb	-0.2689117
14	0xbe58a9d2	-0.21158531
15	0xbd064da6	-0.032788895
16	0x3e39b615	0.18135865
17	0x3e780f8e	0.24224684
18	0xbdbabae0	-0.09117675
19	0xbd21b0c1	-0.039475206
20	0xbe76adcf	-0.2408974
21	0x3dad1620	0.08451486
22	0xbe12c9ed	-0.14334841
23	0x3e177e2c	0.14794225
24	0xbea71013	-0.3262945
25	0xbe99dcf9	-0.300514
26	0xbe5221a4	-0.20520645
27	0xbda7779b	-0.0817711
28	0x3d4587c7	0.04822519
29	0x3e659b66	0.22422561
30	0x3d775f62	0.0603937
31	0xbebf3296	-0.37343282
32	0xbe272a20	-0.16324663
33	0x3e8b3053	0.27185306
34	0xbbc75fba	-0.0060844095
35	0x3e406c4e	0.18791315
36	0xbd26b75f	-0.04070222
37	0x3d912d08	0.07088667
38	0x3eb628a2	0.35577875
39	0x3d23c799	0.039985273
40	0x3e37f7cf	0.17965625
41	0xbeb5fd9f	-0.3554506
42	0x3e01d2ba	0.12678042
43	0x3e848550	0.2588296
44	0x3e850a84	0.25984585
45	0xbe7e35a6	-0.24825153
46	0x3e1d7aee	0.15378925
47	0x3dc0a7a2	0.094069734
48	0x3c27502c	0.010211986
49	0xbe56e815	-0.2098697
50	0xbece3a8e	-0.4027905
51	0xbd78ef91	-0.060775343
52	0xbea63cdd	-0.3246831
53	0x3e9438bb	0.28949532
54	0xbd991005	-0.074737586
55	0xbbf06fbf	-0.00733754
56	0x3e93208d	0.28735772
57	0xbd3f4318	-0.046694845
58	0x3ea5dbc7	0.3239424
59	0xbe8ffd42	-0.28122908
60	0xbe7839fe	-0.24240872
61	0xbee4d17d	-0.44691077
62	0x3eb2488c	0.34820974
63	0xbeb4c8b9	-0.3530939
64	0xbe2ba11c	-0.16760677
65	0x3b9b6003	0.00474167
66	0x3e94489a	0.2896164
67	0x3d866a1e	0.06563209
68	0xbd54f852	-0.05199463
69	0xbe50c70e	-0.20388433
70	0x3d5fe3a8	0.05466047
71	0x3ec1091a	0.37702256
72	0x3ca77802	0.020442966
73	0xbe718943	-0.23587517
74	0xbef33546	-0.47501582
75	0xbe13f97b	-0.14450638
76	0xbe038650	-0.12844205
77	0x3d736eda	0.05943189
78	0x3ea8d0d9	0.32971838
79	0x3dd27571	0.102763064
80	0xbe8af145	-0.271372
81	0xbdb5d856	-0.088791534
82	0xbdb1198c	-0.08647451
83	0x3da5cae5	0.0809534
84	0x3e508637	0.20363699
85	0x3db34fdc	0.08755466
86	0x3e407c96	0.18797526
87	0xbdd6bc55	-0.1048514
88	0xbd9143e5	-0.07093028
89	0x3e27de67	0.16393434
90	0x3d336d38	0.04380533
91	0x3d944d68	0.072413266
92	0x3eab6ba3	0.33480558
93	0x3dfd0e41	0.12356234
94	0xbe6939f2	-0.2277601
95	0xbdddec4c	-0.10836086
96	0x3dfcf543	0.123514675
97	0xbdc2af75	-0.09506122
98	0xbeb3df2d	-0.35131207
99	0xbe576e26	-0.21038112
100	0xbe51a53e	-0.20473191
101	0xbd7fbfb5	-0.062438685
102	0xbd84603f	-0.0646367
103	0xbda679a5	-0.081286706
104	0xbe3983ef	-0.18116735
105	0xbdb0c7dc	-0.0863187
106	0xbdf552be	-0.119786724
107	0xbccf5424	-0.025308676
108	0x3d946a0e	0.07246791
109	0xbd79c4f2	-0.060978837
110	0x3dc8c4bf	0.09803151
111	0xbe4cca20	-0.1999898
112	0xbd681c1b	-0.05666743
113	0xbe53af59	-0.20672359
114	0xbed39e4f	-0.41331717
115	0x3dd76d50	0.105188966
116	0x3d42440c	0.047428176
117	0xbdabde38	-0.08391994
118	0x3e178e86	0.14800462
119	0xbec18ef8	-0.3780439
120	0xbe7b0764	-0.24514538
121	0x3dc510fe	0.09622382
122	0x3dce803a	0.10083051
123	0x3d0d1dec	0.034452364
124	0xbe021d9c	-0.12706608
125	0xbedd2596	-0.43192738
126	0x3d04ab88	0.032390147
127	0xbdc94b5d	-0.098288275
128	0x3ecc3caa	0.39890033
129	0x3e82ce2d	0.25547925
130	0x3d84d88c	0.064866155
131	0x3cef0377	0.029176457
132	0xbed7e348	-0.4216559
133	0x3f1a93ed	0.60381967
134	0xbdb375b5	-0.08762685
135	0xbdba1d4f	-0.090876214
136	0xbe4e3303	-0.20136647
137	0xbf034ff3	-0.5129387
138	0x3eaa6aa3	0.33284482
139	0x3e21077e	0.15725514
140	0x3ebd352b	0.36954626
141	0xbe811be6	-0.25216597
142	0x3e2f8db2	0.17143896
143	0x3e83eaba	0.2576502
144	0x3e26e3a0	0.1629777
145	0xbe06c9bc	-0.13162893
146	0x3e9f909d	0.3116502
147	0x3d714c82	0.058910854
148	0xbe1719a0	-0.14755869
149	0xbe6e46ec	-0.23269242
150	0xbe8015d8	-0.25016665
151	0xbd980013	-0.07421889
152	0xbb29748a	-0.0025856816
153	0xbe979734	-0.29607546
154	0x3c07d8a3	0.008291396
155	0xbe8c1499	-0.27359465
156	0x3ccf2c49	0.025289671
157	0xbd74fb2d	-0.059809852
158	0x3e2979ac	0.1655032
159	0xbd88fe34	-0.066891104
160	0x3c50eed0	0.01275225
161	0xbe7ccf5b	-0.24688475
162	0x3e63b3fe	0.2223663
163	0xbe0e6366	-0.13905105
164	0xbd0b3180	-0.033982754
165	0xbdb61f92	-0.0889274
166	0x3dcf960e	0.101360425
167	0x3edce365	0.43142238
168	0x3caeffb7	0.021362169
169	0x3ba3c6a3	0.0049980446
170	0xbc1929c6	-0.0093483385
171	0x3e9a01dc	0.30079544
172	0xbdc3ed74	-0.09566775
173	0xbdd85525	-0.10563115
174	0xbea01e3f	-0.31273076
175	0xbc564ea6	-0.013080275
176	0xbe96393c	-0.2934054
177	0xbe49f9cb	-0.19724195
178	0x3eadbd5f	0.3393354
179	0xbe1c20bd	-0.15246864
180	0x3d4ceebe	0.05003237
181	0xbe014adc	-0.12626213
182	0xbdff8837	-0.12477153
183	0xbe437afe	-0.19089887
184	0x3da653ba	0.08121438
185	0x3e0a635a	0.13514462
186	0x3e9bc219	0.30421522
187	0x3ae0bb8c	0.0017145737
188	0xbe2bc3d4	-0.16773921
189	0x3d90b7eb	0.070663296
190	0x3dc0f1d3	0.09421124
191	0xbd221866	-0.03957405
192	0x3eb97248	0.36220002
193	0x3e8d7630	0.27629232
194	0xbd6f8ea9	-0.05848566
195	0xbe7ff575	-0.24995978
196	0x3ce47a20	0.027890265
197	0xbec2db0d	-0.38057747
198	0xbe8b323f	-0.27186772
199	0x3d39a2e1	0.04532135
200	0xbda0481b	-0.07826253
201	0xbed64876	-0.41852158
202	0x3db07b6a	0.08617289
203	0x3e255652	0.1614621
204	0xbca021f1	-0.019547435
205	0xbe6f9dab	-0.2339999
206	0xbe6db3cf	-0.23213123
207	0xbe4576ad	-0.19283552
208	0xbe16ad86	-0.14714631
209	0x3e7e3bb3	0.24827461
210	0x3e5afe29	0.21386017
211	0x3d94e825	0.072708406
212	0xbe1204b8	-0.14259613
213	0xbbdac31a	-0.00667609
214	0xbe3f1cbf	-0.1866331
215	0x3e3c22b4	0.18372613
216	0x3c9ab6b4	0.018885948
217	0xbcab3ec1	-0.020903947
218	0x3eaf5280	0.3424263
219	0xbd423421	-0.047412995
220	0xbe0080ec	-0.1254918
221	0x3e8dcbce	0.27694553
222	0xbe8a9521	-0.270669
223	0x3e85a3cf	0.2610154
224	0xbe4b641f	-0.19862412
225	0x3e866bb2	0.2625404
226	0x3e5b3a7e	0.21409032
227	0x3e48319d	0.19550176
228	0xbdc34381	-0.0953436
229	0x3d69ef6d	0.0571131
230	0xbc249201	-0.010044576
231	0xbe19bc65	-0.15013273
232	0x3c0e9e89	0.00870479
233	0x3d963640	0.07334566
234	0x3d0212f6	0.031756364
235	0xbdb6136e	-0.08890425
236	0xbe672fa3	-0.22576766
237	0xbd0229c0	-0.031778097
238	0x3d7ba20a	0.06143383
239	0xbc902d3b	-0.017599693
240	0xbd493000	-0.049118042
241	0xbd8a2484	-0.06745246
242	0x3b391097	0.0028238648
243	0x3d5b6f45	0.05357291
244	0xbe279ef2	-0.16369227
245	0x3ca72b6a	0.020406444
246	0xbd7455ae	-0.059652023
247	0xbe0ad9ed	-0.13559695
248	0xbd88ec8e	-0.06685744
249	0x3e0ce2c5	0.1375838
250	0xbe17e4e9	-0.14833416
251	0xbeb70771	-0.35747865
252	0xbe4fee43	-0.20305733
253	0x3dd95120	0.106111765
254	0xbe480f36	-0.19537053
255	0xbed46b7f	-0.41488263

generator.0.bias f4 [128]
0	0x3f001176	0.50026643
1	0x3e901f7a	0.28149015
2	0x3e9ca256	0.30592602
3	0xbe9a7536	-0.3016755
4	0xbf295e34	-0.6615937
5	0x3e7cf8b9	0.24704255
6	0x3f15e76f	0.58556265
7	0xbe2ca5b2	-0.16860083
8	0xbec965bb	-0.39335427
9	0x3cdedf37	0.027206047
10	0x3f54f477	0.83185524
11	0xbe990e8a	-0.29893905
12	0x3e766724	0.24062783
13	0xbf4fb4a9	-0.8113504
14	0x3e4e05ef	0.20119451
15	0x3ed13e60	0.408679
16	0xbea6cd59	-0.32578543
17	0x3e83cb96	0.2574126
18	0x3ba46a14	0.0050175283
19	0x3c9ce4b6	0.019152027
20	0x3beda0d7	0.0072518396
21	0xbeb43068	-0.3519318
22	0xbf2ef225	-0.68338233
23	0x3e4f5b3c	0.20249647
24	0xbe71fb95	-0.23631127
25	0x3e16b73c	0.14718336
26	0xbee20212	-0.44142205
27	0xbf14114d	-0.578389
28	0x3ecafb5b	0.39644894
29	0xba751c28	-0.0009350204
30	0x3cf92804	0.030414589
31	0xbda44e61	-0.08022762
32	0xbe99b158	-0.30018115
33	0x3e73e6c6	0.23818502
34	0xbf13dd3f	-0.5775947
35	0x3e43c244	0.19117075
36	0xbf9b927b	-1.2154077
37	0x3df157a2	0.11784293
38	0x3da76174	0.081728846
39	0x3ee2cfa3	0.4429904
40	0x3eae2dbf	0.34019276
41	0x3f02b6b3	0.51060027
42	0xbf055769	-0.520865
43	0x3e4e4938	0.20145118
44	0x3e653a94	0.22385627
45	0xbefe4bc8	-0.49667192
46	0xbe837aef	-0.25679728
47	0xbf85de47	-1.0458459
48	0xbe94a18e	-0.29029506
49	0xbf8703dc	-1.0548053
50	0xbe3e0917	-0.18558155
51	0xbf660ba3	-0.89861506
52	0xbe13be57	-0.14428078
53	0x3d13b111	0.036057536
54	0x3e49e698	0.19716871
55	0x3daa353c	0.08310935
56	0xbe8a3087	-0.26990148
57	0xbd985988	-0.07438952
58	0xbf0c602c	-0.54834247
59	0xbf5254b8	-0.8216052
60	0x3c9f2721	0.019427838
61	0xbf163e9b	-0.5868928
62	0xbed4dc9b	-0.4157456
63	0xbf01c7a6	-0.50695264
64	0x3dfb3103	0.122652076
65	0xbf039e07	-0.51413006
66	0x3eb29328	0.34877896
67	0xbe4fe41d	-0.20301862
68	0xbedec7a9	-0.43511704
69	0xbf57ae04	-0.842499
70	0x3eb82dcf	0.3597245
71	0xbf54566d	-0.82944375
72	0x3ea117b8	0.31463408
73	0xbe15ec8a	-0.14641014
74	0x3e85c3ff	0.26126096
75	0x3e89bb41	0.26900676
76	0xbf61b06a	-0.8815981
77	0x3ede2cb9	0.43393496
78	0xbf19db0f	-0.6009988
79	0xbf1db5c8	-0.616055
80	0xbed3c11a	-0.41358262
81	0xbd797cf7	-0.06091019
82	0x3d04ab62	0.032390006
83	0xbf50884d	-0.8145798
84	0xbf548a0d	-0.8302315
85	0xbef43e46	-0.4770376
86	0x3cf6eeb6	0.030143123
87	0x3d6dfbcd	0.058101464
88	0xbf6390f5	-0.8889306
89	0x3ed09e1e	0.40745634
90	0xbeddb5eb	-0.43302855
91	0x3df7498e	0.12074576
92	0x3d63ae44	0.055586115
93	0xbf89218b	-1.0713362
94	0x3e84fb56	0.25973004
95	0xbebf0798	-0.3731048
96	0xbef83e62	-0.48485094
97	0x3e25ab4f	0.1617863
98	0x3cea142f	0.028574077
99	0x3db0b5dc	0.08628437
100	0x3de11961	0.10991169
101	0x3df49bf5	0.11943809
102	0x3c94dd50	0.018171936
103	0xbf002b66	-0.5006622
104	0xbf2bb148	-0.67067385
105	0x3eb2b477	0.3490331
106	0x3f1517e9	0.5823961
107	0x3e9ec021	0.31005958
108	0xbe28098f	-0.16409896
109	0x3dcdf23b	0.100559674
110	0x3f074072	0.5283271
111	0xbec09703	-0.37615213
112	0xbf64c193	-0.8935787
113	0x3eca781b	0.39544758
114	0xbe17e67b	-0.14834015
115	0xbe3725cb	-0.1788551
116	0x3eba18ac	0.36346948
117	0xbf0bc13a	-0.54591715
118	0x3e090336	0.13380131
119	0xbf12a50c	-0.5728309
120	0xbefb029d	-0.4902543
121	0x3eb72191	0.35767797
122	0xbd83ee40	-0.06441927
123	0xbeace296	-0.3376662
124	0xbf326345	-0.69682723
125	0xbf040f2a	-0.5158564
126	0xbdd7b7c8	-0.105331
127	0x3f21b2f9	0.63163716

generator.3.weight f4 [784, 128]
0	0xbda2ba97	-0.079457454
1	0x3dd3b153	0.10336556
2	0xbcebc0e4	-0.0287785
3	0xbdd85e82	-0.10564901
4	0x3dbb7760	0.09153628
5	0xbe21f6b8	-0.15816772
6	0xbe005b2c	-0.1253478
7	0x3ca5dc07	0.020246519
8	0xbd2b3322	-0.04179681
9	0xbda4c468	-0.08045274
10	0xbe0a69c4	-0.13516909
11	0x3dbd8ba8	0.09255153
12	0x3d524ee1	0.051344756
13	0x3cc9ac0f	0.024618177
14	0xbe111870	-0.14169478
15	0x3c188aa5	0.009310399
16	0xbd9a5f5a	-0.07537718
17	0xbe1d903f	-0.15387057
18	0xbdfcfb23	-0.12352588
19	0xbe15989c	-0.14608997
20	0xbc721a59	-0.01477679
21	0xbd385467	-0.045002367
22	0xbd748f67	-0.05970707
23	0x3cb7eb52	0.022451077
24	0xbe0ca756	-0.13735709
25	0xbb234987	-0.0024915652
26	0xbd0f80b4	-0.03503485
27	0xbd3e5f7b	-0.046477776
28	0xbe39d42e	-0.18147346
29	0xbc089979	-0.008337372
30	0xbe19f294	-0.15033942
31	0x3d1612e5	0.036639113
32	0x3c9c0eb6	0.019049983
33	0xbe507e0f	-0.20360588
34	0x3da8d204	0.08243182
35	0xbe15e3c9	-0.14637674
36	0x3dd766c2	0.10517646
37	0x3d09f4ee	0.03368085
38	0xbd22dce2	-0.03976143
39	0xbde9a758	-0.114088714
40	0xbda5f37e	-0.08103083
41	0x3c0ea70b	0.008706818
42	0xbd4e881a	-0.050422765
43	0x3ca6b340	0.020349145
44	0xbe229d37	-0.15880285
45	0xbd459ce5	-0.04824533
46	0x3bf33b56	0.007422845
47	0x3bbfded4	0.0058554206
48	0x3d2d9a1a	0.04238329
49	0xbd2f7c4f	-0.04284316
50	0x3dbf8855	0.09352175
51	0xbd48a5a9	-0.04898611
52	0xbc46e99b	-0.012140657
53	0xbc48e710	-0.012262121
54	0x3d14e8c7	0.036354806
55	0xbe66953b	-0.22517864
56	0xbdad9482	-0.08475591
57	0xbcc06437	-0.023485286
58	0x3dcf7ed8	0.101316154
59	0xbccac2e9	-0.024751144
60	0xbd1ed94e	-0.038781457
61	0x3de98ff3	0.11404409
62	0x3da975bf	0.082744114
63	0xbc7b4315	-0.015335818
64	0x3d17a238	0.03701994
65	0x3b0b3dc6	0.0021246537
66	0x3d99d22d	0.07510791
67	0xbd81c7a5	-0.06336907
68	0x3d687625	0.056753296
69	0xbd46a247	-0.048494603
70	0xbdaff75e	-0.085921034
71	0xbcb0c502	-0.021578316
72	0x3cb1d893	0.021709716
73	0xbd764dc6	-0.060132764
74	0x3d2bf57c	0.04198216
75	0xbe2bb825	-0.16769464
76	0xbe2b4cb8	-0.16728485
77	0xbe2bd4e6	-0.16780433
78	0x3d4a7f01	0.049437527
79	0xbcb2c368	-0.021821693
80	0xbcb35c8e	-0.02189472
81	0x3ce257c8	0.027629748
82	0xbd1b6621	-0.037939195
83	0x3e156a56	0.14591345
84	0xbd939229	-0.07205612
85	0xbdfcdb48	-0.12346512
86	0xbd633f02	-0.05548001
87	0x3da5581f	0.080734484
88	0x3e0e2a4e	0.13883325
89	0xbe5d7497	-0.21626507
90	0x3d0aa381	0.033847336
91	0xbcb7f4b6	-0.022455554
92	0xbe29f879	-0.16598691
93	0x3e156c34	0.14592057
94	0x3d0ec6db	0.034857612
95	0xbd477fd3	-0.048705887
96	0xbdb52534	-0.088449866
97	0x3e0785f0	0.13234687
98	0xbe55b682	-0.20870402
99	0xbe2a2309	-0.16614927
100	0x3d281cc6	0.041043065
101	0xbd28e484	-0.041233554
102	0x3d683cf8	0.05669877
103	0xbb93d55a	-0.0045115175
104	0x3d6fada7	0.058515217
105	0xbdfd3969	-0.12364466
106	0xbc64b478	-0.013959043
107	0xbd76b41b	-0.060230356
108	0xbddd6d9e	-0.108119234
109	0xbc31ff37	-0.010864071
110	0xbc8f18ce	-0.017467882
111	0x3d7a8347	0.061160352
112	0xbdbc2a92	-0.09187807
113	0xbe4c7690	-0.19967103
114	0xbe8018ec	-0.25019014
115	0x3d3dcd97	0.046338644
116	0xbda155f8	-0.07877725
117	0xbcfd132e	-0.030892935
118	0xbc034cf1	-0.00801395
119	0xbca9ff0d	-0.0207515
120	0xbdb9cb6a	-0.09072001
121	0x3cf4b3d6	0.029870909
122	0xbbf844b4	-0.0075765494
123	0x3db2d9ae	0.08732925
124	0x3d45a6a0	0.04825461
125	0x3d885ae9	0.06657965
126	0x3c7e6424	0.015526805
127	0xbda4d2c6	-0.08048014
128	0xbc89eb4b	-0.01683583
129	0xbdfbf6c2	-0.12302925
130	0xbdd1120b	-0.102085195
131	0x3d64f563	0.05589808
132	0x3d7a4584	0.06110145
133	0xbe120837	-0.14260946
134	0x3db0b796	0.08628766
135	0xbde5b237	-0.112156324
136	0x3de04981	0.1095152
137	0xbcc58632	-0.02411184
138	0xbe69cbac	-0.22831601
139	0xbe0686e0	-0.13137388
140	0xbdd4e5b7	-0.10395377
141	0x3d18db5a	0.037318565
142	0x3ddd60f5	0.10809509
143	0xbde6366a	-0.112408474
144	0xbe0987c5	-0.13430698
145	0x3d8e0041	0.06933642
146	0x3cc87e08	0.024474159
147	0xbe4497cf	-0.19198535
148	0xbe243178	-0.16034496
149	0x3c9132f5	0.017724494
150	0x3c4282a7	0.01187197
151	0xbcc8d523	-0.024515694
152	0xbcbf4f7e	-0.023353335
153	0xbe12b077	-0.14325128
154	0xbe1aa655	-0.15102513
155	0xbe0e8015	-0.13916047
156	0x3cebf3f8	0.028802857
157	0xbe81ddf2	-0.25364643
158	0xbdab29cd	-0.08357582
159	0x3d9c2208	0.076236784
160	0xbdbbaef2	-0.091642275
161	0xbe0ab5e2	-0.13545945
162	0xbdd8d45d	-0.1058738
163	0x3b02941b	0.0019924704
164	0xbe2089d3	-0.15677576
165	0x3dd12e7e	0.10213946
166	0xbdb7f169	-0.08981592
167	0xbdef7768	-0.11692697
168	0xbe4789a7	-0.19486104
169	0x3d370bb9	0.044688914
170	0xbd2ac38a	-0.041690387
171	0xbca99762	-0.020702068
172	0x3c2ed38a	0.010670552
173	0xbe0cab17	-0.1373714
174	0xbc8d77e3	-0.01726908
175	0x3cff4891	0.031162532
176	0xbd86f884	-0.06590369
177	0xbd0fc74a	-0.035102166
178	0xbe40555a	-0.18782559
179	0xbe4848c0	-0.19559002
180	0x3db03667	0.086041264
181	0xbe6492e1	-0.22321655
182	0x3d414200	0.047182083
183	0xbda9a277	-0.08282941
184	0x3cfc50f4	0.03080032
185	0x3c379684	0.011205319
186	0xbd1ead25	-0.038739342
187	0xbc6e95b2	-0.014562057
188	0x3d2f9918	0.04287061
189	0xbdb517e9	-0.08842451
190	0xbd2dcabd	-0.042429674
191	0x3d8dc3b1	0.06922091
192	0xbdd270cf	-0.10275423
193	0xbc5b2527	-0.013375557
194	0x3dd78c73	0.105248354
195	0xbdf7d0bb	-0.12100359
196	0xb936ee27	-0.00017445591
197	0x3dd4164f	0.103558175
198	0xbd63119b	-0.05543671
199	0x3d311f96	0.043243013
200	0xbc5d634f	-0.013512447
201	0x3cea9ca1	0.02863914
202	0xbdac0f05	-0.08401302
203	0x3dc5dee8	0.096616566
204	0x3c7a914a	0.015293429
205	0xbdf24b3a	-0.118307546
206	0xbe837672	-0.25676304
207	0x3cadfbda	0.021238256
208	0x3ca6f3fb	0.02038001
209	0x3d69b818	0.05706033
210	0xbd72fd16	-0.059323393
211	0xbda1e51e	-0.07905029
212	0xbd046ab1	-0.03232831
213	0x3d5055f6	0.05086323
214	0xbe0214ab	-0.12703197
215	0x3de5f104	0.11227611
216	0xbd33ea72	-0.043924756
217	0xbdbe7ebd	-0.09301517
218	0x3defdd6f	0.11712157
219	0xbcd53b56	-0.02602927
220	0xbdf6ae00	-0.120449066
221	0xbd88e41e	-0.06684135
222	0xbc802f3c	-0.015647523
223	0xbdcbddb9	-0.099543996
224	0xbe077b50	-0.13230634
225	0xbdb8b707	-0.09019285
226	0x396a0a53	0.00022319825
227	0x3e0c4ce8	0.13701212
228	0xbdabca3f	-0.08388185
229	0x3d84da0b	0.06486901
230	0xbcc98070	-0.024597377
231	0x3d36e0b1	0.044647876
232	0x3d11cfca	0.035598554
233	0x3c44430e	0.011978878
234	0xbd7e3e16	-0.06207093
235	0x3c10abf7	0.008830062
236	0xbc40a3f5	-0.01175784
237	0xbe2ced75	-0.16887458
238	0xbed16f59	-0.40905264
239	0x3b9dc094	0.004814217
240	0x3d19532e	0.037432842
241	0xbe235c6e	-0.15953228
242	0xbe13c89b	-0.14431994
243	0xbd99367f	-0.074810974
244	0xbc1b9d68	-0.009497978
245	0xbdbe6149	-0.092958994
246	0xbd147194	-0.03624113
247	0xbd50f2ec	-0.05101292
248	0x3d59d8d7	0.05318531
249	0x3c93d99a	0.018048096
250	0xbe0f592f	-0.13998865
251	0xbe18677f	-0.1488323
252	0x3d7ad3d2	0.061237164
253	0x3d4c155d	0.04982506
254	0xbe00596c	-0.12534112
255	0xbd88bec7	-0.06677013

generator.3.bias f4 [784]
0	0xbe081674	-0.13289815
1	0xbde343e7	-0.11096936
2	0xbe28e101	-0.16492082
3	0xbca166d5	-0.019702354
4	0xbe2562be	-0.16150948
5	0xbdc554f5	-0.09635345
6	0xbc8041ec	-0.015656434
7	0xbe2f5022	-0.17120412
8	0xbe23aa80	-0.1598301
9	0xbe5bcb8b	-0.21464364
10	0xbe26ce39	-0.16289605
11	0xbe5446b4	-0.20730096
12	0xbe32d44f	-0.17463802
13	0xbdc33162	-0.095309034
14	0xbd18d4bb	-0.03731225
15	0xbe4906fd	-0.19631572
16	0x3cd48e80	0.025946856
17	0xbd6b8042	-0.057495363
18	0xbdb30b84	-0.08742431
19	0xbe13aa2a	-0.14420381
20	0xbdcf3255	-0.10117022
21	0xbd3c66aa	-0.045996346
22	0xbd90adbe	-0.07064389
23	0xbe2af256	-0.16694006
24	0xbe26d311	-0.16291453
25	0xbdcabdfa	-0.098995164
26	0xbdb7117c	-0.08938882
27	0xbe1f9cbb	-0.15587132
28	0xbe245def	-0.16051458
29	0xbe343e61	-0.1760192
30	0xbd8025bd	-0.06257198
31	0xbdde4ccf	-0.10854494
32	0xbe2aa9a4	-0.16666275
33	0xbe407a0f	-0.18796562
34	0xbe00ba66	-0.12571105
35	0xbde735bb	-0.11289545
36	0xbe044729	-0.1291777
37	0xbe55ec06	-0.20890817
38	0xbdce12cf	-0.10062181
39	0xbdc1ac0b	-0.09456643
40	0xbe22824a	-0.15870014
41	0xbe51ae68	-0.20476687
42	0xbd85103c	-0.06497237
43	0xbdf6db86	-0.120535895
44	0xbdd9e12b	-0.106386505
45	0xbe6bdd32	-0.23033598
46	0xbde72a84	-0.11287406
47	0xbdb9afe1	-0.09066749
48	0xbe49c7a2	-0.1970506
49	0xbdcfa520	-0.10138917
50	0xbe190558	-0.14943445
51	0xbe709b97	-0.23496853
52	0xbe44e828	-0.19229186
53	0xbe71f144	-0.23627192
54	0xbdb87a5b	-0.090077125
55	0xbd834419	-0.06409473
56	0xbe428928	-0.18997633
57	0xbe6c2b3b	-0.23063366
58	0xbe260efb	-0.16216652
59	0xbe55ccc4	-0.20878893
60	0xbde15c14	-0.11003891
61	0xbe0ca7a2	-0.13735822
62	0xbe14ed25	-0.14543588
63	0xbdc6513b	-0.09683462
64	0xbd56d2c8	-0.05244711
65	0xbe467cf3	-0.19383602
66	0xbd464fb8	-0.04841587
67	0xbe48840b	-0.1958162
68	0xbdeeed30	-0.11666334
69	0xbe7c6399	-0.24647368
70	0xbe36ff5a	-0.17870846
71	0xbe36504d	-0.1780407
72	0xbe014182	-0.12622645
73	0xbdee10fa	-0.11624332
74	0xbe40bae1	-0.18821289
75	0xbe333674	-0.17501241
76	0xbde5da84	-0.11223319
77	0xbe374369	-0.17896809
78	0xbe19650c	-0.14979953
79	0xbe621309	-0.22077574
80	0xbd40e3d5	-0.047092278
81	0xbdf5d049	-0.12002618
82	0xbdfa1901	-0.122118
83	0xbe07e591	-0.13271166
84	0xbe35499f	-0.17703865
85	0xbe388481	-0.18019296
86	0xbe7a1513	-0.24422102
87	0xbdb6408f	-0.08899032
88	0xbe2163a2	-0.15760663
89	0xbe0b0694	-0.13576728
90	0xbddabdd5	-0.10680739
91	0xbdd92845	-0.10603384
92	0xbde15fec	-0.11004624
93	0xbe1d286e	-0.15347454
94	0xbddefcfb	-0.10888096
95	0xbe680fd3	-0.22662286
96	0xbdb92a90	-0.09041321
97	0xbdf265c5	-0.11835817
98	0xbe0743d5	-0.1320947
99	0xbe36c1f8	-0.1784743
100	0xbe6ed1c4	-0.23322207
101	0xbe16ee0c	-0.14739245
102	0xbe752cb4	-0.23942834
103	0xbe1ddcdf	-0.15416287
104	0xbe3bb9da	-0.18332615
105	0xbe02b8e1	-0.12765838
106	0xbe57de5b	-0.21080916
107	0xbd020fdb	-0.031753402
108	0xbdf88d0a	-0.12136276
109	0xbe52e03a	-0.20593348
110	0xbe428df3	-0.18999462
111	0xbe2bd15b	-0.16779082
112	0xbdf5fc52	-0.12011017
113	0xbd922c6c	-0.07137379
114	0xbdb855e1	-0.09000755
115	0xbd9676b8	-0.073468626
116	0xbe03a1d9	-0.12854709
117	0xbde95766	-0.11393623
118	0xbd45e5e0	-0.04831493
119	0xbe2b7cde	-0.16746852
120	0xbc5793ef	-0.013157829
121	0xbdcf0b40	-0.10109568
122	0xbd477096	-0.048691355
123	0xbdb33bc5	-0.087516345
124	0xbcfb8334	-0.030702211
125	0xbd490c3c	-0.049083933
126	0xbe1c7358	-0.15278375
127	0xbe04fb6c	-0.12986535
128	0xbc5e663b	-0.013574178
129	0xbd0fb72d	-0.0350868
130	0xbdc1110d	-0.0942708
131	0xbde21268	-0.11038667
132	0xbdecac2b	-0.11556276
133	0xbdfc0686	-0.12305932
134	0xbe0785e6	-0.13234672
135	0xbd914c6a	-0.07094653
136	0xbdebe150	-0.11517584
137	0xbe240836	-0.16018757
138	0xbe55f814	-0.20895416
139	0xbe202d74	-0.15642339
140	0xbe1ada9b	-0.15122454
141	0xbe7c7d70	-0.24657226
142	0xbe01dbbd	-0.1268148
143	0xbe29527a	-0.16535369
144	0xbdd83ee5	-0.10558871
145	0xbd978cb6	-0.07399885
146	0xbe5aec80	-0.2137928
147	0xbd353fb6	-0.044250213
148	0xbda5e56c	-0.081003994
149	0xbda74a3d	-0.08168457
150	0xbd08e577	-0.03342196
151	0xbadb7026	-0.0016741797
152	0x3c81edbf	0.015860436
153	0x3c192fac	0.009349745
154	0xbc8440e7	-0.01614423
155	0xbd406bb1	-0.046977703
156	0xbd8ca148	-0.068666995
157	0x3d6c42a9	0.05768076
158	0xbc816244	-0.015793927
159	0xbd8a9dd6	-0.06768386
160	0xbe48a9f4	-0.19596082
161	0xbdf65393	-0.12027659
162	0xbe49d6a1	-0.1971078
163	0xbda847ce	-0.08216821
164	0xbdf3fcac	-0.11913428
165	0xbda6e8bc	-0.08149859
166	0xbe5100b4	-0.20410424
167	0xbd5f46ae	-0.054510765
168	0xbe1f8af7	-0.15580355
169	0xbe5a801f	-0.21337937
170	0xbe3d2eeb	-0.18474929
171	0xbd7247fd	-0.059150685
172	0xbdd772ef	-0.10519969
173	0xbe1ef28f	-0.15522216
174	0xbe04a5a6	-0.12953815
175	0xbe09f010	-0.13470483
176	0xbcc75b56	-0.024335545
177	0x3cbc6f92	0.02300242
178	0xbd292a37	-0.041300025
179	0xbda3cf7b	-0.07998558
180	0xbd61bb2f	-0.055110153
181	0xbd4c9547	-0.04994705
182	0x3d8137b0	0.0630945
183	0x3d8bf7a3	0.06834342
184	0x3c4ebdf9	0.012618535
185	0x3d8d3bcd	0.06896172
186	0xbce82d85	-0.028342018
187	0xbc113428	-0.008862533
188	0xbddf7e68	-0.10912782
189	0xbd983d1a	-0.07433529
190	0xbdc5fd9a	-0.09667511
191	0xbe496b07	-0.19669734
192	0xbdd919bb	-0.10600611
193	0xbe6a2d05	-0.22868736
194	0xbe09961b	-0.13436167
195	0xbe546b05	-0.2074395
196	0xbe33a9ea	-0.17545286
197	0xbca83777	-0.02053426
198	0xbe367e78	-0.17821681
199	0xbe38b075	-0.18036063
200	0xbd923d48	-0.07140595
201	0xbda11392	-0.07865061
202	0xbd860a19	-0.06544895
203	0xbdadfffe	-0.08496092
204	0xbd73eb57	-0.05955061
205	0xbe1124d5	-0.14174207
206	0xbd7a8ed7	-0.06117138
207	0x3d6afe78	0.057371587
208	0x3ce7d74d	0.028300906
209	0xbd79be79	-0.060972665
210	0x3d4003d5	0.046878655
211	0x3bcff5a5	0.006346422
212	0x3dbd52d8	0.09244317
213	0x3aee75f8	0.0018193116
214	0xbd96234c	-0.07330951
215	0xbcdaa7c5	-0.026691327
216	0x3ce048d0	0.02737847
217	0xbde9b7dc	-0.114120215
218	0xbe76374c	-0.24044532
219	0xbe23f2b4	-0.16010553
220	0xbe01f6af	-0.12691759
221	0xbe484a9d	-0.19559713
222	0xbddb952b	-0.10721811
223	0xbe16c8b3	-0.14724998
224	0xbe444d4b	-0.1917011
225	0xbd7f3b4a	-0.0623124
226	0xbdcb7ef4	-0.09936324
227	0xbe25c277	-0.16187464
228	0xbe2e863e	-0.17043397
229	0xbd1c12f6	-0.03810402
230	0xbd37197d	-0.044702042
231	0xbe331343	-0.17487817
232	0xbe30cac2	-0.17264846
233	0xbcec772a	-0.028865416
234	0xbd2fecc4	-0.042950407
235	0x3c600bef	0.01367472
236	0x3d832cca	0.06405027
237	0x3ca38fbe	0.019966003
238	0x3da91053	0.08255067
239	0x3d4d91eb	0.050187986
240	0x3c286e98	0.010280274
241	0x3c38e1f5	0.011284341
242	0x3c843fd8	0.016143724
243	0xbddf8ec6	-0.10915904
244	0x3d178edc	0.037001476
245	0xbdf3a295	-0.118962444
246	0xbe0fbff4	-0.14038068
247	0xbdeefb79	-0.11669058
248	0xbd4732f4	-0.048632577
249	0xbe57f444	-0.21089274
250	0xbe4fdd63	-0.20299296
251	0xbe0a78cc	-0.13522643
252	0xbe036ecd	-0.12835236
253	0xbe107f74	-0.1411112
254	0xbe326668	-0.17421877
255	0xbe155525	-0.14583261

discriminator.1.weight f4 [128, 784]
0	0x3d11fd18	0.03564176
1	0x3c705943	0.014669719
2	0x3b8188c5	0.003953072
3	0x3bb49136	0.0055104746
4	0x3ced2a3e	0.028950807
5	0x3d2e38db	0.04253469
6	0x3c031b9b	0.008002187
7	0x3d4f9fda	0.050689556
8	0x3bec6d91	0.00721521
9	0x3c016cb4	0.007899452
10	0x3d25b4ae	0.040455513
11	0xbb245887	-0.002507718
12	0x3d287f03	0.041136753
13	0x3c604260	0.0136877
14	0x3b11072f	0.0022129526
15	0x3ca5c017	0.020233197
16	0x3c10b3a6	0.008831894
17	0x3d2e8dbf	0.04261565
18	0x3d08f4da	0.033436634
19	0x3d507a97	0.05089816
20	0x3d25d3fc	0.040485367
21	0x3d159be0	0.036525607
22	0x3c0d1845	0.008611743
23	0x3d059219	0.032610033
24	0xbb93eaeb	-0.0045140884
25	0x3c7d1870	0.015447721
26	0x3cb38f77	0.021918995
27	0xbb57fbd6	-0.0032956502
28	0x3ced5cbc	0.028974883
29	0x3cf792bd	0.030221337
30	0x3d186672	0.037207074
31	0x3c1bffaf	0.009521409
32	0x3d103515	0.035206873
33	0x3d429bf5	0.047512013
34	0x3d0b4c3f	0.03400826
35	0x3d0b6222	0.034029134
36	0xbb914a5b	-0.0044339127
37	0x3c9a2016	0.018814128
38	0x3cf9ea95	0.030507365
39	0x3d886df2	0.066615954
40	0x3d0b3ce1	0.033993606
41	0x3c99481a	0.018711139
42	0x3ce079f2	0.027401898
43	0x3cc03537	0.023462875
44	0x3cc5176d	0.024059022
45	0x3caec3e5	0.021333644
46	0x3c1e6423	0.009667429
47	0x3a3627b6	0.00069486664
48	0x3bfbdec0	0.007686466
49	0x3c3000b9	0.01074236
50	0x3d1d3310	0.038378775
51	0x3c9f1e67	0.019423677
52	0x392344ab	0.00015570472
53	0x3c912171	0.017716141
54	0x3bd3dce2	0.0064655403
55	0x3d3a3ab7	0.04546615
56	0x3d5be0a7	0.053681042
57	0x3c795a34	0.01521926
58	0xbb02b433	-0.0019943833
59	0xbb6c2a17	-0.003603583
60	0x3d585071	0.05281109
61	0x3cf19ddc	0.029494219
62	0x3c8a547d	0.01688599
63	0x3cb252a2	0.021767918
64	0x3c7c39ce	0.015394641
65	0xbb9560f5	-0.0045586773
66	0x3d30ff59	0.04321227
67	0x3cfd36b8	0.030909881
68	0x3d5c1d16	0.053738676
69	0x3cff9d70	0.031203002
70	0xbb9abb70	-0.0047220513
71	0x3c0df430	0.008664176
72	0x3cacef0f	0.021110086
73	0x3c788b39	0.015169912
74	0x3cc36cb6	0.023855548
75	0x3c28d083	0.010303619
76	0x3d5da871	0.054115716
77	0x3c8816e6	0.016612481
78	0x3c9558c9	0.018230813
79	0x3be967e9	0.0071229828
80	0x3d1777b2	0.036979385
81	0xbc0fba3b	-0.008772428
82	0x3d3d0d4e	0.046155266
83	0x3c9af833	0.018917179
84	0x3c398767	0.011323786
85	0x3d41b45f	0.047291156
86	0x3c256a53	0.01009615
87	0x3c35d79f	0.011098771
88	0x3c417b2c	0.011809152
89	0x3c4e223b	0.012581403
90	0x3cfe2d67	0.031027509
91	0x3c8ee175	0.01744149
92	0x3d330cfd	0.04371356
93	0x3d9f3c00	0.07775116
94	0x3d120a17	0.035654154
95	0x3d49c842	0.049263246
96	0x3d2ed393	0.04268224
97	0x3c93913a	0.018013585
98	0xbcb59a77	-0.022168381
99	0xbdc81a67	-0.09770661
100	0xbd99d181	-0.07510663
101	0xbce57810	-0.028011352
102	0xbcff8388	-0.031190649
103	0x3ccd29ce	0.025044348
104	0x3d0dab88	0.034587413
105	0x3c833321	0.016015591
106	0x3c58be72	0.013228999
107	0xbbd283cd	-0.0064244033
108	0x3d23f576	0.04002901
109	0x3ca238d6	0.019802492
110	0x3b407b05	0.00293702
111	0xbbc820d6	-0.00610743
112	0xbbb23a1c	-0.005439056
113	0x3d031167	0.031999018
114	0x3d052133	0.032502364
115	0x3b750bc2	0.0037391041
116	0x3c790eb3	0.0152012585
117	0x3d3cd534	0.046101764
118	0x3ce6d628	0.02817829
119	0x3cd7fc5a	0.026365448
120	0x3931ceef	0.00016957124
121	0xbb6b70c6	-0.0035925373
122	0x3badd077	0.005304392
123	0x3cbda22d	0.02314862
124	0x3ce779af	0.028256265
125	0xbdd1ab3a	-0.10237737
126	0xbe3c4df9	-0.18389119
127	0xbe1ded01	-0.15422441
128	0xbe1875a7	-0.14888631
129	0xbddbd7b1	-0.10734499
130	0xbd92ee7d	-0.07174394
131	0x3b9b35fc	0.00473666
132	0x3d34f2d0	0.044176877
133	0x3d1ea62a	0.038732685
134	0x3d608468	0.054813772
135	0x3c5fc468	0.013657667
136	0x3c83e79e	0.016101655
137	0x3c80e663	0.015734857
138	0x3cdc6ae9	0.026906447
139	0x3c80d045	0.01572431
140	0x3cf174f3	0.029474711
141	0x3d726be3	0.05918492
142	0x3d30283f	0.04300713
143	0x3bb0da47	0.0053971144
144	0x3d510c6e	0.051037244
145	0x3cc9dc32	0.02464113
146	0xbc1ce6cc	-0.009576511
147	0xbcccbe47	-0.024993075
148	0xbc1d05d0	-0.009583905
149	0x3a178421	0.00057798816
150	0xbb87d254	-0.004144946
151	0x3cbc0aa9	0.022954302
152	0xbd19980a	-0.03749851
153	0xbe088672	-0.13332537
154	0xbe6a4483	-0.22877698
155	0xbe670156	-0.22559103
156	0xbe919383	-0.28432855
157	0xbe7915f5	-0.24324782
158	0xbd39a098	-0.04531917
159	0x3d763aab	0.060114544
160	0x3dabdecc	0.083921045
161	0x3cc03096	0.023460668
162	0x3dba43cd	0.09094963
163	0x3d6f5387	0.058429267
164	0x3c923757	0.017848654
165	0x3d3294dc	0.043598995
166	0xbc4c2309	-0.012459525
167	0x3cefceac	0.029273354
168	0x3d213382	0.039355762
169	0x3cb33bf5	0.021879176
170	0x3d3a49df	0.045480605
171	0x3c065aa2	0.0082003195
172	0xbc243645	-0.0100227045
173	0xbc2909dc	-0.010317292
174	0xbc9cffa9	-0.019164877
175	0xbad28716	-0.0016061987
176	0xbc4353ee	-0.011921866
177	0xbbafbc4d	-0.0053630234
178	0x3c1c3daf	0.009536191
179	0x3c969a03	0.018383985
180	0xbc3fdb2a	-0.011709968
181	0xbe3b6bd7	-0.18302856
182	0xbe95e733	-0.29277954
183	0xbecb631c	-0.39724052
184	0xbed5ab98	-0.41732478
185	0xbe62f643	-0.22164254
186	0x3c8a81c2	0.016907576
187	0x3d3cc44a	0.046085633
188	0x3b3178f1	0.0027080143
189	0x3cc73877	0.024318917
190	0x3d243b30	0.040095508
191	0x3de4baa2	0.1116841
192	0x3da87fee	0.08227526
193	0x3ca98257	0.020692034
194	0x3c4f4138	0.012649827
195	0x3cab1b7f	0.020887135
196	0x3c897ef5	0.01678417
197	0x3d07b0f6	0.033127747
198	0x3d02bc5e	0.031917922
199	0x3cb9e739	0.022693263
200	0x3cef1235	0.029183486
201	0x3c604457	0.0136881685
202	0xbbf42417	-0.0074505913
203	0xbc42daf6	-0.011893025
204	0x3d111188	0.03541711
205	0xbbb431e4	-0.0054991115
206	0x3ceb2874	0.028705813
207	0x3ca934cd	0.02065506
208	0x3c878ac6	0.016545665
209	0xbe38d2f7	-0.18049227
210	0xbe9fb976	-0.31196183
211	0xbed64584	-0.4184991
212	0xbed4882c	-0.4151014
213	0xbde92460	-0.11383891
214	0x3db6cf77	0.089262895
215	0x3db034b6	0.08603804
216	0xbd23552b	-0.039876144
217	0x3c42310a	0.011852512
218	0x3d8f126f	0.06985938
219	0x3d977627	0.07395583
220	0x3d6c77f7	0.057731595
221	0x3c44be98	0.012008332
222	0x3d0de14c	0.034638688
223	0x3d3b4944	0.04572417
224	0x3cd8aa91	0.02644852
225	0x3b08e42e	0.0020887959
226	0x3d50aa20	0.050943494
227	0x3d312039	0.04324362
228	0xbae79a71	-0.0017669928
229	0x3d10eb91	0.035380904
230	0x3c1abe2b	0.009444754
231	0x3c51ec04	0.012812618
232	0x3d02a7bf	0.031898256
233	0xbd4bdab3	-0.049769115
234	0xbcbf15f7	-0.023325903
235	0x3c95642c	0.018236242
236	0xbb53015d	-0.0032196858
237	0xbe248a04	-0.16068274
238	0xbeba0d4d	-0.36338273
239	0xbefba89d	-0.4915208
240	0xbeb10a0e	-0.34577984
241	0xbd12b6bc	-0.0358188
242	0x3ded11e3	0.11575677
243	0x3c585b29	0.013205328
244	0xbd254493	-0.0403486
245	0xbc23a58b	-0.009988199
246	0x3dd71d40	0.10503626
247	0x3d5f6360	0.05453813
248	0x3d812602	0.063060775
249	0x3ca33514	0.01992277
250	0x3cc62057	0.024185343
251	0x3d07c117	0.03314313
252	0x3d12ac20	0.035808682
253	0x3ceb9cb5	0.028761247
254	0x3d26471a	0.04059515
255	0x3c3509e0	0.011049718

discriminator.1.bias f4 [128]
0	0xbf10c4eb	-0.5655047
1	0xbf4c84d0	-0.79890156
2	0xbf1fc4a4	-0.62409425
3	0x3f76190f	0.96131986
4	0x3f468895	0.7755216
5	0xbf26a808	-0.65100145
6	0x3f600d47	0.8752026
7	0xbf2b768d	-0.6697777
8	0xbf21887e	-0.63098896
9	0xbf13eb65	-0.5778106
10	0xbf65b449	-0.8972822
11	0x3f6f1701	0.93394476
12	0x3f5b77fe	0.8572997
13	0x3f34fad7	0.7069525
14	0xbef219a6	-0.47285193
15	0x3efa7823	0.48919782
16	0xbf1b8428	-0.6074853
17	0xbf1e9ddb	-0.6195962
18	0x3f2d2e94	0.676492
19	0x3f09064c	0.53525233
20	0xbf07c0dd	-0.5302866
21	0x3f21c0c1	0.63184744
22	0x3f443dee	0.76657
23	0x3f771e3d	0.96530515
24	0xbf322e28	-0.6960168
25	0x3f8032ec	1.001554
26	0x3f3bf850	0.7342577
27	0x3f359606	0.7093204
28	0x3f563493	0.8367397
29	0xbf28ecb3	-0.65986174
30	0xbf3730df	-0.71558946
31	0xbf348553	-0.70515937
32	0xbf22d4e5	-0.636061
33	0x3f245f44	0.64207864
34	0x3f471e40	0.7778053
35	0xbf1a5857	-0.60291046
36	0xbf4a177c	-0.78942084
37	0xbedaf599	-0.427655
38	0xbf6766a8	-0.90391016
39	0xbef824f6	-0.484657
40	0xbf1121c2	-0.56692135
41	0xbf27a0bf	-0.65479654
42	0x3f862d27	1.0482529
43	0xbf159779	-0.58434254
44	0xbf0b2514	-0.5435345
45	0x3f108be2	0.56463444
46	0xbf19d54a	-0.6009108
47	0xbf383b78	-0.7196574
48	0x3f06ce0b	0.52658147
49	0x3f2171b5	0.6306413
50	0x3f116b4b	0.5680434
51	0x3f247fb9	0.6425739
52	0xbf5f08bd	-0.8712271
53	0x3f508006	0.8144535
54	0x3f18b96d	0.5965794
55	0xbf3cf822	-0.7381612
56	0xbf5ebbf8	-0.8700557
57	0x3eef5530	0.4674468
58	0xbf0cf144	-0.5505564
59	0x3f4d7445	0.8025554
60	0xbf095000	-0.53637695
61	0xbf13dcc6	-0.5775875
62	0x3f3fbda5	0.7489875
63	0xbef55d98	-0.4792297
64	0xbf469129	-0.77565247
65	0xbf4cc334	-0.79985356
66	0x3f19837a	0.5996624
67	0x3f678ab6	0.9044603
68	0x3f4e1a09	0.80508476
69	0xbefe518c	-0.4967159
70	0x3f4a8aac	0.79117846
71	0x3f6d12be	0.92606723
72	0xbec738be	-0.38910478
73	0x3f1760f7	0.5913233
74	0x3f5f9559	0.8733726
75	0x3ee54faf	0.44787356
76	0xbf010b44	-0.50407815
77	0x3f4649e3	0.7745649
78	0x3f252fba	0.6452595
79	0xbf1dd67b	-0.61655396
80	0x3f4cf3d6	0.80059564
81	0x3f15aeb1	0.5846968
82	0xbf649a39	-0.89297825
83	0x3f2f54dc	0.6848886
84	0xbf35e8af	-0.7105817
85	0x3f8149b8	1.0100622
86	0xbf19687c	-0.59925056
87	0x3f806391	1.0030385
88	0xbf0f6735	-0.56016856
89	0x3f3233f0	0.696105
90	0xbf14b386	-0.5808643
91	0x3efa8624	0.48930466
92	0xbf177b12	-0.59172165
93	0xbf1e0b95	-0.6173642
94	0x3f23e066	0.6401428
95	0xbf3a0f3c	-0.72679496
96	0x3f1eaca0	0.61982155
97	0x3f50f172	0.81618416
98	0xbf6cee72	-0.9255134
99	0x3f7718bb	0.9652211
100	0x3f79a8dd	0.9752329
101	0xbf591140	-0.84791946
102	0x3f7e804c	0.99414515
103	0xbf327242	-0.69705594
104	0x3f149cfc	0.5805204
105	0x3f6deb0d	0.92936784
106	0x3f38732f	0.72050756
107	0x3f806e69	1.0033695
108	0xbf269f83	-0.65087146
109	0xbf23f8ab	-0.6405131
110	0x3f2ac032	0.66699517
111	0x3f260390	0.64849186
112	0x3f15c133	0.58497924
113	0x3f374de5	0.7160323
114	0xbf210ad0	-0.62907124
115	0xbf5de6ea	-0.8668047
116	0xbf413a27	-0.7547936
117	0x3f59f76a	0.8514315
118	0x3f61af47	0.88158077
119	0xbf318c26	-0.69354475
120	0xbf2eaa87	-0.68228954
121	0x3f88cae7	1.0686921
122	0xbefd9c23	-0.49533185
123	0xbf20f13f	-0.6286811
124	0xbf1db3cd	-0.6160248
125	0x3f3e8db6	0.74434984
126	0xbf3d6fe8	-0.7399888
127	0x3f394155	0.72365314

discriminator.4.weight f4 [1, 128]
0	0x3f7ebb1e	0.9950427
1	0x3ef80477	0.48440906
2	0x3f208716	0.62706125
3	0xbecc87d2	-0.39947373
4	0xbf2324be	-0.6372794
5	0x3f1830d1	0.5944949
6	0xbebda3d3	-0.3703905
7	0x3f2bbb7b	0.6708295
8	0x3f149100	0.5803375
9	0x3f251e8d	0.6449974
10	0x3ef1fe77	0.47264454
11	0xbef774db	-0.4833134
12	0xbf27286c	-0.65296054
13	0xbf3a8e6e	-0.7287358
14	0x3ea9f51c	0.33194816
15	0xbe98f449	-0.29873875
16	0x3f1f7918	0.6229415
17	0x3f0f8bb2	0.56072533
18	0xbf00566e	-0.5013188
19	0xbf02e650	-0.5113268
20	0x3f12c41a	0.5733048
21	0xbf0b075d	-0.5430811
22	0xbee908d3	-0.45514545
23	0xbeb4a5f6	-0.35282868
24	0x3f14acf8	0.5807643
25	0xbebffdf3	-0.37498435
26	0xbf2d5c4c	-0.6771896
27	0xbf418c2e	-0.7560452
28	0xbf108d6f	-0.5646581
29	0x3f1a682c	0.60315204
30	0x3f269f02	0.65086377
31	0x3f207248	0.6267438
32	0x3f1c5d41	0.61079794
33	0xbf182b74	-0.59441304
34	0xbf52500d	-0.821534
35	0x3f38250c	0.7193153
36	0x3eea0dbc	0.45713603
37	0x3f1a9a1e	0.60391414
38	0x3edc68dd	0.43048754
39	0x3efcfaca	0.49410087
40	0x3eed9038	0.46399093
41	0x3ef2b9fd	0.47407523
42	0xbef0ff44	-0.47069752
43	0x3eea5059	0.45764425
44	0x3ee76899	0.4519699
45	0xbf25e554	-0.6480305
46	0x3f33080c	0.69934154
47	0x3f0f4300	0.5596161
48	0xbefc9c56	-0.49338025
49	0xbec1f59e	-0.37882704
50	0xbf702954	-0.9381306
51	0xbf3978f2	-0.7245017
52	0x3eb143df	0.34622094
53	0xbf7cfa47	-0.9881939
54	0xbf64d8ba	-0.893932
55	0x3eafeaa2	0.34358698
56	0x3f0012c5	0.5002864
57	0xbd986ab0	-0.07442224
58	0x3ef07783	0.4696618
59	0xbf224b3e	-0.6339606
60	0x3f24865f	0.64267534
61	0x3f3c11ca	0.73464644
62	0xbf38e675	-0.7222665
63	0x3ef65820	0.4811411
64	0x3f2e85a0	0.68172646
65	0x3f000284	0.5000384
66	0xbf3d3cf7	-0.7392115
67	0xbecda44b	-0.40164408
68	0xbee373bf	-0.44424245
69	0x3ee790a1	0.4522753
70	0xbeccad47	-0.3997595
71	0xbed35b1b	-0.41280445
72	0x3ece1353	0.40249118
73	0xbed5612b	-0.41675696
74	0xbf002936	-0.5006288
75	0xbf5fc367	-0.87407535
76	0x3effe295	0.49977556
77	0xbf623659	-0.8836418
78	0xbf702bff	-0.9381713
79	0x3f02b1a9	0.5105234
80	0xbf174a50	-0.59097767
81	0xbf11f940	-0.5702095
82	0x3ed85e7b	0.42259583
83	0xbf0c3831	-0.5477324
84	0x3f19cffa	0.6008297
85	0xbf178928	-0.5919366
86	0x3ef1e90a	0.47248107
87	0xbeb388a9	-0.350652
88	0x3f83ab29	1.0286609
89	0xbf6d0868	-0.9259095
90	0x3ef22241	0.4729176
91	0xbf04a5b5	-0.5181535
92	0x3f49e622	0.7886678
93	0x3f46e9e1	0.7770062
94	0xbf288229	-0.6582361
95	0x3f11374c	0.56725
96	0xbf3e938d	-0.74443895
97	0xbf4f5b6a	-0.8099886
98	0x3ea2c77c	0.3179282
99	0xbec89242	-0.39174086
100	0xbf07ccb7	-0.53046745
101	0x3edba637	0.4290025
102	0xbedcb7e8	-0.4310906
103	0x3f0f7c1b	0.56048745
104	0xbf68755e	-0.9080409
105	0xbec7fd6f	-0.39060542
106	0xbf238030	-0.63867474
107	0xbed577bb	-0.4169291
108	0x3ef7b64a	0.48381263
109	0x3f01c3e8	0.50689554
110	0xbf459d7c	-0.7719343
111	0xbf0a6e5d	-0.5407465
112	0xbf1f8442	-0.62311184
113	0xbf50eb4b	-0.8160903
114	0x3f4933e9	0.78594834
115	0x3f0a73a9	0.54082733
116	0x3f114cec	0.56758
117	0xbf06d2ea	-0.5266558
118	0xbeaa7fd7	-0.3330066
119	0x3eb0f00a	0.34558135
120	0x3eb701af	0.35743472
121	0xbeaa0648	-0.33207917
122	0x3efb9d28	0.49143338
123	0x3eec05fb	0.46098313
124	0x3f071246	0.5276226
125	0xbf6bc6e8	-0.9210038
126	0x3f078822	0.529421
127	0xbf5c0cb1	-0.85956866
